{"format": "graph-model", "generatedBy": "2.15.0", "convertedBy": "TensorFlow.js Converter v4.19.0", "signature": {"inputs": {"input_1": {"name": "input_1:0", "dtype": "DT_FLOAT", "tensorShape": {"dim": [{"size": "-1"}, {"size": "-1"}, {"size": "-1"}, {"size": "6"}]}}}, "outputs": {"Identity_2:0": {"name": "Identity_2:0", "dtype": "DT_FLOAT", "tensorShape": {"dim": [{"size": "-1"}, {"size": "-1"}, {"size": "-1"}, {"size": "2"}]}}, "Identity_1:0": {"name": "Identity_1:0", "dtype": "DT_FLOAT", "tensorShape": {"dim": [{"size": "-1"}, {"size": "-1"}, {"size": "-1"}, {"size": "2"}]}}, "Identity:0": {"name": "Identity:0", "dtype": "DT_FLOAT", "tensorShape": {"dim": [{"size": "-1"}, {"size": "-1"}, {"size": "-1"}, {"size": "2"}]}}, "Identity_4:0": {"name": "Identity_4:0", "dtype": "DT_FLOAT", "tensorShape": {"dim": [{"size": "-1"}, {"size": "-1"}, {"size": "-1"}, {"size": "2"}]}}, "Identity_3:0": {"name": "Identity_3:0", "dtype": "DT_FLOAT", "tensorShape": {"dim": [{"size": "-1"}, {"size": "-1"}, {"size": "-1"}, {"size": "2"}]}}}}, "modelTopology": {"node": [{"name": "StatefulPartitionedCall/pwcdc_net/predict_flow_4/flow2_out/Conv2D/ReadVariableOp", "op": "Const", "attr": {"value": {"tensor": {"dtype": "DT_FLOAT", "tensorShape": {"dim": [{"size": "3"}, {"size": "3"}, {"size": "565"}, {"size": "2"}]}}}, "dtype": {"type": "DT_FLOAT"}}}, {"name": "StatefulPartitionedCall/pwcdc_net/predict_flow_4/flow2_out/BiasAdd/ReadVariableOp", "op": "Const", "attr": {"value": {"tensor": {"dtype": "DT_FLOAT", "tensorShape": {"dim": [{"size": "2"}]}}}, "dtype": {"type": "DT_FLOAT"}}}, {"name": "StatefulPartitionedCall/pwcdc_net/dc_conv5/conv2d_47/Conv2D/SpaceToBatchND/block_shape", "op": "Const", "attr": {"value": {"tensor": {"dtype": "DT_INT32", "tensorShape": {"dim": [{"size": "2"}]}}}, "dtype": {"type": "DT_INT32"}}}, {"name": "StatefulPartitionedCall/pwcdc_net/dc_conv5/conv2d_47/Conv2D/required_space_to_batch_paddings/strided_slice_2", "op": "Const", "attr": {"dtype": {"type": "DT_INT32"}, "value": {"tensor": {"dtype": "DT_INT32", "tensorShape": {}}}}}, {"name": "StatefulPartitionedCall/pwcdc_net/dc_conv5/conv2d_47/Conv2D/required_space_to_batch_paddings/strided_slice_3/stack", "op": "Const", "attr": {"value": {"tensor": {"dtype": "DT_INT32", "tensorShape": {"dim": [{"size": "1"}]}}}, "dtype": {"type": "DT_INT32"}}}, {"name": "StatefulPartitionedCall/pwcdc_net/dc_conv5/conv2d_47/Conv2D/required_space_to_batch_paddings/strided_slice_3/stack_1", "op": "Const", "attr": {"dtype": {"type": "DT_INT32"}, "value": {"tensor": {"dtype": "DT_INT32", "tensorShape": {"dim": [{"size": "1"}]}}}}}, {"name": "StatefulPartitionedCall/pwcdc_net/dc_conv5/conv2d_47/Conv2D/required_space_to_batch_paddings/strided_slice_3/stack_2", "op": "Const", "attr": {"value": {"tensor": {"dtype": "DT_INT32", "tensorShape": {"dim": [{"size": "1"}]}}}, "dtype": {"type": "DT_INT32"}}}, {"name": "StatefulPartitionedCall/pwcdc_net/dc_conv5/conv2d_47/Conv2D/required_space_to_batch_paddings/strided_slice_4", "op": "Const", "attr": {"value": {"tensor": {"dtype": "DT_INT32", "tensorShape": {}}}, "dtype": {"type": "DT_INT32"}}}, {"name": "StatefulPartitionedCall/pwcdc_net/dc_conv5/conv2d_47/Conv2D/required_space_to_batch_paddings/strided_slice_1", "op": "Const", "attr": {"dtype": {"type": "DT_INT32"}, "value": {"tensor": {"dtype": "DT_INT32", "tensorShape": {"dim": [{"size": "2"}]}}}}}, {"name": "StatefulPartitionedCall/pwcdc_net/dc_conv5/conv2d_47/Conv2D/required_space_to_batch_paddings/strided_slice_5/stack", "op": "Const", "attr": {"dtype": {"type": "DT_INT32"}, "value": {"tensor": {"dtype": "DT_INT32", "tensorShape": {"dim": [{"size": "1"}]}}}}}, {"name": "StatefulPartitionedCall/pwcdc_net/dc_conv5/conv2d_47/Conv2D/required_space_to_batch_paddings/strided_slice_5/stack_1", "op": "Const", "attr": {"value": {"tensor": {"dtype": "DT_INT32", "tensorShape": {"dim": [{"size": "1"}]}}}, "dtype": {"type": "DT_INT32"}}}, {"name": "StatefulPartitionedCall/pwcdc_net/dc_conv5/conv2d_47/Conv2D/required_space_to_batch_paddings/strided_slice_5/stack_2", "op": "Const", "attr": {"dtype": {"type": "DT_INT32"}, "value": {"tensor": {"dtype": "DT_INT32", "tensorShape": {"dim": [{"size": "1"}]}}}}}, {"name": "StatefulPartitionedCall/pwcdc_net/dc_conv5/conv2d_47/Conv2D/ReadVariableOp", "op": "Const", "attr": {"value": {"tensor": {"dtype": "DT_FLOAT", "tensorShape": {"dim": [{"size": "3"}, {"size": "3"}, {"size": "96"}, {"size": "64"}]}}}, "dtype": {"type": "DT_FLOAT"}}}, {"name": "StatefulPartitionedCall/pwcdc_net/dc_conv5/conv2d_47/Conv2D/BatchToSpaceND/block_shape", "op": "Const", "attr": {"dtype": {"type": "DT_INT32"}, "value": {"tensor": {"dtype": "DT_INT32", "tensorShape": {"dim": [{"size": "2"}]}}}}}, {"name": "StatefulPartitionedCall/pwcdc_net/dc_conv5/conv2d_47/Conv2D/required_space_to_batch_paddings/crops/0/0", "op": "Const", "attr": {"value": {"tensor": {"dtype": "DT_INT32", "tensorShape": {}}}, "dtype": {"type": "DT_INT32"}}}, {"name": "StatefulPartitionedCall/pwcdc_net/dc_conv5/conv2d_47/Conv2D/required_space_to_batch_paddings/strided_slice_6/stack", "op": "Const", "attr": {"value": {"tensor": {"dtype": "DT_INT32", "tensorShape": {"dim": [{"size": "1"}]}}}, "dtype": {"type": "DT_INT32"}}}, {"name": "StatefulPartitionedCall/pwcdc_net/dc_conv5/conv2d_47/Conv2D/required_space_to_batch_paddings/strided_slice_6/stack_1", "op": "Const", "attr": {"dtype": {"type": "DT_INT32"}, "value": {"tensor": {"dtype": "DT_INT32", "tensorShape": {"dim": [{"size": "1"}]}}}}}, {"name": "StatefulPartitionedCall/pwcdc_net/dc_conv5/conv2d_47/Conv2D/required_space_to_batch_paddings/strided_slice_6/stack_2", "op": "Const", "attr": {"dtype": {"type": "DT_INT32"}, "value": {"tensor": {"dtype": "DT_INT32", "tensorShape": {"dim": [{"size": "1"}]}}}}}, {"name": "StatefulPartitionedCall/pwcdc_net/dc_conv5/conv2d_47/Conv2D/required_space_to_batch_paddings/crops/1/0", "op": "Const", "attr": {"value": {"tensor": {"dtype": "DT_INT32", "tensorShape": {}}}, "dtype": {"type": "DT_INT32"}}}, {"name": "StatefulPartitionedCall/pwcdc_net/dc_conv5/conv2d_47/Conv2D/strided_slice/stack", "op": "Const", "attr": {"value": {"tensor": {"dtype": "DT_INT32", "tensorShape": {"dim": [{"size": "1"}]}}}, "dtype": {"type": "DT_INT32"}}}, {"name": "StatefulPartitionedCall/pwcdc_net/dc_conv5/conv2d_47/Conv2D/strided_slice/stack_1", "op": "Const", "attr": {"dtype": {"type": "DT_INT32"}, "value": {"tensor": {"dtype": "DT_INT32", "tensorShape": {"dim": [{"size": "1"}]}}}}}, {"name": "StatefulPartitionedCall/pwcdc_net/dc_conv5/conv2d_47/Conv2D/strided_slice/stack_2", "op": "Const", "attr": {"dtype": {"type": "DT_INT32"}, "value": {"tensor": {"dtype": "DT_INT32", "tensorShape": {"dim": [{"size": "1"}]}}}}}, {"name": "StatefulPartitionedCall/pwcdc_net/dc_conv4/conv2d_46/Conv2D/SpaceToBatchND/block_shape", "op": "Const", "attr": {"dtype": {"type": "DT_INT32"}, "value": {"tensor": {"dtype": "DT_INT32", "tensorShape": {"dim": [{"size": "2"}]}}}}}, {"name": "StatefulPartitionedCall/pwcdc_net/dc_conv4/conv2d_46/Conv2D/required_space_to_batch_paddings/strided_slice_2", "op": "Const", "attr": {"dtype": {"type": "DT_INT32"}, "value": {"tensor": {"dtype": "DT_INT32", "tensorShape": {}}}}}, {"name": "StatefulPartitionedCall/pwcdc_net/dc_conv4/conv2d_46/Conv2D/required_space_to_batch_paddings/strided_slice_3/stack", "op": "Const", "attr": {"dtype": {"type": "DT_INT32"}, "value": {"tensor": {"dtype": "DT_INT32", "tensorShape": {"dim": [{"size": "1"}]}}}}}, {"name": "StatefulPartitionedCall/pwcdc_net/dc_conv4/conv2d_46/Conv2D/required_space_to_batch_paddings/strided_slice_3/stack_1", "op": "Const", "attr": {"value": {"tensor": {"dtype": "DT_INT32", "tensorShape": {"dim": [{"size": "1"}]}}}, "dtype": {"type": "DT_INT32"}}}, {"name": "StatefulPartitionedCall/pwcdc_net/dc_conv4/conv2d_46/Conv2D/required_space_to_batch_paddings/strided_slice_3/stack_2", "op": "Const", "attr": {"value": {"tensor": {"dtype": "DT_INT32", "tensorShape": {"dim": [{"size": "1"}]}}}, "dtype": {"type": "DT_INT32"}}}, {"name": "StatefulPartitionedCall/pwcdc_net/dc_conv4/conv2d_46/Conv2D/required_space_to_batch_paddings/strided_slice_4", "op": "Const", "attr": {"value": {"tensor": {"dtype": "DT_INT32", "tensorShape": {}}}, "dtype": {"type": "DT_INT32"}}}, {"name": "StatefulPartitionedCall/pwcdc_net/dc_conv4/conv2d_46/Conv2D/required_space_to_batch_paddings/strided_slice_1", "op": "Const", "attr": {"dtype": {"type": "DT_INT32"}, "value": {"tensor": {"dtype": "DT_INT32", "tensorShape": {"dim": [{"size": "2"}]}}}}}, {"name": "StatefulPartitionedCall/pwcdc_net/dc_conv4/conv2d_46/Conv2D/required_space_to_batch_paddings/strided_slice_5/stack", "op": "Const", "attr": {"dtype": {"type": "DT_INT32"}, "value": {"tensor": {"dtype": "DT_INT32", "tensorShape": {"dim": [{"size": "1"}]}}}}}, {"name": "StatefulPartitionedCall/pwcdc_net/dc_conv4/conv2d_46/Conv2D/required_space_to_batch_paddings/strided_slice_5/stack_1", "op": "Const", "attr": {"dtype": {"type": "DT_INT32"}, "value": {"tensor": {"dtype": "DT_INT32", "tensorShape": {"dim": [{"size": "1"}]}}}}}, {"name": "StatefulPartitionedCall/pwcdc_net/dc_conv4/conv2d_46/Conv2D/required_space_to_batch_paddings/strided_slice_5/stack_2", "op": "Const", "attr": {"value": {"tensor": {"dtype": "DT_INT32", "tensorShape": {"dim": [{"size": "1"}]}}}, "dtype": {"type": "DT_INT32"}}}, {"name": "StatefulPartitionedCall/pwcdc_net/dc_conv4/conv2d_46/Conv2D/ReadVariableOp", "op": "Const", "attr": {"dtype": {"type": "DT_FLOAT"}, "value": {"tensor": {"dtype": "DT_FLOAT", "tensorShape": {"dim": [{"size": "3"}, {"size": "3"}, {"size": "128"}, {"size": "96"}]}}}}}, {"name": "StatefulPartitionedCall/pwcdc_net/dc_conv4/conv2d_46/Conv2D/BatchToSpaceND/block_shape", "op": "Const", "attr": {"dtype": {"type": "DT_INT32"}, "value": {"tensor": {"dtype": "DT_INT32", "tensorShape": {"dim": [{"size": "2"}]}}}}}, {"name": "StatefulPartitionedCall/pwcdc_net/dc_conv4/conv2d_46/Conv2D/required_space_to_batch_paddings/crops/0/0", "op": "Const", "attr": {"dtype": {"type": "DT_INT32"}, "value": {"tensor": {"dtype": "DT_INT32", "tensorShape": {}}}}}, {"name": "StatefulPartitionedCall/pwcdc_net/dc_conv4/conv2d_46/Conv2D/required_space_to_batch_paddings/strided_slice_6/stack", "op": "Const", "attr": {"dtype": {"type": "DT_INT32"}, "value": {"tensor": {"dtype": "DT_INT32", "tensorShape": {"dim": [{"size": "1"}]}}}}}, {"name": "StatefulPartitionedCall/pwcdc_net/dc_conv4/conv2d_46/Conv2D/required_space_to_batch_paddings/strided_slice_6/stack_1", "op": "Const", "attr": {"value": {"tensor": {"dtype": "DT_INT32", "tensorShape": {"dim": [{"size": "1"}]}}}, "dtype": {"type": "DT_INT32"}}}, {"name": "StatefulPartitionedCall/pwcdc_net/dc_conv4/conv2d_46/Conv2D/required_space_to_batch_paddings/strided_slice_6/stack_2", "op": "Const", "attr": {"dtype": {"type": "DT_INT32"}, "value": {"tensor": {"dtype": "DT_INT32", "tensorShape": {"dim": [{"size": "1"}]}}}}}, {"name": "StatefulPartitionedCall/pwcdc_net/dc_conv4/conv2d_46/Conv2D/required_space_to_batch_paddings/crops/1/0", "op": "Const", "attr": {"value": {"tensor": {"dtype": "DT_INT32", "tensorShape": {}}}, "dtype": {"type": "DT_INT32"}}}, {"name": "StatefulPartitionedCall/pwcdc_net/dc_conv4/conv2d_46/Conv2D/strided_slice/stack", "op": "Const", "attr": {"value": {"tensor": {"dtype": "DT_INT32", "tensorShape": {"dim": [{"size": "1"}]}}}, "dtype": {"type": "DT_INT32"}}}, {"name": "StatefulPartitionedCall/pwcdc_net/dc_conv4/conv2d_46/Conv2D/strided_slice/stack_1", "op": "Const", "attr": {"value": {"tensor": {"dtype": "DT_INT32", "tensorShape": {"dim": [{"size": "1"}]}}}, "dtype": {"type": "DT_INT32"}}}, {"name": "StatefulPartitionedCall/pwcdc_net/dc_conv4/conv2d_46/Conv2D/strided_slice/stack_2", "op": "Const", "attr": {"value": {"tensor": {"dtype": "DT_INT32", "tensorShape": {"dim": [{"size": "1"}]}}}, "dtype": {"type": "DT_INT32"}}}, {"name": "StatefulPartitionedCall/pwcdc_net/dc_conv3/conv2d_45/Conv2D/SpaceToBatchND/block_shape", "op": "Const", "attr": {"value": {"tensor": {"dtype": "DT_INT32", "tensorShape": {"dim": [{"size": "2"}]}}}, "dtype": {"type": "DT_INT32"}}}, {"name": "StatefulPartitionedCall/pwcdc_net/dc_conv3/conv2d_45/Conv2D/required_space_to_batch_paddings/strided_slice_2", "op": "Const", "attr": {"dtype": {"type": "DT_INT32"}, "value": {"tensor": {"dtype": "DT_INT32", "tensorShape": {}}}}}, {"name": "StatefulPartitionedCall/pwcdc_net/dc_conv3/conv2d_45/Conv2D/required_space_to_batch_paddings/strided_slice_3/stack", "op": "Const", "attr": {"dtype": {"type": "DT_INT32"}, "value": {"tensor": {"dtype": "DT_INT32", "tensorShape": {"dim": [{"size": "1"}]}}}}}, {"name": "StatefulPartitionedCall/pwcdc_net/dc_conv3/conv2d_45/Conv2D/required_space_to_batch_paddings/strided_slice_3/stack_1", "op": "Const", "attr": {"value": {"tensor": {"dtype": "DT_INT32", "tensorShape": {"dim": [{"size": "1"}]}}}, "dtype": {"type": "DT_INT32"}}}, {"name": "StatefulPartitionedCall/pwcdc_net/dc_conv3/conv2d_45/Conv2D/required_space_to_batch_paddings/strided_slice_3/stack_2", "op": "Const", "attr": {"dtype": {"type": "DT_INT32"}, "value": {"tensor": {"dtype": "DT_INT32", "tensorShape": {"dim": [{"size": "1"}]}}}}}, {"name": "StatefulPartitionedCall/pwcdc_net/dc_conv3/conv2d_45/Conv2D/required_space_to_batch_paddings/strided_slice_4", "op": "Const", "attr": {"dtype": {"type": "DT_INT32"}, "value": {"tensor": {"dtype": "DT_INT32", "tensorShape": {}}}}}, {"name": "StatefulPartitionedCall/pwcdc_net/dc_conv3/conv2d_45/Conv2D/required_space_to_batch_paddings/strided_slice_1", "op": "Const", "attr": {"value": {"tensor": {"dtype": "DT_INT32", "tensorShape": {"dim": [{"size": "2"}]}}}, "dtype": {"type": "DT_INT32"}}}, {"name": "StatefulPartitionedCall/pwcdc_net/dc_conv3/conv2d_45/Conv2D/required_space_to_batch_paddings/strided_slice_5/stack", "op": "Const", "attr": {"value": {"tensor": {"dtype": "DT_INT32", "tensorShape": {"dim": [{"size": "1"}]}}}, "dtype": {"type": "DT_INT32"}}}, {"name": "StatefulPartitionedCall/pwcdc_net/dc_conv3/conv2d_45/Conv2D/required_space_to_batch_paddings/strided_slice_5/stack_1", "op": "Const", "attr": {"value": {"tensor": {"dtype": "DT_INT32", "tensorShape": {"dim": [{"size": "1"}]}}}, "dtype": {"type": "DT_INT32"}}}, {"name": "StatefulPartitionedCall/pwcdc_net/dc_conv3/conv2d_45/Conv2D/required_space_to_batch_paddings/strided_slice_5/stack_2", "op": "Const", "attr": {"dtype": {"type": "DT_INT32"}, "value": {"tensor": {"dtype": "DT_INT32", "tensorShape": {"dim": [{"size": "1"}]}}}}}, {"name": "StatefulPartitionedCall/pwcdc_net/dc_conv3/conv2d_45/Conv2D/ReadVariableOp", "op": "Const", "attr": {"dtype": {"type": "DT_FLOAT"}, "value": {"tensor": {"dtype": "DT_FLOAT", "tensorShape": {"dim": [{"size": "3"}, {"size": "3"}, {"size": "128"}, {"size": "128"}]}}}}}, {"name": "StatefulPartitionedCall/pwcdc_net/dc_conv3/conv2d_45/Conv2D/BatchToSpaceND/block_shape", "op": "Const", "attr": {"dtype": {"type": "DT_INT32"}, "value": {"tensor": {"dtype": "DT_INT32", "tensorShape": {"dim": [{"size": "2"}]}}}}}, {"name": "StatefulPartitionedCall/pwcdc_net/dc_conv3/conv2d_45/Conv2D/required_space_to_batch_paddings/crops/0/0", "op": "Const", "attr": {"dtype": {"type": "DT_INT32"}, "value": {"tensor": {"dtype": "DT_INT32", "tensorShape": {}}}}}, {"name": "StatefulPartitionedCall/pwcdc_net/dc_conv3/conv2d_45/Conv2D/required_space_to_batch_paddings/strided_slice_6/stack", "op": "Const", "attr": {"dtype": {"type": "DT_INT32"}, "value": {"tensor": {"dtype": "DT_INT32", "tensorShape": {"dim": [{"size": "1"}]}}}}}, {"name": "StatefulPartitionedCall/pwcdc_net/dc_conv3/conv2d_45/Conv2D/required_space_to_batch_paddings/strided_slice_6/stack_1", "op": "Const", "attr": {"value": {"tensor": {"dtype": "DT_INT32", "tensorShape": {"dim": [{"size": "1"}]}}}, "dtype": {"type": "DT_INT32"}}}, {"name": "StatefulPartitionedCall/pwcdc_net/dc_conv3/conv2d_45/Conv2D/required_space_to_batch_paddings/strided_slice_6/stack_2", "op": "Const", "attr": {"value": {"tensor": {"dtype": "DT_INT32", "tensorShape": {"dim": [{"size": "1"}]}}}, "dtype": {"type": "DT_INT32"}}}, {"name": "StatefulPartitionedCall/pwcdc_net/dc_conv3/conv2d_45/Conv2D/required_space_to_batch_paddings/crops/1/0", "op": "Const", "attr": {"value": {"tensor": {"dtype": "DT_INT32", "tensorShape": {}}}, "dtype": {"type": "DT_INT32"}}}, {"name": "StatefulPartitionedCall/pwcdc_net/dc_conv3/conv2d_45/Conv2D/strided_slice/stack", "op": "Const", "attr": {"dtype": {"type": "DT_INT32"}, "value": {"tensor": {"dtype": "DT_INT32", "tensorShape": {"dim": [{"size": "1"}]}}}}}, {"name": "StatefulPartitionedCall/pwcdc_net/dc_conv3/conv2d_45/Conv2D/strided_slice/stack_1", "op": "Const", "attr": {"value": {"tensor": {"dtype": "DT_INT32", "tensorShape": {"dim": [{"size": "1"}]}}}, "dtype": {"type": "DT_INT32"}}}, {"name": "StatefulPartitionedCall/pwcdc_net/dc_conv3/conv2d_45/Conv2D/strided_slice/stack_2", "op": "Const", "attr": {"value": {"tensor": {"dtype": "DT_INT32", "tensorShape": {"dim": [{"size": "1"}]}}}, "dtype": {"type": "DT_INT32"}}}, {"name": "StatefulPartitionedCall/pwcdc_net/dc_conv2/conv2d_44/Conv2D/SpaceToBatchND/block_shape", "op": "Const", "attr": {"dtype": {"type": "DT_INT32"}, "value": {"tensor": {"dtype": "DT_INT32", "tensorShape": {"dim": [{"size": "2"}]}}}}}, {"name": "StatefulPartitionedCall/pwcdc_net/dc_conv2/conv2d_44/Conv2D/required_space_to_batch_paddings/strided_slice_2", "op": "Const", "attr": {"dtype": {"type": "DT_INT32"}, "value": {"tensor": {"dtype": "DT_INT32", "tensorShape": {}}}}}, {"name": "StatefulPartitionedCall/pwcdc_net/dc_conv2/conv2d_44/Conv2D/required_space_to_batch_paddings/strided_slice_3/stack", "op": "Const", "attr": {"dtype": {"type": "DT_INT32"}, "value": {"tensor": {"dtype": "DT_INT32", "tensorShape": {"dim": [{"size": "1"}]}}}}}, {"name": "StatefulPartitionedCall/pwcdc_net/dc_conv2/conv2d_44/Conv2D/required_space_to_batch_paddings/strided_slice_3/stack_1", "op": "Const", "attr": {"dtype": {"type": "DT_INT32"}, "value": {"tensor": {"dtype": "DT_INT32", "tensorShape": {"dim": [{"size": "1"}]}}}}}, {"name": "StatefulPartitionedCall/pwcdc_net/dc_conv2/conv2d_44/Conv2D/required_space_to_batch_paddings/strided_slice_3/stack_2", "op": "Const", "attr": {"dtype": {"type": "DT_INT32"}, "value": {"tensor": {"dtype": "DT_INT32", "tensorShape": {"dim": [{"size": "1"}]}}}}}, {"name": "StatefulPartitionedCall/pwcdc_net/dc_conv2/conv2d_44/Conv2D/required_space_to_batch_paddings/strided_slice_4", "op": "Const", "attr": {"dtype": {"type": "DT_INT32"}, "value": {"tensor": {"dtype": "DT_INT32", "tensorShape": {}}}}}, {"name": "StatefulPartitionedCall/pwcdc_net/dc_conv2/conv2d_44/Conv2D/required_space_to_batch_paddings/strided_slice_1", "op": "Const", "attr": {"dtype": {"type": "DT_INT32"}, "value": {"tensor": {"dtype": "DT_INT32", "tensorShape": {"dim": [{"size": "2"}]}}}}}, {"name": "StatefulPartitionedCall/pwcdc_net/dc_conv2/conv2d_44/Conv2D/required_space_to_batch_paddings/strided_slice_5/stack", "op": "Const", "attr": {"dtype": {"type": "DT_INT32"}, "value": {"tensor": {"dtype": "DT_INT32", "tensorShape": {"dim": [{"size": "1"}]}}}}}, {"name": "StatefulPartitionedCall/pwcdc_net/dc_conv2/conv2d_44/Conv2D/required_space_to_batch_paddings/strided_slice_5/stack_1", "op": "Const", "attr": {"dtype": {"type": "DT_INT32"}, "value": {"tensor": {"dtype": "DT_INT32", "tensorShape": {"dim": [{"size": "1"}]}}}}}, {"name": "StatefulPartitionedCall/pwcdc_net/dc_conv2/conv2d_44/Conv2D/required_space_to_batch_paddings/strided_slice_5/stack_2", "op": "Const", "attr": {"dtype": {"type": "DT_INT32"}, "value": {"tensor": {"dtype": "DT_INT32", "tensorShape": {"dim": [{"size": "1"}]}}}}}, {"name": "StatefulPartitionedCall/pwcdc_net/dc_conv2/conv2d_44/Conv2D/ReadVariableOp", "op": "Const", "attr": {"value": {"tensor": {"dtype": "DT_FLOAT", "tensorShape": {"dim": [{"size": "3"}, {"size": "3"}, {"size": "128"}, {"size": "128"}]}}}, "dtype": {"type": "DT_FLOAT"}}}, {"name": "StatefulPartitionedCall/pwcdc_net/dc_conv2/conv2d_44/Conv2D/BatchToSpaceND/block_shape", "op": "Const", "attr": {"value": {"tensor": {"dtype": "DT_INT32", "tensorShape": {"dim": [{"size": "2"}]}}}, "dtype": {"type": "DT_INT32"}}}, {"name": "StatefulPartitionedCall/pwcdc_net/dc_conv2/conv2d_44/Conv2D/required_space_to_batch_paddings/crops/0/0", "op": "Const", "attr": {"value": {"tensor": {"dtype": "DT_INT32", "tensorShape": {}}}, "dtype": {"type": "DT_INT32"}}}, {"name": "StatefulPartitionedCall/pwcdc_net/dc_conv2/conv2d_44/Conv2D/required_space_to_batch_paddings/strided_slice_6/stack", "op": "Const", "attr": {"dtype": {"type": "DT_INT32"}, "value": {"tensor": {"dtype": "DT_INT32", "tensorShape": {"dim": [{"size": "1"}]}}}}}, {"name": "StatefulPartitionedCall/pwcdc_net/dc_conv2/conv2d_44/Conv2D/required_space_to_batch_paddings/strided_slice_6/stack_1", "op": "Const", "attr": {"value": {"tensor": {"dtype": "DT_INT32", "tensorShape": {"dim": [{"size": "1"}]}}}, "dtype": {"type": "DT_INT32"}}}, {"name": "StatefulPartitionedCall/pwcdc_net/dc_conv2/conv2d_44/Conv2D/required_space_to_batch_paddings/strided_slice_6/stack_2", "op": "Const", "attr": {"dtype": {"type": "DT_INT32"}, "value": {"tensor": {"dtype": "DT_INT32", "tensorShape": {"dim": [{"size": "1"}]}}}}}, {"name": "StatefulPartitionedCall/pwcdc_net/dc_conv2/conv2d_44/Conv2D/required_space_to_batch_paddings/crops/1/0", "op": "Const", "attr": {"value": {"tensor": {"dtype": "DT_INT32", "tensorShape": {}}}, "dtype": {"type": "DT_INT32"}}}, {"name": "StatefulPartitionedCall/pwcdc_net/dc_conv2/conv2d_44/Conv2D/strided_slice/stack", "op": "Const", "attr": {"dtype": {"type": "DT_INT32"}, "value": {"tensor": {"dtype": "DT_INT32", "tensorShape": {"dim": [{"size": "1"}]}}}}}, {"name": "StatefulPartitionedCall/pwcdc_net/dc_conv2/conv2d_44/Conv2D/strided_slice/stack_1", "op": "Const", "attr": {"dtype": {"type": "DT_INT32"}, "value": {"tensor": {"dtype": "DT_INT32", "tensorShape": {"dim": [{"size": "1"}]}}}}}, {"name": "StatefulPartitionedCall/pwcdc_net/dc_conv2/conv2d_44/Conv2D/strided_slice/stack_2", "op": "Const", "attr": {"value": {"tensor": {"dtype": "DT_INT32", "tensorShape": {"dim": [{"size": "1"}]}}}, "dtype": {"type": "DT_INT32"}}}, {"name": "StatefulPartitionedCall/pwcdc_net/conv2_4/conv2d_42/Conv2D/ReadVariableOp", "op": "Const", "attr": {"dtype": {"type": "DT_FLOAT"}, "value": {"tensor": {"dtype": "DT_FLOAT", "tensorShape": {"dim": [{"size": "3"}, {"size": "3"}, {"size": "533"}, {"size": "32"}]}}}}}, {"name": "StatefulPartitionedCall/pwcdc_net/conv2_4/conv2d_42/BiasAdd/ReadVariableOp", "op": "Const", "attr": {"dtype": {"type": "DT_FLOAT"}, "value": {"tensor": {"dtype": "DT_FLOAT", "tensorShape": {"dim": [{"size": "32"}]}}}}}, {"name": "StatefulPartitionedCall/pwcdc_net/conv2_3/conv2d_41/Conv2D/ReadVariableOp", "op": "Const", "attr": {"dtype": {"type": "DT_FLOAT"}, "value": {"tensor": {"dtype": "DT_FLOAT", "tensorShape": {"dim": [{"size": "3"}, {"size": "3"}, {"size": "469"}, {"size": "64"}]}}}}}, {"name": "StatefulPartitionedCall/pwcdc_net/conv2_3/conv2d_41/BiasAdd/ReadVariableOp", "op": "Const", "attr": {"value": {"tensor": {"dtype": "DT_FLOAT", "tensorShape": {"dim": [{"size": "64"}]}}}, "dtype": {"type": "DT_FLOAT"}}}, {"name": "StatefulPartitionedCall/pwcdc_net/conv2_2/conv2d_40/Conv2D/ReadVariableOp", "op": "Const", "attr": {"dtype": {"type": "DT_FLOAT"}, "value": {"tensor": {"dtype": "DT_FLOAT", "tensorShape": {"dim": [{"size": "3"}, {"size": "3"}, {"size": "373"}, {"size": "96"}]}}}}}, {"name": "StatefulPartitionedCall/pwcdc_net/conv2_2/conv2d_40/BiasAdd/ReadVariableOp", "op": "Const", "attr": {"dtype": {"type": "DT_FLOAT"}, "value": {"tensor": {"dtype": "DT_FLOAT", "tensorShape": {"dim": [{"size": "96"}]}}}}}, {"name": "StatefulPartitionedCall/pwcdc_net/conv2_1/conv2d_39/Conv2D/ReadVariableOp", "op": "Const", "attr": {"value": {"tensor": {"dtype": "DT_FLOAT", "tensorShape": {"dim": [{"size": "3"}, {"size": "3"}, {"size": "245"}, {"size": "128"}]}}}, "dtype": {"type": "DT_FLOAT"}}}, {"name": "StatefulPartitionedCall/pwcdc_net/conv2_1/conv2d_39/BiasAdd/ReadVariableOp", "op": "Const", "attr": {"value": {"tensor": {"dtype": "DT_FLOAT", "tensorShape": {"dim": [{"size": "128"}]}}}, "dtype": {"type": "DT_FLOAT"}}}, {"name": "StatefulPartitionedCall/pwcdc_net/conv2_0/conv2d_38/Conv2D/ReadVariableOp", "op": "Const", "attr": {"dtype": {"type": "DT_FLOAT"}, "value": {"tensor": {"dtype": "DT_FLOAT", "tensorShape": {"dim": [{"size": "3"}, {"size": "3"}, {"size": "117"}, {"size": "128"}]}}}}}, {"name": "StatefulPartitionedCall/pwcdc_net/conv2_0/conv2d_38/BiasAdd/ReadVariableOp", "op": "Const", "attr": {"dtype": {"type": "DT_FLOAT"}, "value": {"tensor": {"dtype": "DT_FLOAT", "tensorShape": {"dim": [{"size": "128"}]}}}}}, {"name": "StatefulPartitionedCall/pwcdc_net/Slice_324/begin", "op": "Const", "attr": {"dtype": {"type": "DT_INT32"}, "value": {"tensor": {"dtype": "DT_INT32", "tensorShape": {"dim": [{"size": "4"}]}}}}}, {"name": "StatefulPartitionedCall/pwcdc_net/Slice_324/size/0", "op": "Const", "attr": {"value": {"tensor": {"dtype": "DT_INT32", "tensorShape": {}}}, "dtype": {"type": "DT_INT32"}}}, {"name": "StatefulPartitionedCall/pwcdc_net/Slice_324/size/3", "op": "Const", "attr": {"value": {"tensor": {"dtype": "DT_INT32", "tensorShape": {}}}, "dtype": {"type": "DT_INT32"}}}, {"name": "StatefulPartitionedCall/pwcdc_net/Mean_324/reduction_indices", "op": "Const", "attr": {"dtype": {"type": "DT_INT32"}, "value": {"tensor": {"dtype": "DT_INT32", "tensorShape": {}}}}}, {"name": "StatefulPartitionedCall/pwcdc_net/Slice_325/begin", "op": "Const", "attr": {"dtype": {"type": "DT_INT32"}, "value": {"tensor": {"dtype": "DT_INT32", "tensorShape": {"dim": [{"size": "4"}]}}}}}, {"name": "StatefulPartitionedCall/pwcdc_net/Slice_325/size/0", "op": "Const", "attr": {"value": {"tensor": {"dtype": "DT_INT32", "tensorShape": {}}}, "dtype": {"type": "DT_INT32"}}}, {"name": "StatefulPartitionedCall/pwcdc_net/Slice_325/size/3", "op": "Const", "attr": {"dtype": {"type": "DT_INT32"}, "value": {"tensor": {"dtype": "DT_INT32", "tensorShape": {}}}}}, {"name": "StatefulPartitionedCall/pwcdc_net/Mean_325/reduction_indices", "op": "Const", "attr": {"value": {"tensor": {"dtype": "DT_INT32", "tensorShape": {}}}, "dtype": {"type": "DT_INT32"}}}, {"name": "StatefulPartitionedCall/pwcdc_net/Slice_326/begin", "op": "Const", "attr": {"dtype": {"type": "DT_INT32"}, "value": {"tensor": {"dtype": "DT_INT32", "tensorShape": {"dim": [{"size": "4"}]}}}}}, {"name": "StatefulPartitionedCall/pwcdc_net/Slice_326/size/0", "op": "Const", "attr": {"value": {"tensor": {"dtype": "DT_INT32", "tensorShape": {}}}, "dtype": {"type": "DT_INT32"}}}, {"name": "StatefulPartitionedCall/pwcdc_net/Slice_326/size/3", "op": "Const", "attr": {"dtype": {"type": "DT_INT32"}, "value": {"tensor": {"dtype": "DT_INT32", "tensorShape": {}}}}}, {"name": "StatefulPartitionedCall/pwcdc_net/Mean_326/reduction_indices", "op": "Const", "attr": {"value": {"tensor": {"dtype": "DT_INT32", "tensorShape": {}}}, "dtype": {"type": "DT_INT32"}}}, {"name": "StatefulPartitionedCall/pwcdc_net/Slice_327/begin", "op": "Const", "attr": {"value": {"tensor": {"dtype": "DT_INT32", "tensorShape": {"dim": [{"size": "4"}]}}}, "dtype": {"type": "DT_INT32"}}}, {"name": "StatefulPartitionedCall/pwcdc_net/Slice_327/size/0", "op": "Const", "attr": {"value": {"tensor": {"dtype": "DT_INT32", "tensorShape": {}}}, "dtype": {"type": "DT_INT32"}}}, {"name": "StatefulPartitionedCall/pwcdc_net/Slice_327/size/3", "op": "Const", "attr": {"value": {"tensor": {"dtype": "DT_INT32", "tensorShape": {}}}, "dtype": {"type": "DT_INT32"}}}, {"name": "StatefulPartitionedCall/pwcdc_net/Mean_327/reduction_indices", "op": "Const", "attr": {"dtype": {"type": "DT_INT32"}, "value": {"tensor": {"dtype": "DT_INT32", "tensorShape": {}}}}}, {"name": "StatefulPartitionedCall/pwcdc_net/Slice_328/begin", "op": "Const", "attr": {"value": {"tensor": {"dtype": "DT_INT32", "tensorShape": {"dim": [{"size": "4"}]}}}, "dtype": {"type": "DT_INT32"}}}, {"name": "StatefulPartitionedCall/pwcdc_net/Slice_328/size/0", "op": "Const", "attr": {"value": {"tensor": {"dtype": "DT_INT32", "tensorShape": {}}}, "dtype": {"type": "DT_INT32"}}}, {"name": "StatefulPartitionedCall/pwcdc_net/Slice_328/size/3", "op": "Const", "attr": {"value": {"tensor": {"dtype": "DT_INT32", "tensorShape": {}}}, "dtype": {"type": "DT_INT32"}}}, {"name": "StatefulPartitionedCall/pwcdc_net/Mean_328/reduction_indices", "op": "Const", "attr": {"dtype": {"type": "DT_INT32"}, "value": {"tensor": {"dtype": "DT_INT32", "tensorShape": {}}}}}, {"name": "StatefulPartitionedCall/pwcdc_net/Slice_329/begin", "op": "Const", "attr": {"dtype": {"type": "DT_INT32"}, "value": {"tensor": {"dtype": "DT_INT32", "tensorShape": {"dim": [{"size": "4"}]}}}}}, {"name": "StatefulPartitionedCall/pwcdc_net/Slice_329/size/0", "op": "Const", "attr": {"value": {"tensor": {"dtype": "DT_INT32", "tensorShape": {}}}, "dtype": {"type": "DT_INT32"}}}, {"name": "StatefulPartitionedCall/pwcdc_net/Slice_329/size/3", "op": "Const", "attr": {"value": {"tensor": {"dtype": "DT_INT32", "tensorShape": {}}}, "dtype": {"type": "DT_INT32"}}}, {"name": "StatefulPartitionedCall/pwcdc_net/Mean_329/reduction_indices", "op": "Const", "attr": {"value": {"tensor": {"dtype": "DT_INT32", "tensorShape": {}}}, "dtype": {"type": "DT_INT32"}}}, {"name": "StatefulPartitionedCall/pwcdc_net/Slice_330/begin", "op": "Const", "attr": {"value": {"tensor": {"dtype": "DT_INT32", "tensorShape": {"dim": [{"size": "4"}]}}}, "dtype": {"type": "DT_INT32"}}}, {"name": "StatefulPartitionedCall/pwcdc_net/Slice_330/size/0", "op": "Const", "attr": {"value": {"tensor": {"dtype": "DT_INT32", "tensorShape": {}}}, "dtype": {"type": "DT_INT32"}}}, {"name": "StatefulPartitionedCall/pwcdc_net/Slice_330/size/3", "op": "Const", "attr": {"dtype": {"type": "DT_INT32"}, "value": {"tensor": {"dtype": "DT_INT32", "tensorShape": {}}}}}, {"name": "StatefulPartitionedCall/pwcdc_net/Mean_330/reduction_indices", "op": "Const", "attr": {"value": {"tensor": {"dtype": "DT_INT32", "tensorShape": {}}}, "dtype": {"type": "DT_INT32"}}}, {"name": "StatefulPartitionedCall/pwcdc_net/Slice_331/begin", "op": "Const", "attr": {"dtype": {"type": "DT_INT32"}, "value": {"tensor": {"dtype": "DT_INT32", "tensorShape": {"dim": [{"size": "4"}]}}}}}, {"name": "StatefulPartitionedCall/pwcdc_net/Slice_331/size/0", "op": "Const", "attr": {"value": {"tensor": {"dtype": "DT_INT32", "tensorShape": {}}}, "dtype": {"type": "DT_INT32"}}}, {"name": "StatefulPartitionedCall/pwcdc_net/Slice_331/size/3", "op": "Const", "attr": {"value": {"tensor": {"dtype": "DT_INT32", "tensorShape": {}}}, "dtype": {"type": "DT_INT32"}}}, {"name": "StatefulPartitionedCall/pwcdc_net/Mean_331/reduction_indices", "op": "Const", "attr": {"value": {"tensor": {"dtype": "DT_INT32", "tensorShape": {}}}, "dtype": {"type": "DT_INT32"}}}, {"name": "StatefulPartitionedCall/pwcdc_net/Slice_332/begin", "op": "Const", "attr": {"value": {"tensor": {"dtype": "DT_INT32", "tensorShape": {"dim": [{"size": "4"}]}}}, "dtype": {"type": "DT_INT32"}}}, {"name": "StatefulPartitionedCall/pwcdc_net/Slice_332/size/0", "op": "Const", "attr": {"value": {"tensor": {"dtype": "DT_INT32", "tensorShape": {}}}, "dtype": {"type": "DT_INT32"}}}, {"name": "StatefulPartitionedCall/pwcdc_net/Slice_332/size/3", "op": "Const", "attr": {"dtype": {"type": "DT_INT32"}, "value": {"tensor": {"dtype": "DT_INT32", "tensorShape": {}}}}}, {"name": "StatefulPartitionedCall/pwcdc_net/Mean_332/reduction_indices", "op": "Const", "attr": {"value": {"tensor": {"dtype": "DT_INT32", "tensorShape": {}}}, "dtype": {"type": "DT_INT32"}}}, {"name": "StatefulPartitionedCall/pwcdc_net/Slice_333/begin", "op": "Const", "attr": {"dtype": {"type": "DT_INT32"}, "value": {"tensor": {"dtype": "DT_INT32", "tensorShape": {"dim": [{"size": "4"}]}}}}}, {"name": "StatefulPartitionedCall/pwcdc_net/Slice_333/size/0", "op": "Const", "attr": {"value": {"tensor": {"dtype": "DT_INT32", "tensorShape": {}}}, "dtype": {"type": "DT_INT32"}}}, {"name": "StatefulPartitionedCall/pwcdc_net/Slice_333/size/3", "op": "Const", "attr": {"value": {"tensor": {"dtype": "DT_INT32", "tensorShape": {}}}, "dtype": {"type": "DT_INT32"}}}, {"name": "StatefulPartitionedCall/pwcdc_net/Mean_333/reduction_indices", "op": "Const", "attr": {"value": {"tensor": {"dtype": "DT_INT32", "tensorShape": {}}}, "dtype": {"type": "DT_INT32"}}}, {"name": "StatefulPartitionedCall/pwcdc_net/Slice_334/begin", "op": "Const", "attr": {"value": {"tensor": {"dtype": "DT_INT32", "tensorShape": {"dim": [{"size": "4"}]}}}, "dtype": {"type": "DT_INT32"}}}, {"name": "StatefulPartitionedCall/pwcdc_net/Slice_334/size/0", "op": "Const", "attr": {"value": {"tensor": {"dtype": "DT_INT32", "tensorShape": {}}}, "dtype": {"type": "DT_INT32"}}}, {"name": "StatefulPartitionedCall/pwcdc_net/Slice_334/size/3", "op": "Const", "attr": {"dtype": {"type": "DT_INT32"}, "value": {"tensor": {"dtype": "DT_INT32", "tensorShape": {}}}}}, {"name": "StatefulPartitionedCall/pwcdc_net/Mean_334/reduction_indices", "op": "Const", "attr": {"dtype": {"type": "DT_INT32"}, "value": {"tensor": {"dtype": "DT_INT32", "tensorShape": {}}}}}, {"name": "StatefulPartitionedCall/pwcdc_net/Slice_335/begin", "op": "Const", "attr": {"value": {"tensor": {"dtype": "DT_INT32", "tensorShape": {"dim": [{"size": "4"}]}}}, "dtype": {"type": "DT_INT32"}}}, {"name": "StatefulPartitionedCall/pwcdc_net/Slice_335/size/0", "op": "Const", "attr": {"value": {"tensor": {"dtype": "DT_INT32", "tensorShape": {}}}, "dtype": {"type": "DT_INT32"}}}, {"name": "StatefulPartitionedCall/pwcdc_net/Slice_335/size/3", "op": "Const", "attr": {"dtype": {"type": "DT_INT32"}, "value": {"tensor": {"dtype": "DT_INT32", "tensorShape": {}}}}}, {"name": "StatefulPartitionedCall/pwcdc_net/Mean_335/reduction_indices", "op": "Const", "attr": {"value": {"tensor": {"dtype": "DT_INT32", "tensorShape": {}}}, "dtype": {"type": "DT_INT32"}}}, {"name": "StatefulPartitionedCall/pwcdc_net/Slice_336/begin", "op": "Const", "attr": {"dtype": {"type": "DT_INT32"}, "value": {"tensor": {"dtype": "DT_INT32", "tensorShape": {"dim": [{"size": "4"}]}}}}}, {"name": "StatefulPartitionedCall/pwcdc_net/Slice_336/size/0", "op": "Const", "attr": {"dtype": {"type": "DT_INT32"}, "value": {"tensor": {"dtype": "DT_INT32", "tensorShape": {}}}}}, {"name": "StatefulPartitionedCall/pwcdc_net/Slice_336/size/3", "op": "Const", "attr": {"dtype": {"type": "DT_INT32"}, "value": {"tensor": {"dtype": "DT_INT32", "tensorShape": {}}}}}, {"name": "StatefulPartitionedCall/pwcdc_net/Mean_336/reduction_indices", "op": "Const", "attr": {"dtype": {"type": "DT_INT32"}, "value": {"tensor": {"dtype": "DT_INT32", "tensorShape": {}}}}}, {"name": "StatefulPartitionedCall/pwcdc_net/Slice_337/begin", "op": "Const", "attr": {"value": {"tensor": {"dtype": "DT_INT32", "tensorShape": {"dim": [{"size": "4"}]}}}, "dtype": {"type": "DT_INT32"}}}, {"name": "StatefulPartitionedCall/pwcdc_net/Slice_337/size/0", "op": "Const", "attr": {"dtype": {"type": "DT_INT32"}, "value": {"tensor": {"dtype": "DT_INT32", "tensorShape": {}}}}}, {"name": "StatefulPartitionedCall/pwcdc_net/Slice_337/size/3", "op": "Const", "attr": {"value": {"tensor": {"dtype": "DT_INT32", "tensorShape": {}}}, "dtype": {"type": "DT_INT32"}}}, {"name": "StatefulPartitionedCall/pwcdc_net/Mean_337/reduction_indices", "op": "Const", "attr": {"value": {"tensor": {"dtype": "DT_INT32", "tensorShape": {}}}, "dtype": {"type": "DT_INT32"}}}, {"name": "StatefulPartitionedCall/pwcdc_net/Slice_338/begin", "op": "Const", "attr": {"dtype": {"type": "DT_INT32"}, "value": {"tensor": {"dtype": "DT_INT32", "tensorShape": {"dim": [{"size": "4"}]}}}}}, {"name": "StatefulPartitionedCall/pwcdc_net/Slice_338/size/0", "op": "Const", "attr": {"dtype": {"type": "DT_INT32"}, "value": {"tensor": {"dtype": "DT_INT32", "tensorShape": {}}}}}, {"name": "StatefulPartitionedCall/pwcdc_net/Slice_338/size/3", "op": "Const", "attr": {"value": {"tensor": {"dtype": "DT_INT32", "tensorShape": {}}}, "dtype": {"type": "DT_INT32"}}}, {"name": "StatefulPartitionedCall/pwcdc_net/Mean_338/reduction_indices", "op": "Const", "attr": {"dtype": {"type": "DT_INT32"}, "value": {"tensor": {"dtype": "DT_INT32", "tensorShape": {}}}}}, {"name": "StatefulPartitionedCall/pwcdc_net/Slice_339/begin", "op": "Const", "attr": {"dtype": {"type": "DT_INT32"}, "value": {"tensor": {"dtype": "DT_INT32", "tensorShape": {"dim": [{"size": "4"}]}}}}}, {"name": "StatefulPartitionedCall/pwcdc_net/Slice_339/size/0", "op": "Const", "attr": {"value": {"tensor": {"dtype": "DT_INT32", "tensorShape": {}}}, "dtype": {"type": "DT_INT32"}}}, {"name": "StatefulPartitionedCall/pwcdc_net/Slice_339/size/3", "op": "Const", "attr": {"value": {"tensor": {"dtype": "DT_INT32", "tensorShape": {}}}, "dtype": {"type": "DT_INT32"}}}, {"name": "StatefulPartitionedCall/pwcdc_net/Mean_339/reduction_indices", "op": "Const", "attr": {"dtype": {"type": "DT_INT32"}, "value": {"tensor": {"dtype": "DT_INT32", "tensorShape": {}}}}}, {"name": "StatefulPartitionedCall/pwcdc_net/Slice_340/begin", "op": "Const", "attr": {"value": {"tensor": {"dtype": "DT_INT32", "tensorShape": {"dim": [{"size": "4"}]}}}, "dtype": {"type": "DT_INT32"}}}, {"name": "StatefulPartitionedCall/pwcdc_net/Slice_340/size/0", "op": "Const", "attr": {"dtype": {"type": "DT_INT32"}, "value": {"tensor": {"dtype": "DT_INT32", "tensorShape": {}}}}}, {"name": "StatefulPartitionedCall/pwcdc_net/Slice_340/size/3", "op": "Const", "attr": {"value": {"tensor": {"dtype": "DT_INT32", "tensorShape": {}}}, "dtype": {"type": "DT_INT32"}}}, {"name": "StatefulPartitionedCall/pwcdc_net/Mean_340/reduction_indices", "op": "Const", "attr": {"value": {"tensor": {"dtype": "DT_INT32", "tensorShape": {}}}, "dtype": {"type": "DT_INT32"}}}, {"name": "StatefulPartitionedCall/pwcdc_net/Slice_341/begin", "op": "Const", "attr": {"value": {"tensor": {"dtype": "DT_INT32", "tensorShape": {"dim": [{"size": "4"}]}}}, "dtype": {"type": "DT_INT32"}}}, {"name": "StatefulPartitionedCall/pwcdc_net/Slice_341/size/0", "op": "Const", "attr": {"dtype": {"type": "DT_INT32"}, "value": {"tensor": {"dtype": "DT_INT32", "tensorShape": {}}}}}, {"name": "StatefulPartitionedCall/pwcdc_net/Slice_341/size/3", "op": "Const", "attr": {"value": {"tensor": {"dtype": "DT_INT32", "tensorShape": {}}}, "dtype": {"type": "DT_INT32"}}}, {"name": "StatefulPartitionedCall/pwcdc_net/Mean_341/reduction_indices", "op": "Const", "attr": {"value": {"tensor": {"dtype": "DT_INT32", "tensorShape": {}}}, "dtype": {"type": "DT_INT32"}}}, {"name": "StatefulPartitionedCall/pwcdc_net/Slice_342/begin", "op": "Const", "attr": {"dtype": {"type": "DT_INT32"}, "value": {"tensor": {"dtype": "DT_INT32", "tensorShape": {"dim": [{"size": "4"}]}}}}}, {"name": "StatefulPartitionedCall/pwcdc_net/Slice_342/size/0", "op": "Const", "attr": {"dtype": {"type": "DT_INT32"}, "value": {"tensor": {"dtype": "DT_INT32", "tensorShape": {}}}}}, {"name": "StatefulPartitionedCall/pwcdc_net/Slice_342/size/3", "op": "Const", "attr": {"value": {"tensor": {"dtype": "DT_INT32", "tensorShape": {}}}, "dtype": {"type": "DT_INT32"}}}, {"name": "StatefulPartitionedCall/pwcdc_net/Mean_342/reduction_indices", "op": "Const", "attr": {"value": {"tensor": {"dtype": "DT_INT32", "tensorShape": {}}}, "dtype": {"type": "DT_INT32"}}}, {"name": "StatefulPartitionedCall/pwcdc_net/Slice_343/begin", "op": "Const", "attr": {"dtype": {"type": "DT_INT32"}, "value": {"tensor": {"dtype": "DT_INT32", "tensorShape": {"dim": [{"size": "4"}]}}}}}, {"name": "StatefulPartitionedCall/pwcdc_net/Slice_343/size/0", "op": "Const", "attr": {"value": {"tensor": {"dtype": "DT_INT32", "tensorShape": {}}}, "dtype": {"type": "DT_INT32"}}}, {"name": "StatefulPartitionedCall/pwcdc_net/Slice_343/size/3", "op": "Const", "attr": {"dtype": {"type": "DT_INT32"}, "value": {"tensor": {"dtype": "DT_INT32", "tensorShape": {}}}}}, {"name": "StatefulPartitionedCall/pwcdc_net/Mean_343/reduction_indices", "op": "Const", "attr": {"value": {"tensor": {"dtype": "DT_INT32", "tensorShape": {}}}, "dtype": {"type": "DT_INT32"}}}, {"name": "StatefulPartitionedCall/pwcdc_net/Slice_344/begin", "op": "Const", "attr": {"value": {"tensor": {"dtype": "DT_INT32", "tensorShape": {"dim": [{"size": "4"}]}}}, "dtype": {"type": "DT_INT32"}}}, {"name": "StatefulPartitionedCall/pwcdc_net/Slice_344/size/0", "op": "Const", "attr": {"value": {"tensor": {"dtype": "DT_INT32", "tensorShape": {}}}, "dtype": {"type": "DT_INT32"}}}, {"name": "StatefulPartitionedCall/pwcdc_net/Slice_344/size/3", "op": "Const", "attr": {"dtype": {"type": "DT_INT32"}, "value": {"tensor": {"dtype": "DT_INT32", "tensorShape": {}}}}}, {"name": "StatefulPartitionedCall/pwcdc_net/Mean_344/reduction_indices", "op": "Const", "attr": {"value": {"tensor": {"dtype": "DT_INT32", "tensorShape": {}}}, "dtype": {"type": "DT_INT32"}}}, {"name": "StatefulPartitionedCall/pwcdc_net/Slice_345/begin", "op": "Const", "attr": {"value": {"tensor": {"dtype": "DT_INT32", "tensorShape": {"dim": [{"size": "4"}]}}}, "dtype": {"type": "DT_INT32"}}}, {"name": "StatefulPartitionedCall/pwcdc_net/Slice_345/size/0", "op": "Const", "attr": {"dtype": {"type": "DT_INT32"}, "value": {"tensor": {"dtype": "DT_INT32", "tensorShape": {}}}}}, {"name": "StatefulPartitionedCall/pwcdc_net/Slice_345/size/3", "op": "Const", "attr": {"dtype": {"type": "DT_INT32"}, "value": {"tensor": {"dtype": "DT_INT32", "tensorShape": {}}}}}, {"name": "StatefulPartitionedCall/pwcdc_net/Mean_345/reduction_indices", "op": "Const", "attr": {"value": {"tensor": {"dtype": "DT_INT32", "tensorShape": {}}}, "dtype": {"type": "DT_INT32"}}}, {"name": "StatefulPartitionedCall/pwcdc_net/Slice_346/begin", "op": "Const", "attr": {"dtype": {"type": "DT_INT32"}, "value": {"tensor": {"dtype": "DT_INT32", "tensorShape": {"dim": [{"size": "4"}]}}}}}, {"name": "StatefulPartitionedCall/pwcdc_net/Slice_346/size/0", "op": "Const", "attr": {"value": {"tensor": {"dtype": "DT_INT32", "tensorShape": {}}}, "dtype": {"type": "DT_INT32"}}}, {"name": "StatefulPartitionedCall/pwcdc_net/Slice_346/size/3", "op": "Const", "attr": {"value": {"tensor": {"dtype": "DT_INT32", "tensorShape": {}}}, "dtype": {"type": "DT_INT32"}}}, {"name": "StatefulPartitionedCall/pwcdc_net/Mean_346/reduction_indices", "op": "Const", "attr": {"value": {"tensor": {"dtype": "DT_INT32", "tensorShape": {}}}, "dtype": {"type": "DT_INT32"}}}, {"name": "StatefulPartitionedCall/pwcdc_net/Slice_347/begin", "op": "Const", "attr": {"dtype": {"type": "DT_INT32"}, "value": {"tensor": {"dtype": "DT_INT32", "tensorShape": {"dim": [{"size": "4"}]}}}}}, {"name": "StatefulPartitionedCall/pwcdc_net/Slice_347/size/0", "op": "Const", "attr": {"value": {"tensor": {"dtype": "DT_INT32", "tensorShape": {}}}, "dtype": {"type": "DT_INT32"}}}, {"name": "StatefulPartitionedCall/pwcdc_net/Slice_347/size/3", "op": "Const", "attr": {"dtype": {"type": "DT_INT32"}, "value": {"tensor": {"dtype": "DT_INT32", "tensorShape": {}}}}}, {"name": "StatefulPartitionedCall/pwcdc_net/Mean_347/reduction_indices", "op": "Const", "attr": {"value": {"tensor": {"dtype": "DT_INT32", "tensorShape": {}}}, "dtype": {"type": "DT_INT32"}}}, {"name": "StatefulPartitionedCall/pwcdc_net/Slice_348/begin", "op": "Const", "attr": {"value": {"tensor": {"dtype": "DT_INT32", "tensorShape": {"dim": [{"size": "4"}]}}}, "dtype": {"type": "DT_INT32"}}}, {"name": "StatefulPartitionedCall/pwcdc_net/Slice_348/size/0", "op": "Const", "attr": {"dtype": {"type": "DT_INT32"}, "value": {"tensor": {"dtype": "DT_INT32", "tensorShape": {}}}}}, {"name": "StatefulPartitionedCall/pwcdc_net/Slice_348/size/3", "op": "Const", "attr": {"value": {"tensor": {"dtype": "DT_INT32", "tensorShape": {}}}, "dtype": {"type": "DT_INT32"}}}, {"name": "StatefulPartitionedCall/pwcdc_net/Mean_348/reduction_indices", "op": "Const", "attr": {"dtype": {"type": "DT_INT32"}, "value": {"tensor": {"dtype": "DT_INT32", "tensorShape": {}}}}}, {"name": "StatefulPartitionedCall/pwcdc_net/Slice_349/begin", "op": "Const", "attr": {"value": {"tensor": {"dtype": "DT_INT32", "tensorShape": {"dim": [{"size": "4"}]}}}, "dtype": {"type": "DT_INT32"}}}, {"name": "StatefulPartitionedCall/pwcdc_net/Slice_349/size/0", "op": "Const", "attr": {"dtype": {"type": "DT_INT32"}, "value": {"tensor": {"dtype": "DT_INT32", "tensorShape": {}}}}}, {"name": "StatefulPartitionedCall/pwcdc_net/Slice_349/size/3", "op": "Const", "attr": {"dtype": {"type": "DT_INT32"}, "value": {"tensor": {"dtype": "DT_INT32", "tensorShape": {}}}}}, {"name": "StatefulPartitionedCall/pwcdc_net/Mean_349/reduction_indices", "op": "Const", "attr": {"dtype": {"type": "DT_INT32"}, "value": {"tensor": {"dtype": "DT_INT32", "tensorShape": {}}}}}, {"name": "StatefulPartitionedCall/pwcdc_net/Slice_350/begin", "op": "Const", "attr": {"value": {"tensor": {"dtype": "DT_INT32", "tensorShape": {"dim": [{"size": "4"}]}}}, "dtype": {"type": "DT_INT32"}}}, {"name": "StatefulPartitionedCall/pwcdc_net/Slice_350/size/0", "op": "Const", "attr": {"value": {"tensor": {"dtype": "DT_INT32", "tensorShape": {}}}, "dtype": {"type": "DT_INT32"}}}, {"name": "StatefulPartitionedCall/pwcdc_net/Slice_350/size/3", "op": "Const", "attr": {"value": {"tensor": {"dtype": "DT_INT32", "tensorShape": {}}}, "dtype": {"type": "DT_INT32"}}}, {"name": "StatefulPartitionedCall/pwcdc_net/Mean_350/reduction_indices", "op": "Const", "attr": {"value": {"tensor": {"dtype": "DT_INT32", "tensorShape": {}}}, "dtype": {"type": "DT_INT32"}}}, {"name": "StatefulPartitionedCall/pwcdc_net/Slice_351/begin", "op": "Const", "attr": {"value": {"tensor": {"dtype": "DT_INT32", "tensorShape": {"dim": [{"size": "4"}]}}}, "dtype": {"type": "DT_INT32"}}}, {"name": "StatefulPartitionedCall/pwcdc_net/Slice_351/size/0", "op": "Const", "attr": {"dtype": {"type": "DT_INT32"}, "value": {"tensor": {"dtype": "DT_INT32", "tensorShape": {}}}}}, {"name": "StatefulPartitionedCall/pwcdc_net/Slice_351/size/3", "op": "Const", "attr": {"dtype": {"type": "DT_INT32"}, "value": {"tensor": {"dtype": "DT_INT32", "tensorShape": {}}}}}, {"name": "StatefulPartitionedCall/pwcdc_net/Mean_351/reduction_indices", "op": "Const", "attr": {"dtype": {"type": "DT_INT32"}, "value": {"tensor": {"dtype": "DT_INT32", "tensorShape": {}}}}}, {"name": "StatefulPartitionedCall/pwcdc_net/Slice_352/begin", "op": "Const", "attr": {"value": {"tensor": {"dtype": "DT_INT32", "tensorShape": {"dim": [{"size": "4"}]}}}, "dtype": {"type": "DT_INT32"}}}, {"name": "StatefulPartitionedCall/pwcdc_net/Slice_352/size/0", "op": "Const", "attr": {"dtype": {"type": "DT_INT32"}, "value": {"tensor": {"dtype": "DT_INT32", "tensorShape": {}}}}}, {"name": "StatefulPartitionedCall/pwcdc_net/Slice_352/size/3", "op": "Const", "attr": {"dtype": {"type": "DT_INT32"}, "value": {"tensor": {"dtype": "DT_INT32", "tensorShape": {}}}}}, {"name": "StatefulPartitionedCall/pwcdc_net/Mean_352/reduction_indices", "op": "Const", "attr": {"dtype": {"type": "DT_INT32"}, "value": {"tensor": {"dtype": "DT_INT32", "tensorShape": {}}}}}, {"name": "StatefulPartitionedCall/pwcdc_net/Slice_353/begin", "op": "Const", "attr": {"dtype": {"type": "DT_INT32"}, "value": {"tensor": {"dtype": "DT_INT32", "tensorShape": {"dim": [{"size": "4"}]}}}}}, {"name": "StatefulPartitionedCall/pwcdc_net/Slice_353/size/0", "op": "Const", "attr": {"value": {"tensor": {"dtype": "DT_INT32", "tensorShape": {}}}, "dtype": {"type": "DT_INT32"}}}, {"name": "StatefulPartitionedCall/pwcdc_net/Slice_353/size/3", "op": "Const", "attr": {"dtype": {"type": "DT_INT32"}, "value": {"tensor": {"dtype": "DT_INT32", "tensorShape": {}}}}}, {"name": "StatefulPartitionedCall/pwcdc_net/Mean_353/reduction_indices", "op": "Const", "attr": {"dtype": {"type": "DT_INT32"}, "value": {"tensor": {"dtype": "DT_INT32", "tensorShape": {}}}}}, {"name": "StatefulPartitionedCall/pwcdc_net/Slice_354/begin", "op": "Const", "attr": {"value": {"tensor": {"dtype": "DT_INT32", "tensorShape": {"dim": [{"size": "4"}]}}}, "dtype": {"type": "DT_INT32"}}}, {"name": "StatefulPartitionedCall/pwcdc_net/Slice_354/size/0", "op": "Const", "attr": {"dtype": {"type": "DT_INT32"}, "value": {"tensor": {"dtype": "DT_INT32", "tensorShape": {}}}}}, {"name": "StatefulPartitionedCall/pwcdc_net/Slice_354/size/3", "op": "Const", "attr": {"dtype": {"type": "DT_INT32"}, "value": {"tensor": {"dtype": "DT_INT32", "tensorShape": {}}}}}, {"name": "StatefulPartitionedCall/pwcdc_net/Mean_354/reduction_indices", "op": "Const", "attr": {"dtype": {"type": "DT_INT32"}, "value": {"tensor": {"dtype": "DT_INT32", "tensorShape": {}}}}}, {"name": "StatefulPartitionedCall/pwcdc_net/Slice_355/begin", "op": "Const", "attr": {"dtype": {"type": "DT_INT32"}, "value": {"tensor": {"dtype": "DT_INT32", "tensorShape": {"dim": [{"size": "4"}]}}}}}, {"name": "StatefulPartitionedCall/pwcdc_net/Slice_355/size/0", "op": "Const", "attr": {"dtype": {"type": "DT_INT32"}, "value": {"tensor": {"dtype": "DT_INT32", "tensorShape": {}}}}}, {"name": "StatefulPartitionedCall/pwcdc_net/Slice_355/size/3", "op": "Const", "attr": {"value": {"tensor": {"dtype": "DT_INT32", "tensorShape": {}}}, "dtype": {"type": "DT_INT32"}}}, {"name": "StatefulPartitionedCall/pwcdc_net/Mean_355/reduction_indices", "op": "Const", "attr": {"dtype": {"type": "DT_INT32"}, "value": {"tensor": {"dtype": "DT_INT32", "tensorShape": {}}}}}, {"name": "StatefulPartitionedCall/pwcdc_net/Slice_356/begin", "op": "Const", "attr": {"value": {"tensor": {"dtype": "DT_INT32", "tensorShape": {"dim": [{"size": "4"}]}}}, "dtype": {"type": "DT_INT32"}}}, {"name": "StatefulPartitionedCall/pwcdc_net/Slice_356/size/0", "op": "Const", "attr": {"value": {"tensor": {"dtype": "DT_INT32", "tensorShape": {}}}, "dtype": {"type": "DT_INT32"}}}, {"name": "StatefulPartitionedCall/pwcdc_net/Slice_356/size/3", "op": "Const", "attr": {"value": {"tensor": {"dtype": "DT_INT32", "tensorShape": {}}}, "dtype": {"type": "DT_INT32"}}}, {"name": "StatefulPartitionedCall/pwcdc_net/Mean_356/reduction_indices", "op": "Const", "attr": {"dtype": {"type": "DT_INT32"}, "value": {"tensor": {"dtype": "DT_INT32", "tensorShape": {}}}}}, {"name": "StatefulPartitionedCall/pwcdc_net/Slice_357/begin", "op": "Const", "attr": {"dtype": {"type": "DT_INT32"}, "value": {"tensor": {"dtype": "DT_INT32", "tensorShape": {"dim": [{"size": "4"}]}}}}}, {"name": "StatefulPartitionedCall/pwcdc_net/Slice_357/size/0", "op": "Const", "attr": {"dtype": {"type": "DT_INT32"}, "value": {"tensor": {"dtype": "DT_INT32", "tensorShape": {}}}}}, {"name": "StatefulPartitionedCall/pwcdc_net/Slice_357/size/3", "op": "Const", "attr": {"value": {"tensor": {"dtype": "DT_INT32", "tensorShape": {}}}, "dtype": {"type": "DT_INT32"}}}, {"name": "StatefulPartitionedCall/pwcdc_net/Mean_357/reduction_indices", "op": "Const", "attr": {"dtype": {"type": "DT_INT32"}, "value": {"tensor": {"dtype": "DT_INT32", "tensorShape": {}}}}}, {"name": "StatefulPartitionedCall/pwcdc_net/Slice_358/begin", "op": "Const", "attr": {"dtype": {"type": "DT_INT32"}, "value": {"tensor": {"dtype": "DT_INT32", "tensorShape": {"dim": [{"size": "4"}]}}}}}, {"name": "StatefulPartitionedCall/pwcdc_net/Slice_358/size/0", "op": "Const", "attr": {"dtype": {"type": "DT_INT32"}, "value": {"tensor": {"dtype": "DT_INT32", "tensorShape": {}}}}}, {"name": "StatefulPartitionedCall/pwcdc_net/Slice_358/size/3", "op": "Const", "attr": {"dtype": {"type": "DT_INT32"}, "value": {"tensor": {"dtype": "DT_INT32", "tensorShape": {}}}}}, {"name": "StatefulPartitionedCall/pwcdc_net/Mean_358/reduction_indices", "op": "Const", "attr": {"dtype": {"type": "DT_INT32"}, "value": {"tensor": {"dtype": "DT_INT32", "tensorShape": {}}}}}, {"name": "StatefulPartitionedCall/pwcdc_net/Slice_359/begin", "op": "Const", "attr": {"dtype": {"type": "DT_INT32"}, "value": {"tensor": {"dtype": "DT_INT32", "tensorShape": {"dim": [{"size": "4"}]}}}}}, {"name": "StatefulPartitionedCall/pwcdc_net/Slice_359/size/0", "op": "Const", "attr": {"value": {"tensor": {"dtype": "DT_INT32", "tensorShape": {}}}, "dtype": {"type": "DT_INT32"}}}, {"name": "StatefulPartitionedCall/pwcdc_net/Slice_359/size/3", "op": "Const", "attr": {"value": {"tensor": {"dtype": "DT_INT32", "tensorShape": {}}}, "dtype": {"type": "DT_INT32"}}}, {"name": "StatefulPartitionedCall/pwcdc_net/Mean_359/reduction_indices", "op": "Const", "attr": {"value": {"tensor": {"dtype": "DT_INT32", "tensorShape": {}}}, "dtype": {"type": "DT_INT32"}}}, {"name": "StatefulPartitionedCall/pwcdc_net/Slice_360/begin", "op": "Const", "attr": {"dtype": {"type": "DT_INT32"}, "value": {"tensor": {"dtype": "DT_INT32", "tensorShape": {"dim": [{"size": "4"}]}}}}}, {"name": "StatefulPartitionedCall/pwcdc_net/Slice_360/size/0", "op": "Const", "attr": {"dtype": {"type": "DT_INT32"}, "value": {"tensor": {"dtype": "DT_INT32", "tensorShape": {}}}}}, {"name": "StatefulPartitionedCall/pwcdc_net/Slice_360/size/3", "op": "Const", "attr": {"value": {"tensor": {"dtype": "DT_INT32", "tensorShape": {}}}, "dtype": {"type": "DT_INT32"}}}, {"name": "StatefulPartitionedCall/pwcdc_net/Mean_360/reduction_indices", "op": "Const", "attr": {"dtype": {"type": "DT_INT32"}, "value": {"tensor": {"dtype": "DT_INT32", "tensorShape": {}}}}}, {"name": "StatefulPartitionedCall/pwcdc_net/Slice_361/begin", "op": "Const", "attr": {"value": {"tensor": {"dtype": "DT_INT32", "tensorShape": {"dim": [{"size": "4"}]}}}, "dtype": {"type": "DT_INT32"}}}, {"name": "StatefulPartitionedCall/pwcdc_net/Slice_361/size/0", "op": "Const", "attr": {"dtype": {"type": "DT_INT32"}, "value": {"tensor": {"dtype": "DT_INT32", "tensorShape": {}}}}}, {"name": "StatefulPartitionedCall/pwcdc_net/Slice_361/size/3", "op": "Const", "attr": {"dtype": {"type": "DT_INT32"}, "value": {"tensor": {"dtype": "DT_INT32", "tensorShape": {}}}}}, {"name": "StatefulPartitionedCall/pwcdc_net/Mean_361/reduction_indices", "op": "Const", "attr": {"value": {"tensor": {"dtype": "DT_INT32", "tensorShape": {}}}, "dtype": {"type": "DT_INT32"}}}, {"name": "StatefulPartitionedCall/pwcdc_net/Slice_362/begin", "op": "Const", "attr": {"value": {"tensor": {"dtype": "DT_INT32", "tensorShape": {"dim": [{"size": "4"}]}}}, "dtype": {"type": "DT_INT32"}}}, {"name": "StatefulPartitionedCall/pwcdc_net/Slice_362/size/0", "op": "Const", "attr": {"value": {"tensor": {"dtype": "DT_INT32", "tensorShape": {}}}, "dtype": {"type": "DT_INT32"}}}, {"name": "StatefulPartitionedCall/pwcdc_net/Slice_362/size/3", "op": "Const", "attr": {"dtype": {"type": "DT_INT32"}, "value": {"tensor": {"dtype": "DT_INT32", "tensorShape": {}}}}}, {"name": "StatefulPartitionedCall/pwcdc_net/Mean_362/reduction_indices", "op": "Const", "attr": {"dtype": {"type": "DT_INT32"}, "value": {"tensor": {"dtype": "DT_INT32", "tensorShape": {}}}}}, {"name": "StatefulPartitionedCall/pwcdc_net/Slice_363/begin", "op": "Const", "attr": {"dtype": {"type": "DT_INT32"}, "value": {"tensor": {"dtype": "DT_INT32", "tensorShape": {"dim": [{"size": "4"}]}}}}}, {"name": "StatefulPartitionedCall/pwcdc_net/Slice_363/size/0", "op": "Const", "attr": {"dtype": {"type": "DT_INT32"}, "value": {"tensor": {"dtype": "DT_INT32", "tensorShape": {}}}}}, {"name": "StatefulPartitionedCall/pwcdc_net/Slice_363/size/3", "op": "Const", "attr": {"dtype": {"type": "DT_INT32"}, "value": {"tensor": {"dtype": "DT_INT32", "tensorShape": {}}}}}, {"name": "StatefulPartitionedCall/pwcdc_net/Mean_363/reduction_indices", "op": "Const", "attr": {"dtype": {"type": "DT_INT32"}, "value": {"tensor": {"dtype": "DT_INT32", "tensorShape": {}}}}}, {"name": "StatefulPartitionedCall/pwcdc_net/Slice_364/begin", "op": "Const", "attr": {"dtype": {"type": "DT_INT32"}, "value": {"tensor": {"dtype": "DT_INT32", "tensorShape": {"dim": [{"size": "4"}]}}}}}, {"name": "StatefulPartitionedCall/pwcdc_net/Slice_364/size/0", "op": "Const", "attr": {"value": {"tensor": {"dtype": "DT_INT32", "tensorShape": {}}}, "dtype": {"type": "DT_INT32"}}}, {"name": "StatefulPartitionedCall/pwcdc_net/Slice_364/size/3", "op": "Const", "attr": {"value": {"tensor": {"dtype": "DT_INT32", "tensorShape": {}}}, "dtype": {"type": "DT_INT32"}}}, {"name": "StatefulPartitionedCall/pwcdc_net/Mean_364/reduction_indices", "op": "Const", "attr": {"dtype": {"type": "DT_INT32"}, "value": {"tensor": {"dtype": "DT_INT32", "tensorShape": {}}}}}, {"name": "StatefulPartitionedCall/pwcdc_net/Slice_365/begin", "op": "Const", "attr": {"value": {"tensor": {"dtype": "DT_INT32", "tensorShape": {"dim": [{"size": "4"}]}}}, "dtype": {"type": "DT_INT32"}}}, {"name": "StatefulPartitionedCall/pwcdc_net/Slice_365/size/0", "op": "Const", "attr": {"value": {"tensor": {"dtype": "DT_INT32", "tensorShape": {}}}, "dtype": {"type": "DT_INT32"}}}, {"name": "StatefulPartitionedCall/pwcdc_net/Slice_365/size/3", "op": "Const", "attr": {"value": {"tensor": {"dtype": "DT_INT32", "tensorShape": {}}}, "dtype": {"type": "DT_INT32"}}}, {"name": "StatefulPartitionedCall/pwcdc_net/Mean_365/reduction_indices", "op": "Const", "attr": {"value": {"tensor": {"dtype": "DT_INT32", "tensorShape": {}}}, "dtype": {"type": "DT_INT32"}}}, {"name": "StatefulPartitionedCall/pwcdc_net/Slice_366/begin", "op": "Const", "attr": {"value": {"tensor": {"dtype": "DT_INT32", "tensorShape": {"dim": [{"size": "4"}]}}}, "dtype": {"type": "DT_INT32"}}}, {"name": "StatefulPartitionedCall/pwcdc_net/Slice_366/size/0", "op": "Const", "attr": {"dtype": {"type": "DT_INT32"}, "value": {"tensor": {"dtype": "DT_INT32", "tensorShape": {}}}}}, {"name": "StatefulPartitionedCall/pwcdc_net/Slice_366/size/3", "op": "Const", "attr": {"dtype": {"type": "DT_INT32"}, "value": {"tensor": {"dtype": "DT_INT32", "tensorShape": {}}}}}, {"name": "StatefulPartitionedCall/pwcdc_net/Mean_366/reduction_indices", "op": "Const", "attr": {"dtype": {"type": "DT_INT32"}, "value": {"tensor": {"dtype": "DT_INT32", "tensorShape": {}}}}}, {"name": "StatefulPartitionedCall/pwcdc_net/Slice_367/begin", "op": "Const", "attr": {"dtype": {"type": "DT_INT32"}, "value": {"tensor": {"dtype": "DT_INT32", "tensorShape": {"dim": [{"size": "4"}]}}}}}, {"name": "StatefulPartitionedCall/pwcdc_net/Slice_367/size/0", "op": "Const", "attr": {"dtype": {"type": "DT_INT32"}, "value": {"tensor": {"dtype": "DT_INT32", "tensorShape": {}}}}}, {"name": "StatefulPartitionedCall/pwcdc_net/Slice_367/size/3", "op": "Const", "attr": {"dtype": {"type": "DT_INT32"}, "value": {"tensor": {"dtype": "DT_INT32", "tensorShape": {}}}}}, {"name": "StatefulPartitionedCall/pwcdc_net/Mean_367/reduction_indices", "op": "Const", "attr": {"dtype": {"type": "DT_INT32"}, "value": {"tensor": {"dtype": "DT_INT32", "tensorShape": {}}}}}, {"name": "StatefulPartitionedCall/pwcdc_net/Slice_368/begin", "op": "Const", "attr": {"value": {"tensor": {"dtype": "DT_INT32", "tensorShape": {"dim": [{"size": "4"}]}}}, "dtype": {"type": "DT_INT32"}}}, {"name": "StatefulPartitionedCall/pwcdc_net/Slice_368/size/0", "op": "Const", "attr": {"value": {"tensor": {"dtype": "DT_INT32", "tensorShape": {}}}, "dtype": {"type": "DT_INT32"}}}, {"name": "StatefulPartitionedCall/pwcdc_net/Slice_368/size/3", "op": "Const", "attr": {"dtype": {"type": "DT_INT32"}, "value": {"tensor": {"dtype": "DT_INT32", "tensorShape": {}}}}}, {"name": "StatefulPartitionedCall/pwcdc_net/Mean_368/reduction_indices", "op": "Const", "attr": {"value": {"tensor": {"dtype": "DT_INT32", "tensorShape": {}}}, "dtype": {"type": "DT_INT32"}}}, {"name": "StatefulPartitionedCall/pwcdc_net/Slice_369/begin", "op": "Const", "attr": {"dtype": {"type": "DT_INT32"}, "value": {"tensor": {"dtype": "DT_INT32", "tensorShape": {"dim": [{"size": "4"}]}}}}}, {"name": "StatefulPartitionedCall/pwcdc_net/Slice_369/size/0", "op": "Const", "attr": {"value": {"tensor": {"dtype": "DT_INT32", "tensorShape": {}}}, "dtype": {"type": "DT_INT32"}}}, {"name": "StatefulPartitionedCall/pwcdc_net/Slice_369/size/3", "op": "Const", "attr": {"dtype": {"type": "DT_INT32"}, "value": {"tensor": {"dtype": "DT_INT32", "tensorShape": {}}}}}, {"name": "StatefulPartitionedCall/pwcdc_net/Mean_369/reduction_indices", "op": "Const", "attr": {"dtype": {"type": "DT_INT32"}, "value": {"tensor": {"dtype": "DT_INT32", "tensorShape": {}}}}}, {"name": "StatefulPartitionedCall/pwcdc_net/Slice_370/begin", "op": "Const", "attr": {"value": {"tensor": {"dtype": "DT_INT32", "tensorShape": {"dim": [{"size": "4"}]}}}, "dtype": {"type": "DT_INT32"}}}, {"name": "StatefulPartitionedCall/pwcdc_net/Slice_370/size/0", "op": "Const", "attr": {"value": {"tensor": {"dtype": "DT_INT32", "tensorShape": {}}}, "dtype": {"type": "DT_INT32"}}}, {"name": "StatefulPartitionedCall/pwcdc_net/Slice_370/size/3", "op": "Const", "attr": {"dtype": {"type": "DT_INT32"}, "value": {"tensor": {"dtype": "DT_INT32", "tensorShape": {}}}}}, {"name": "StatefulPartitionedCall/pwcdc_net/Mean_370/reduction_indices", "op": "Const", "attr": {"dtype": {"type": "DT_INT32"}, "value": {"tensor": {"dtype": "DT_INT32", "tensorShape": {}}}}}, {"name": "StatefulPartitionedCall/pwcdc_net/Slice_371/begin", "op": "Const", "attr": {"dtype": {"type": "DT_INT32"}, "value": {"tensor": {"dtype": "DT_INT32", "tensorShape": {"dim": [{"size": "4"}]}}}}}, {"name": "StatefulPartitionedCall/pwcdc_net/Slice_371/size/0", "op": "Const", "attr": {"value": {"tensor": {"dtype": "DT_INT32", "tensorShape": {}}}, "dtype": {"type": "DT_INT32"}}}, {"name": "StatefulPartitionedCall/pwcdc_net/Slice_371/size/3", "op": "Const", "attr": {"value": {"tensor": {"dtype": "DT_INT32", "tensorShape": {}}}, "dtype": {"type": "DT_INT32"}}}, {"name": "StatefulPartitionedCall/pwcdc_net/Mean_371/reduction_indices", "op": "Const", "attr": {"value": {"tensor": {"dtype": "DT_INT32", "tensorShape": {}}}, "dtype": {"type": "DT_INT32"}}}, {"name": "StatefulPartitionedCall/pwcdc_net/Slice_372/begin", "op": "Const", "attr": {"dtype": {"type": "DT_INT32"}, "value": {"tensor": {"dtype": "DT_INT32", "tensorShape": {"dim": [{"size": "4"}]}}}}}, {"name": "StatefulPartitionedCall/pwcdc_net/Slice_372/size/0", "op": "Const", "attr": {"dtype": {"type": "DT_INT32"}, "value": {"tensor": {"dtype": "DT_INT32", "tensorShape": {}}}}}, {"name": "StatefulPartitionedCall/pwcdc_net/Slice_372/size/3", "op": "Const", "attr": {"value": {"tensor": {"dtype": "DT_INT32", "tensorShape": {}}}, "dtype": {"type": "DT_INT32"}}}, {"name": "StatefulPartitionedCall/pwcdc_net/Mean_372/reduction_indices", "op": "Const", "attr": {"value": {"tensor": {"dtype": "DT_INT32", "tensorShape": {}}}, "dtype": {"type": "DT_INT32"}}}, {"name": "StatefulPartitionedCall/pwcdc_net/Slice_373/begin", "op": "Const", "attr": {"dtype": {"type": "DT_INT32"}, "value": {"tensor": {"dtype": "DT_INT32", "tensorShape": {"dim": [{"size": "4"}]}}}}}, {"name": "StatefulPartitionedCall/pwcdc_net/Slice_373/size/0", "op": "Const", "attr": {"dtype": {"type": "DT_INT32"}, "value": {"tensor": {"dtype": "DT_INT32", "tensorShape": {}}}}}, {"name": "StatefulPartitionedCall/pwcdc_net/Slice_373/size/3", "op": "Const", "attr": {"value": {"tensor": {"dtype": "DT_INT32", "tensorShape": {}}}, "dtype": {"type": "DT_INT32"}}}, {"name": "StatefulPartitionedCall/pwcdc_net/Mean_373/reduction_indices", "op": "Const", "attr": {"value": {"tensor": {"dtype": "DT_INT32", "tensorShape": {}}}, "dtype": {"type": "DT_INT32"}}}, {"name": "StatefulPartitionedCall/pwcdc_net/Slice_374/begin", "op": "Const", "attr": {"dtype": {"type": "DT_INT32"}, "value": {"tensor": {"dtype": "DT_INT32", "tensorShape": {"dim": [{"size": "4"}]}}}}}, {"name": "StatefulPartitionedCall/pwcdc_net/Slice_374/size/0", "op": "Const", "attr": {"value": {"tensor": {"dtype": "DT_INT32", "tensorShape": {}}}, "dtype": {"type": "DT_INT32"}}}, {"name": "StatefulPartitionedCall/pwcdc_net/Slice_374/size/3", "op": "Const", "attr": {"value": {"tensor": {"dtype": "DT_INT32", "tensorShape": {}}}, "dtype": {"type": "DT_INT32"}}}, {"name": "StatefulPartitionedCall/pwcdc_net/Mean_374/reduction_indices", "op": "Const", "attr": {"value": {"tensor": {"dtype": "DT_INT32", "tensorShape": {}}}, "dtype": {"type": "DT_INT32"}}}, {"name": "StatefulPartitionedCall/pwcdc_net/Slice_375/begin", "op": "Const", "attr": {"value": {"tensor": {"dtype": "DT_INT32", "tensorShape": {"dim": [{"size": "4"}]}}}, "dtype": {"type": "DT_INT32"}}}, {"name": "StatefulPartitionedCall/pwcdc_net/Slice_375/size/0", "op": "Const", "attr": {"value": {"tensor": {"dtype": "DT_INT32", "tensorShape": {}}}, "dtype": {"type": "DT_INT32"}}}, {"name": "StatefulPartitionedCall/pwcdc_net/Slice_375/size/3", "op": "Const", "attr": {"dtype": {"type": "DT_INT32"}, "value": {"tensor": {"dtype": "DT_INT32", "tensorShape": {}}}}}, {"name": "StatefulPartitionedCall/pwcdc_net/Mean_375/reduction_indices", "op": "Const", "attr": {"value": {"tensor": {"dtype": "DT_INT32", "tensorShape": {}}}, "dtype": {"type": "DT_INT32"}}}, {"name": "StatefulPartitionedCall/pwcdc_net/Slice_376/begin", "op": "Const", "attr": {"value": {"tensor": {"dtype": "DT_INT32", "tensorShape": {"dim": [{"size": "4"}]}}}, "dtype": {"type": "DT_INT32"}}}, {"name": "StatefulPartitionedCall/pwcdc_net/Slice_376/size/0", "op": "Const", "attr": {"dtype": {"type": "DT_INT32"}, "value": {"tensor": {"dtype": "DT_INT32", "tensorShape": {}}}}}, {"name": "StatefulPartitionedCall/pwcdc_net/Slice_376/size/3", "op": "Const", "attr": {"dtype": {"type": "DT_INT32"}, "value": {"tensor": {"dtype": "DT_INT32", "tensorShape": {}}}}}, {"name": "StatefulPartitionedCall/pwcdc_net/Mean_376/reduction_indices", "op": "Const", "attr": {"dtype": {"type": "DT_INT32"}, "value": {"tensor": {"dtype": "DT_INT32", "tensorShape": {}}}}}, {"name": "StatefulPartitionedCall/pwcdc_net/Slice_377/begin", "op": "Const", "attr": {"dtype": {"type": "DT_INT32"}, "value": {"tensor": {"dtype": "DT_INT32", "tensorShape": {"dim": [{"size": "4"}]}}}}}, {"name": "StatefulPartitionedCall/pwcdc_net/Slice_377/size/0", "op": "Const", "attr": {"dtype": {"type": "DT_INT32"}, "value": {"tensor": {"dtype": "DT_INT32", "tensorShape": {}}}}}, {"name": "StatefulPartitionedCall/pwcdc_net/Slice_377/size/3", "op": "Const", "attr": {"value": {"tensor": {"dtype": "DT_INT32", "tensorShape": {}}}, "dtype": {"type": "DT_INT32"}}}, {"name": "StatefulPartitionedCall/pwcdc_net/Mean_377/reduction_indices", "op": "Const", "attr": {"dtype": {"type": "DT_INT32"}, "value": {"tensor": {"dtype": "DT_INT32", "tensorShape": {}}}}}, {"name": "StatefulPartitionedCall/pwcdc_net/Slice_378/begin", "op": "Const", "attr": {"value": {"tensor": {"dtype": "DT_INT32", "tensorShape": {"dim": [{"size": "4"}]}}}, "dtype": {"type": "DT_INT32"}}}, {"name": "StatefulPartitionedCall/pwcdc_net/Slice_378/size/0", "op": "Const", "attr": {"value": {"tensor": {"dtype": "DT_INT32", "tensorShape": {}}}, "dtype": {"type": "DT_INT32"}}}, {"name": "StatefulPartitionedCall/pwcdc_net/Slice_378/size/3", "op": "Const", "attr": {"dtype": {"type": "DT_INT32"}, "value": {"tensor": {"dtype": "DT_INT32", "tensorShape": {}}}}}, {"name": "StatefulPartitionedCall/pwcdc_net/Mean_378/reduction_indices", "op": "Const", "attr": {"dtype": {"type": "DT_INT32"}, "value": {"tensor": {"dtype": "DT_INT32", "tensorShape": {}}}}}, {"name": "StatefulPartitionedCall/pwcdc_net/Slice_379/begin", "op": "Const", "attr": {"dtype": {"type": "DT_INT32"}, "value": {"tensor": {"dtype": "DT_INT32", "tensorShape": {"dim": [{"size": "4"}]}}}}}, {"name": "StatefulPartitionedCall/pwcdc_net/Slice_379/size/0", "op": "Const", "attr": {"value": {"tensor": {"dtype": "DT_INT32", "tensorShape": {}}}, "dtype": {"type": "DT_INT32"}}}, {"name": "StatefulPartitionedCall/pwcdc_net/Slice_379/size/3", "op": "Const", "attr": {"value": {"tensor": {"dtype": "DT_INT32", "tensorShape": {}}}, "dtype": {"type": "DT_INT32"}}}, {"name": "StatefulPartitionedCall/pwcdc_net/Mean_379/reduction_indices", "op": "Const", "attr": {"value": {"tensor": {"dtype": "DT_INT32", "tensorShape": {}}}, "dtype": {"type": "DT_INT32"}}}, {"name": "StatefulPartitionedCall/pwcdc_net/Slice_380/begin", "op": "Const", "attr": {"value": {"tensor": {"dtype": "DT_INT32", "tensorShape": {"dim": [{"size": "4"}]}}}, "dtype": {"type": "DT_INT32"}}}, {"name": "StatefulPartitionedCall/pwcdc_net/Slice_380/size/0", "op": "Const", "attr": {"dtype": {"type": "DT_INT32"}, "value": {"tensor": {"dtype": "DT_INT32", "tensorShape": {}}}}}, {"name": "StatefulPartitionedCall/pwcdc_net/Slice_380/size/3", "op": "Const", "attr": {"value": {"tensor": {"dtype": "DT_INT32", "tensorShape": {}}}, "dtype": {"type": "DT_INT32"}}}, {"name": "StatefulPartitionedCall/pwcdc_net/Mean_380/reduction_indices", "op": "Const", "attr": {"value": {"tensor": {"dtype": "DT_INT32", "tensorShape": {}}}, "dtype": {"type": "DT_INT32"}}}, {"name": "StatefulPartitionedCall/pwcdc_net/Slice_381/begin", "op": "Const", "attr": {"value": {"tensor": {"dtype": "DT_INT32", "tensorShape": {"dim": [{"size": "4"}]}}}, "dtype": {"type": "DT_INT32"}}}, {"name": "StatefulPartitionedCall/pwcdc_net/Slice_381/size/0", "op": "Const", "attr": {"dtype": {"type": "DT_INT32"}, "value": {"tensor": {"dtype": "DT_INT32", "tensorShape": {}}}}}, {"name": "StatefulPartitionedCall/pwcdc_net/Slice_381/size/3", "op": "Const", "attr": {"value": {"tensor": {"dtype": "DT_INT32", "tensorShape": {}}}, "dtype": {"type": "DT_INT32"}}}, {"name": "StatefulPartitionedCall/pwcdc_net/Mean_381/reduction_indices", "op": "Const", "attr": {"value": {"tensor": {"dtype": "DT_INT32", "tensorShape": {}}}, "dtype": {"type": "DT_INT32"}}}, {"name": "StatefulPartitionedCall/pwcdc_net/Slice_382/begin", "op": "Const", "attr": {"value": {"tensor": {"dtype": "DT_INT32", "tensorShape": {"dim": [{"size": "4"}]}}}, "dtype": {"type": "DT_INT32"}}}, {"name": "StatefulPartitionedCall/pwcdc_net/Slice_382/size/0", "op": "Const", "attr": {"value": {"tensor": {"dtype": "DT_INT32", "tensorShape": {}}}, "dtype": {"type": "DT_INT32"}}}, {"name": "StatefulPartitionedCall/pwcdc_net/Slice_382/size/3", "op": "Const", "attr": {"value": {"tensor": {"dtype": "DT_INT32", "tensorShape": {}}}, "dtype": {"type": "DT_INT32"}}}, {"name": "StatefulPartitionedCall/pwcdc_net/Mean_382/reduction_indices", "op": "Const", "attr": {"dtype": {"type": "DT_INT32"}, "value": {"tensor": {"dtype": "DT_INT32", "tensorShape": {}}}}}, {"name": "StatefulPartitionedCall/pwcdc_net/Slice_383/begin", "op": "Const", "attr": {"value": {"tensor": {"dtype": "DT_INT32", "tensorShape": {"dim": [{"size": "4"}]}}}, "dtype": {"type": "DT_INT32"}}}, {"name": "StatefulPartitionedCall/pwcdc_net/Slice_383/size/0", "op": "Const", "attr": {"value": {"tensor": {"dtype": "DT_INT32", "tensorShape": {}}}, "dtype": {"type": "DT_INT32"}}}, {"name": "StatefulPartitionedCall/pwcdc_net/Slice_383/size/3", "op": "Const", "attr": {"value": {"tensor": {"dtype": "DT_INT32", "tensorShape": {}}}, "dtype": {"type": "DT_INT32"}}}, {"name": "StatefulPartitionedCall/pwcdc_net/Mean_383/reduction_indices", "op": "Const", "attr": {"value": {"tensor": {"dtype": "DT_INT32", "tensorShape": {}}}, "dtype": {"type": "DT_INT32"}}}, {"name": "StatefulPartitionedCall/pwcdc_net/Slice_384/begin", "op": "Const", "attr": {"dtype": {"type": "DT_INT32"}, "value": {"tensor": {"dtype": "DT_INT32", "tensorShape": {"dim": [{"size": "4"}]}}}}}, {"name": "StatefulPartitionedCall/pwcdc_net/Slice_384/size/0", "op": "Const", "attr": {"value": {"tensor": {"dtype": "DT_INT32", "tensorShape": {}}}, "dtype": {"type": "DT_INT32"}}}, {"name": "StatefulPartitionedCall/pwcdc_net/Slice_384/size/3", "op": "Const", "attr": {"value": {"tensor": {"dtype": "DT_INT32", "tensorShape": {}}}, "dtype": {"type": "DT_INT32"}}}, {"name": "StatefulPartitionedCall/pwcdc_net/Mean_384/reduction_indices", "op": "Const", "attr": {"value": {"tensor": {"dtype": "DT_INT32", "tensorShape": {}}}, "dtype": {"type": "DT_INT32"}}}, {"name": "StatefulPartitionedCall/pwcdc_net/Slice_385/begin", "op": "Const", "attr": {"value": {"tensor": {"dtype": "DT_INT32", "tensorShape": {"dim": [{"size": "4"}]}}}, "dtype": {"type": "DT_INT32"}}}, {"name": "StatefulPartitionedCall/pwcdc_net/Slice_385/size/0", "op": "Const", "attr": {"dtype": {"type": "DT_INT32"}, "value": {"tensor": {"dtype": "DT_INT32", "tensorShape": {}}}}}, {"name": "StatefulPartitionedCall/pwcdc_net/Slice_385/size/3", "op": "Const", "attr": {"dtype": {"type": "DT_INT32"}, "value": {"tensor": {"dtype": "DT_INT32", "tensorShape": {}}}}}, {"name": "StatefulPartitionedCall/pwcdc_net/Mean_385/reduction_indices", "op": "Const", "attr": {"dtype": {"type": "DT_INT32"}, "value": {"tensor": {"dtype": "DT_INT32", "tensorShape": {}}}}}, {"name": "StatefulPartitionedCall/pwcdc_net/Slice_386/begin", "op": "Const", "attr": {"dtype": {"type": "DT_INT32"}, "value": {"tensor": {"dtype": "DT_INT32", "tensorShape": {"dim": [{"size": "4"}]}}}}}, {"name": "StatefulPartitionedCall/pwcdc_net/Slice_386/size/0", "op": "Const", "attr": {"value": {"tensor": {"dtype": "DT_INT32", "tensorShape": {}}}, "dtype": {"type": "DT_INT32"}}}, {"name": "StatefulPartitionedCall/pwcdc_net/Slice_386/size/3", "op": "Const", "attr": {"value": {"tensor": {"dtype": "DT_INT32", "tensorShape": {}}}, "dtype": {"type": "DT_INT32"}}}, {"name": "StatefulPartitionedCall/pwcdc_net/Mean_386/reduction_indices", "op": "Const", "attr": {"value": {"tensor": {"dtype": "DT_INT32", "tensorShape": {}}}, "dtype": {"type": "DT_INT32"}}}, {"name": "StatefulPartitionedCall/pwcdc_net/Slice_387/begin", "op": "Const", "attr": {"dtype": {"type": "DT_INT32"}, "value": {"tensor": {"dtype": "DT_INT32", "tensorShape": {"dim": [{"size": "4"}]}}}}}, {"name": "StatefulPartitionedCall/pwcdc_net/Slice_387/size/0", "op": "Const", "attr": {"value": {"tensor": {"dtype": "DT_INT32", "tensorShape": {}}}, "dtype": {"type": "DT_INT32"}}}, {"name": "StatefulPartitionedCall/pwcdc_net/Slice_387/size/3", "op": "Const", "attr": {"dtype": {"type": "DT_INT32"}, "value": {"tensor": {"dtype": "DT_INT32", "tensorShape": {}}}}}, {"name": "StatefulPartitionedCall/pwcdc_net/Mean_387/reduction_indices", "op": "Const", "attr": {"value": {"tensor": {"dtype": "DT_INT32", "tensorShape": {}}}, "dtype": {"type": "DT_INT32"}}}, {"name": "StatefulPartitionedCall/pwcdc_net/Slice_388/begin", "op": "Const", "attr": {"dtype": {"type": "DT_INT32"}, "value": {"tensor": {"dtype": "DT_INT32", "tensorShape": {"dim": [{"size": "4"}]}}}}}, {"name": "StatefulPartitionedCall/pwcdc_net/Slice_388/size/0", "op": "Const", "attr": {"value": {"tensor": {"dtype": "DT_INT32", "tensorShape": {}}}, "dtype": {"type": "DT_INT32"}}}, {"name": "StatefulPartitionedCall/pwcdc_net/Slice_388/size/3", "op": "Const", "attr": {"dtype": {"type": "DT_INT32"}, "value": {"tensor": {"dtype": "DT_INT32", "tensorShape": {}}}}}, {"name": "StatefulPartitionedCall/pwcdc_net/Mean_388/reduction_indices", "op": "Const", "attr": {"value": {"tensor": {"dtype": "DT_INT32", "tensorShape": {}}}, "dtype": {"type": "DT_INT32"}}}, {"name": "StatefulPartitionedCall/pwcdc_net/Slice_389/begin", "op": "Const", "attr": {"value": {"tensor": {"dtype": "DT_INT32", "tensorShape": {"dim": [{"size": "4"}]}}}, "dtype": {"type": "DT_INT32"}}}, {"name": "StatefulPartitionedCall/pwcdc_net/Slice_389/size/0", "op": "Const", "attr": {"dtype": {"type": "DT_INT32"}, "value": {"tensor": {"dtype": "DT_INT32", "tensorShape": {}}}}}, {"name": "StatefulPartitionedCall/pwcdc_net/Slice_389/size/3", "op": "Const", "attr": {"value": {"tensor": {"dtype": "DT_INT32", "tensorShape": {}}}, "dtype": {"type": "DT_INT32"}}}, {"name": "StatefulPartitionedCall/pwcdc_net/Mean_389/reduction_indices", "op": "Const", "attr": {"value": {"tensor": {"dtype": "DT_INT32", "tensorShape": {}}}, "dtype": {"type": "DT_INT32"}}}, {"name": "StatefulPartitionedCall/pwcdc_net/Slice_390/begin", "op": "Const", "attr": {"dtype": {"type": "DT_INT32"}, "value": {"tensor": {"dtype": "DT_INT32", "tensorShape": {"dim": [{"size": "4"}]}}}}}, {"name": "StatefulPartitionedCall/pwcdc_net/Slice_390/size/0", "op": "Const", "attr": {"value": {"tensor": {"dtype": "DT_INT32", "tensorShape": {}}}, "dtype": {"type": "DT_INT32"}}}, {"name": "StatefulPartitionedCall/pwcdc_net/Slice_390/size/3", "op": "Const", "attr": {"value": {"tensor": {"dtype": "DT_INT32", "tensorShape": {}}}, "dtype": {"type": "DT_INT32"}}}, {"name": "StatefulPartitionedCall/pwcdc_net/Mean_390/reduction_indices", "op": "Const", "attr": {"dtype": {"type": "DT_INT32"}, "value": {"tensor": {"dtype": "DT_INT32", "tensorShape": {}}}}}, {"name": "StatefulPartitionedCall/pwcdc_net/Slice_391/begin", "op": "Const", "attr": {"value": {"tensor": {"dtype": "DT_INT32", "tensorShape": {"dim": [{"size": "4"}]}}}, "dtype": {"type": "DT_INT32"}}}, {"name": "StatefulPartitionedCall/pwcdc_net/Slice_391/size/0", "op": "Const", "attr": {"dtype": {"type": "DT_INT32"}, "value": {"tensor": {"dtype": "DT_INT32", "tensorShape": {}}}}}, {"name": "StatefulPartitionedCall/pwcdc_net/Slice_391/size/3", "op": "Const", "attr": {"value": {"tensor": {"dtype": "DT_INT32", "tensorShape": {}}}, "dtype": {"type": "DT_INT32"}}}, {"name": "StatefulPartitionedCall/pwcdc_net/Mean_391/reduction_indices", "op": "Const", "attr": {"value": {"tensor": {"dtype": "DT_INT32", "tensorShape": {}}}, "dtype": {"type": "DT_INT32"}}}, {"name": "StatefulPartitionedCall/pwcdc_net/Slice_392/begin", "op": "Const", "attr": {"dtype": {"type": "DT_INT32"}, "value": {"tensor": {"dtype": "DT_INT32", "tensorShape": {"dim": [{"size": "4"}]}}}}}, {"name": "StatefulPartitionedCall/pwcdc_net/Slice_392/size/0", "op": "Const", "attr": {"value": {"tensor": {"dtype": "DT_INT32", "tensorShape": {}}}, "dtype": {"type": "DT_INT32"}}}, {"name": "StatefulPartitionedCall/pwcdc_net/Slice_392/size/3", "op": "Const", "attr": {"dtype": {"type": "DT_INT32"}, "value": {"tensor": {"dtype": "DT_INT32", "tensorShape": {}}}}}, {"name": "StatefulPartitionedCall/pwcdc_net/Mean_392/reduction_indices", "op": "Const", "attr": {"value": {"tensor": {"dtype": "DT_INT32", "tensorShape": {}}}, "dtype": {"type": "DT_INT32"}}}, {"name": "StatefulPartitionedCall/pwcdc_net/Slice_393/begin", "op": "Const", "attr": {"value": {"tensor": {"dtype": "DT_INT32", "tensorShape": {"dim": [{"size": "4"}]}}}, "dtype": {"type": "DT_INT32"}}}, {"name": "StatefulPartitionedCall/pwcdc_net/Slice_393/size/0", "op": "Const", "attr": {"value": {"tensor": {"dtype": "DT_INT32", "tensorShape": {}}}, "dtype": {"type": "DT_INT32"}}}, {"name": "StatefulPartitionedCall/pwcdc_net/Slice_393/size/3", "op": "Const", "attr": {"value": {"tensor": {"dtype": "DT_INT32", "tensorShape": {}}}, "dtype": {"type": "DT_INT32"}}}, {"name": "StatefulPartitionedCall/pwcdc_net/Mean_393/reduction_indices", "op": "Const", "attr": {"value": {"tensor": {"dtype": "DT_INT32", "tensorShape": {}}}, "dtype": {"type": "DT_INT32"}}}, {"name": "StatefulPartitionedCall/pwcdc_net/Slice_394/begin", "op": "Const", "attr": {"value": {"tensor": {"dtype": "DT_INT32", "tensorShape": {"dim": [{"size": "4"}]}}}, "dtype": {"type": "DT_INT32"}}}, {"name": "StatefulPartitionedCall/pwcdc_net/Slice_394/size/0", "op": "Const", "attr": {"dtype": {"type": "DT_INT32"}, "value": {"tensor": {"dtype": "DT_INT32", "tensorShape": {}}}}}, {"name": "StatefulPartitionedCall/pwcdc_net/Slice_394/size/3", "op": "Const", "attr": {"dtype": {"type": "DT_INT32"}, "value": {"tensor": {"dtype": "DT_INT32", "tensorShape": {}}}}}, {"name": "StatefulPartitionedCall/pwcdc_net/Mean_394/reduction_indices", "op": "Const", "attr": {"value": {"tensor": {"dtype": "DT_INT32", "tensorShape": {}}}, "dtype": {"type": "DT_INT32"}}}, {"name": "StatefulPartitionedCall/pwcdc_net/Slice_395/begin", "op": "Const", "attr": {"dtype": {"type": "DT_INT32"}, "value": {"tensor": {"dtype": "DT_INT32", "tensorShape": {"dim": [{"size": "4"}]}}}}}, {"name": "StatefulPartitionedCall/pwcdc_net/Slice_395/size/0", "op": "Const", "attr": {"dtype": {"type": "DT_INT32"}, "value": {"tensor": {"dtype": "DT_INT32", "tensorShape": {}}}}}, {"name": "StatefulPartitionedCall/pwcdc_net/Slice_395/size/3", "op": "Const", "attr": {"dtype": {"type": "DT_INT32"}, "value": {"tensor": {"dtype": "DT_INT32", "tensorShape": {}}}}}, {"name": "StatefulPartitionedCall/pwcdc_net/Mean_395/reduction_indices", "op": "Const", "attr": {"value": {"tensor": {"dtype": "DT_INT32", "tensorShape": {}}}, "dtype": {"type": "DT_INT32"}}}, {"name": "StatefulPartitionedCall/pwcdc_net/Slice_396/begin", "op": "Const", "attr": {"dtype": {"type": "DT_INT32"}, "value": {"tensor": {"dtype": "DT_INT32", "tensorShape": {"dim": [{"size": "4"}]}}}}}, {"name": "StatefulPartitionedCall/pwcdc_net/Slice_396/size/0", "op": "Const", "attr": {"value": {"tensor": {"dtype": "DT_INT32", "tensorShape": {}}}, "dtype": {"type": "DT_INT32"}}}, {"name": "StatefulPartitionedCall/pwcdc_net/Slice_396/size/3", "op": "Const", "attr": {"value": {"tensor": {"dtype": "DT_INT32", "tensorShape": {}}}, "dtype": {"type": "DT_INT32"}}}, {"name": "StatefulPartitionedCall/pwcdc_net/Mean_396/reduction_indices", "op": "Const", "attr": {"value": {"tensor": {"dtype": "DT_INT32", "tensorShape": {}}}, "dtype": {"type": "DT_INT32"}}}, {"name": "StatefulPartitionedCall/pwcdc_net/Slice_397/begin", "op": "Const", "attr": {"value": {"tensor": {"dtype": "DT_INT32", "tensorShape": {"dim": [{"size": "4"}]}}}, "dtype": {"type": "DT_INT32"}}}, {"name": "StatefulPartitionedCall/pwcdc_net/Slice_397/size/0", "op": "Const", "attr": {"value": {"tensor": {"dtype": "DT_INT32", "tensorShape": {}}}, "dtype": {"type": "DT_INT32"}}}, {"name": "StatefulPartitionedCall/pwcdc_net/Slice_397/size/3", "op": "Const", "attr": {"dtype": {"type": "DT_INT32"}, "value": {"tensor": {"dtype": "DT_INT32", "tensorShape": {}}}}}, {"name": "StatefulPartitionedCall/pwcdc_net/Mean_397/reduction_indices", "op": "Const", "attr": {"value": {"tensor": {"dtype": "DT_INT32", "tensorShape": {}}}, "dtype": {"type": "DT_INT32"}}}, {"name": "StatefulPartitionedCall/pwcdc_net/Slice_398/begin", "op": "Const", "attr": {"dtype": {"type": "DT_INT32"}, "value": {"tensor": {"dtype": "DT_INT32", "tensorShape": {"dim": [{"size": "4"}]}}}}}, {"name": "StatefulPartitionedCall/pwcdc_net/Slice_398/size/0", "op": "Const", "attr": {"dtype": {"type": "DT_INT32"}, "value": {"tensor": {"dtype": "DT_INT32", "tensorShape": {}}}}}, {"name": "StatefulPartitionedCall/pwcdc_net/Slice_398/size/3", "op": "Const", "attr": {"value": {"tensor": {"dtype": "DT_INT32", "tensorShape": {}}}, "dtype": {"type": "DT_INT32"}}}, {"name": "StatefulPartitionedCall/pwcdc_net/Mean_398/reduction_indices", "op": "Const", "attr": {"value": {"tensor": {"dtype": "DT_INT32", "tensorShape": {}}}, "dtype": {"type": "DT_INT32"}}}, {"name": "StatefulPartitionedCall/pwcdc_net/Slice_399/begin", "op": "Const", "attr": {"value": {"tensor": {"dtype": "DT_INT32", "tensorShape": {"dim": [{"size": "4"}]}}}, "dtype": {"type": "DT_INT32"}}}, {"name": "StatefulPartitionedCall/pwcdc_net/Slice_399/size/0", "op": "Const", "attr": {"value": {"tensor": {"dtype": "DT_INT32", "tensorShape": {}}}, "dtype": {"type": "DT_INT32"}}}, {"name": "StatefulPartitionedCall/pwcdc_net/Slice_399/size/3", "op": "Const", "attr": {"dtype": {"type": "DT_INT32"}, "value": {"tensor": {"dtype": "DT_INT32", "tensorShape": {}}}}}, {"name": "StatefulPartitionedCall/pwcdc_net/Mean_399/reduction_indices", "op": "Const", "attr": {"dtype": {"type": "DT_INT32"}, "value": {"tensor": {"dtype": "DT_INT32", "tensorShape": {}}}}}, {"name": "StatefulPartitionedCall/pwcdc_net/Slice_400/begin", "op": "Const", "attr": {"value": {"tensor": {"dtype": "DT_INT32", "tensorShape": {"dim": [{"size": "4"}]}}}, "dtype": {"type": "DT_INT32"}}}, {"name": "StatefulPartitionedCall/pwcdc_net/Slice_400/size/0", "op": "Const", "attr": {"dtype": {"type": "DT_INT32"}, "value": {"tensor": {"dtype": "DT_INT32", "tensorShape": {}}}}}, {"name": "StatefulPartitionedCall/pwcdc_net/Slice_400/size/3", "op": "Const", "attr": {"dtype": {"type": "DT_INT32"}, "value": {"tensor": {"dtype": "DT_INT32", "tensorShape": {}}}}}, {"name": "StatefulPartitionedCall/pwcdc_net/Mean_400/reduction_indices", "op": "Const", "attr": {"value": {"tensor": {"dtype": "DT_INT32", "tensorShape": {}}}, "dtype": {"type": "DT_INT32"}}}, {"name": "StatefulPartitionedCall/pwcdc_net/Slice_401/begin", "op": "Const", "attr": {"dtype": {"type": "DT_INT32"}, "value": {"tensor": {"dtype": "DT_INT32", "tensorShape": {"dim": [{"size": "4"}]}}}}}, {"name": "StatefulPartitionedCall/pwcdc_net/Slice_401/size/0", "op": "Const", "attr": {"value": {"tensor": {"dtype": "DT_INT32", "tensorShape": {}}}, "dtype": {"type": "DT_INT32"}}}, {"name": "StatefulPartitionedCall/pwcdc_net/Slice_401/size/3", "op": "Const", "attr": {"dtype": {"type": "DT_INT32"}, "value": {"tensor": {"dtype": "DT_INT32", "tensorShape": {}}}}}, {"name": "StatefulPartitionedCall/pwcdc_net/Mean_401/reduction_indices", "op": "Const", "attr": {"dtype": {"type": "DT_INT32"}, "value": {"tensor": {"dtype": "DT_INT32", "tensorShape": {}}}}}, {"name": "StatefulPartitionedCall/pwcdc_net/Slice_402/begin", "op": "Const", "attr": {"dtype": {"type": "DT_INT32"}, "value": {"tensor": {"dtype": "DT_INT32", "tensorShape": {"dim": [{"size": "4"}]}}}}}, {"name": "StatefulPartitionedCall/pwcdc_net/Slice_402/size/0", "op": "Const", "attr": {"dtype": {"type": "DT_INT32"}, "value": {"tensor": {"dtype": "DT_INT32", "tensorShape": {}}}}}, {"name": "StatefulPartitionedCall/pwcdc_net/Slice_402/size/3", "op": "Const", "attr": {"value": {"tensor": {"dtype": "DT_INT32", "tensorShape": {}}}, "dtype": {"type": "DT_INT32"}}}, {"name": "StatefulPartitionedCall/pwcdc_net/Mean_402/reduction_indices", "op": "Const", "attr": {"value": {"tensor": {"dtype": "DT_INT32", "tensorShape": {}}}, "dtype": {"type": "DT_INT32"}}}, {"name": "StatefulPartitionedCall/pwcdc_net/Slice_403/begin", "op": "Const", "attr": {"dtype": {"type": "DT_INT32"}, "value": {"tensor": {"dtype": "DT_INT32", "tensorShape": {"dim": [{"size": "4"}]}}}}}, {"name": "StatefulPartitionedCall/pwcdc_net/Slice_403/size/0", "op": "Const", "attr": {"dtype": {"type": "DT_INT32"}, "value": {"tensor": {"dtype": "DT_INT32", "tensorShape": {}}}}}, {"name": "StatefulPartitionedCall/pwcdc_net/Slice_403/size/3", "op": "Const", "attr": {"dtype": {"type": "DT_INT32"}, "value": {"tensor": {"dtype": "DT_INT32", "tensorShape": {}}}}}, {"name": "StatefulPartitionedCall/pwcdc_net/Mean_403/reduction_indices", "op": "Const", "attr": {"value": {"tensor": {"dtype": "DT_INT32", "tensorShape": {}}}, "dtype": {"type": "DT_INT32"}}}, {"name": "StatefulPartitionedCall/pwcdc_net/ExpandDims_12/dim", "op": "Const", "attr": {"dtype": {"type": "DT_INT32"}, "value": {"tensor": {"dtype": "DT_INT32", "tensorShape": {}}}}}, {"name": "StatefulPartitionedCall/pwcdc_net/ExpandDims_13/dim", "op": "Const", "attr": {"value": {"tensor": {"dtype": "DT_INT32", "tensorShape": {}}}, "dtype": {"type": "DT_INT32"}}}, {"name": "StatefulPartitionedCall/pwcdc_net/clip_by_value_12/y", "op": "Const", "attr": {"value": {"tensor": {"dtype": "DT_FLOAT", "tensorShape": {}}}, "dtype": {"type": "DT_FLOAT"}}}, {"name": "StatefulPartitionedCall/pwcdc_net/ExpandDims_14/dim", "op": "Const", "attr": {"value": {"tensor": {"dtype": "DT_INT32", "tensorShape": {}}}, "dtype": {"type": "DT_INT32"}}}, {"name": "StatefulPartitionedCall/pwcdc_net/clip_by_value_14/y", "op": "Const", "attr": {"value": {"tensor": {"dtype": "DT_FLOAT", "tensorShape": {}}}, "dtype": {"type": "DT_FLOAT"}}}, {"name": "StatefulPartitionedCall/pwcdc_net/ExpandDims_15/dim", "op": "Const", "attr": {"dtype": {"type": "DT_INT32"}, "value": {"tensor": {"dtype": "DT_INT32", "tensorShape": {}}}}}, {"name": "StatefulPartitionedCall/pwcdc_net/meshgrid_3/Reshape/shape", "op": "Const", "attr": {"dtype": {"type": "DT_INT32"}, "value": {"tensor": {"dtype": "DT_INT32", "tensorShape": {"dim": [{"size": "3"}]}}}}}, {"name": "StatefulPartitionedCall/pwcdc_net/meshgrid_3/Reshape_1/shape", "op": "Const", "attr": {"value": {"tensor": {"dtype": "DT_INT32", "tensorShape": {"dim": [{"size": "3"}]}}}, "dtype": {"type": "DT_INT32"}}}, {"name": "StatefulPartitionedCall/pwcdc_net/add_28/y", "op": "Const", "attr": {"dtype": {"type": "DT_FLOAT"}, "value": {"tensor": {"dtype": "DT_FLOAT", "tensorShape": {}}}}}, {"name": "StatefulPartitionedCall/pwcdc_net/sub_30/y", "op": "Const", "attr": {"value": {"tensor": {"dtype": "DT_INT32", "tensorShape": {}}}, "dtype": {"type": "DT_INT32"}}}, {"name": "StatefulPartitionedCall/pwcdc_net/clip_by_value_13/y", "op": "Const", "attr": {"value": {"tensor": {"dtype": "DT_FLOAT", "tensorShape": {}}}, "dtype": {"type": "DT_FLOAT"}}}, {"name": "StatefulPartitionedCall/pwcdc_net/meshgrid_3/Reshape_2/shape", "op": "Const", "attr": {"value": {"tensor": {"dtype": "DT_INT32", "tensorShape": {"dim": [{"size": "3"}]}}}, "dtype": {"type": "DT_INT32"}}}, {"name": "StatefulPartitionedCall/pwcdc_net/range_9/start", "op": "Const", "attr": {"dtype": {"type": "DT_INT32"}, "value": {"tensor": {"dtype": "DT_INT32", "tensorShape": {}}}}}, {"name": "StatefulPartitionedCall/pwcdc_net/range_9/delta", "op": "Const", "attr": {"dtype": {"type": "DT_INT32"}, "value": {"tensor": {"dtype": "DT_INT32", "tensorShape": {}}}}}, {"name": "StatefulPartitionedCall/pwcdc_net/range_10/start", "op": "Const", "attr": {"dtype": {"type": "DT_INT32"}, "value": {"tensor": {"dtype": "DT_INT32", "tensorShape": {}}}}}, {"name": "StatefulPartitionedCall/pwcdc_net/range_10/delta", "op": "Const", "attr": {"value": {"tensor": {"dtype": "DT_INT32", "tensorShape": {}}}, "dtype": {"type": "DT_INT32"}}}, {"name": "StatefulPartitionedCall/pwcdc_net/range_11/start", "op": "Const", "attr": {"value": {"tensor": {"dtype": "DT_INT32", "tensorShape": {}}}, "dtype": {"type": "DT_INT32"}}}, {"name": "StatefulPartitionedCall/pwcdc_net/range_11/delta", "op": "Const", "attr": {"value": {"tensor": {"dtype": "DT_INT32", "tensorShape": {}}}, "dtype": {"type": "DT_INT32"}}}, {"name": "StatefulPartitionedCall/pwcdc_net/meshgrid_3/ones/Const", "op": "Const", "attr": {"value": {"tensor": {"dtype": "DT_INT32", "tensorShape": {}}}, "dtype": {"type": "DT_INT32"}}}, {"name": "StatefulPartitionedCall/pwcdc_net/mul_351/y", "op": "Const", "attr": {"dtype": {"type": "DT_FLOAT"}, "value": {"tensor": {"dtype": "DT_FLOAT", "tensorShape": {}}}}}, {"name": "StatefulPartitionedCall/pwcdc_net/add_27/y", "op": "Const", "attr": {"dtype": {"type": "DT_FLOAT"}, "value": {"tensor": {"dtype": "DT_FLOAT", "tensorShape": {}}}}}, {"name": "StatefulPartitionedCall/pwcdc_net/sub_31/y", "op": "Const", "attr": {"dtype": {"type": "DT_INT32"}, "value": {"tensor": {"dtype": "DT_INT32", "tensorShape": {}}}}}, {"name": "StatefulPartitionedCall/pwcdc_net/clip_by_value_15/y", "op": "Const", "attr": {"dtype": {"type": "DT_FLOAT"}, "value": {"tensor": {"dtype": "DT_FLOAT", "tensorShape": {}}}}}, {"name": "StatefulPartitionedCall/pwcdc_net/Pad_4/paddings", "op": "Const", "attr": {"value": {"tensor": {"dtype": "DT_INT32", "tensorShape": {"dim": [{"size": "4"}, {"size": "2"}]}}}, "dtype": {"type": "DT_INT32"}}}, {"name": "StatefulPartitionedCall/pwcdc_net/Slice_404/begin", "op": "Const", "attr": {"value": {"tensor": {"dtype": "DT_INT32", "tensorShape": {"dim": [{"size": "4"}]}}}, "dtype": {"type": "DT_INT32"}}}, {"name": "StatefulPartitionedCall/pwcdc_net/Slice_404/size/0", "op": "Const", "attr": {"dtype": {"type": "DT_INT32"}, "value": {"tensor": {"dtype": "DT_INT32", "tensorShape": {}}}}}, {"name": "StatefulPartitionedCall/pwcdc_net/Slice_404/size/3", "op": "Const", "attr": {"dtype": {"type": "DT_INT32"}, "value": {"tensor": {"dtype": "DT_INT32", "tensorShape": {}}}}}, {"name": "StatefulPartitionedCall/pwcdc_net/Mean_404/reduction_indices", "op": "Const", "attr": {"dtype": {"type": "DT_INT32"}, "value": {"tensor": {"dtype": "DT_INT32", "tensorShape": {}}}}}, {"name": "StatefulPartitionedCall/pwcdc_net/concat_27/axis", "op": "Const", "attr": {"dtype": {"type": "DT_INT32"}, "value": {"tensor": {"dtype": "DT_INT32", "tensorShape": {}}}}}, {"name": "StatefulPartitionedCall/pwcdc_net/deconv_3/deconv_3/strided_slice/stack", "op": "Const", "attr": {"value": {"tensor": {"dtype": "DT_INT32", "tensorShape": {"dim": [{"size": "1"}]}}}, "dtype": {"type": "DT_INT32"}}}, {"name": "StatefulPartitionedCall/pwcdc_net/deconv_3/deconv_3/strided_slice/stack_1", "op": "Const", "attr": {"value": {"tensor": {"dtype": "DT_INT32", "tensorShape": {"dim": [{"size": "1"}]}}}, "dtype": {"type": "DT_INT32"}}}, {"name": "StatefulPartitionedCall/pwcdc_net/deconv_3/deconv_3/strided_slice/stack_2", "op": "Const", "attr": {"dtype": {"type": "DT_INT32"}, "value": {"tensor": {"dtype": "DT_INT32", "tensorShape": {"dim": [{"size": "1"}]}}}}}, {"name": "StatefulPartitionedCall/pwcdc_net/deconv_3/deconv_3/strided_slice_1/stack", "op": "Const", "attr": {"value": {"tensor": {"dtype": "DT_INT32", "tensorShape": {"dim": [{"size": "1"}]}}}, "dtype": {"type": "DT_INT32"}}}, {"name": "StatefulPartitionedCall/pwcdc_net/deconv_3/deconv_3/strided_slice_1/stack_1", "op": "Const", "attr": {"value": {"tensor": {"dtype": "DT_INT32", "tensorShape": {"dim": [{"size": "1"}]}}}, "dtype": {"type": "DT_INT32"}}}, {"name": "StatefulPartitionedCall/pwcdc_net/deconv_3/deconv_3/strided_slice_1/stack_2", "op": "Const", "attr": {"value": {"tensor": {"dtype": "DT_INT32", "tensorShape": {"dim": [{"size": "1"}]}}}, "dtype": {"type": "DT_INT32"}}}, {"name": "StatefulPartitionedCall/pwcdc_net/deconv_3/deconv_3/mul/y", "op": "Const", "attr": {"value": {"tensor": {"dtype": "DT_INT32", "tensorShape": {}}}, "dtype": {"type": "DT_INT32"}}}, {"name": "StatefulPartitionedCall/pwcdc_net/deconv_3/deconv_3/strided_slice_2/stack", "op": "Const", "attr": {"dtype": {"type": "DT_INT32"}, "value": {"tensor": {"dtype": "DT_INT32", "tensorShape": {"dim": [{"size": "1"}]}}}}}, {"name": "StatefulPartitionedCall/pwcdc_net/deconv_3/deconv_3/strided_slice_2/stack_1", "op": "Const", "attr": {"dtype": {"type": "DT_INT32"}, "value": {"tensor": {"dtype": "DT_INT32", "tensorShape": {"dim": [{"size": "1"}]}}}}}, {"name": "StatefulPartitionedCall/pwcdc_net/deconv_3/deconv_3/strided_slice_2/stack_2", "op": "Const", "attr": {"dtype": {"type": "DT_INT32"}, "value": {"tensor": {"dtype": "DT_INT32", "tensorShape": {"dim": [{"size": "1"}]}}}}}, {"name": "StatefulPartitionedCall/pwcdc_net/deconv_3/deconv_3/mul_1/y", "op": "Const", "attr": {"dtype": {"type": "DT_INT32"}, "value": {"tensor": {"dtype": "DT_INT32", "tensorShape": {}}}}}, {"name": "StatefulPartitionedCall/pwcdc_net/deconv_3/deconv_3/stack/3", "op": "Const", "attr": {"value": {"tensor": {"dtype": "DT_INT32", "tensorShape": {}}}, "dtype": {"type": "DT_INT32"}}}, {"name": "StatefulPartitionedCall/pwcdc_net/deconv_3/deconv_3/conv2d_transpose/ReadVariableOp", "op": "Const", "attr": {"value": {"tensor": {"dtype": "DT_FLOAT", "tensorShape": {"dim": [{"size": "4"}, {"size": "4"}, {"size": "2"}, {"size": "2"}]}}}, "dtype": {"type": "DT_FLOAT"}}}, {"name": "StatefulPartitionedCall/pwcdc_net/predict_flow_3/flow3_out/Conv2D/ReadVariableOp", "op": "Const", "attr": {"value": {"tensor": {"dtype": "DT_FLOAT", "tensorShape": {"dim": [{"size": "3"}, {"size": "3"}, {"size": "597"}, {"size": "2"}]}}}, "dtype": {"type": "DT_FLOAT"}}}, {"name": "StatefulPartitionedCall/pwcdc_net/predict_flow_3/flow3_out/BiasAdd/ReadVariableOp", "op": "Const", "attr": {"value": {"tensor": {"dtype": "DT_FLOAT", "tensorShape": {"dim": [{"size": "2"}]}}}, "dtype": {"type": "DT_FLOAT"}}}, {"name": "StatefulPartitionedCall/pwcdc_net/deconv_3/deconv_3/BiasAdd/ReadVariableOp", "op": "Const", "attr": {"dtype": {"type": "DT_FLOAT"}, "value": {"tensor": {"dtype": "DT_FLOAT", "tensorShape": {"dim": [{"size": "2"}]}}}}}, {"name": "StatefulPartitionedCall/pwcdc_net/upfeat_3/upfeat_3/strided_slice/stack", "op": "Const", "attr": {"value": {"tensor": {"dtype": "DT_INT32", "tensorShape": {"dim": [{"size": "1"}]}}}, "dtype": {"type": "DT_INT32"}}}, {"name": "StatefulPartitionedCall/pwcdc_net/upfeat_3/upfeat_3/strided_slice/stack_1", "op": "Const", "attr": {"value": {"tensor": {"dtype": "DT_INT32", "tensorShape": {"dim": [{"size": "1"}]}}}, "dtype": {"type": "DT_INT32"}}}, {"name": "StatefulPartitionedCall/pwcdc_net/upfeat_3/upfeat_3/strided_slice/stack_2", "op": "Const", "attr": {"value": {"tensor": {"dtype": "DT_INT32", "tensorShape": {"dim": [{"size": "1"}]}}}, "dtype": {"type": "DT_INT32"}}}, {"name": "StatefulPartitionedCall/pwcdc_net/upfeat_3/upfeat_3/strided_slice_1/stack", "op": "Const", "attr": {"value": {"tensor": {"dtype": "DT_INT32", "tensorShape": {"dim": [{"size": "1"}]}}}, "dtype": {"type": "DT_INT32"}}}, {"name": "StatefulPartitionedCall/pwcdc_net/upfeat_3/upfeat_3/strided_slice_1/stack_1", "op": "Const", "attr": {"dtype": {"type": "DT_INT32"}, "value": {"tensor": {"dtype": "DT_INT32", "tensorShape": {"dim": [{"size": "1"}]}}}}}, {"name": "StatefulPartitionedCall/pwcdc_net/upfeat_3/upfeat_3/strided_slice_1/stack_2", "op": "Const", "attr": {"dtype": {"type": "DT_INT32"}, "value": {"tensor": {"dtype": "DT_INT32", "tensorShape": {"dim": [{"size": "1"}]}}}}}, {"name": "StatefulPartitionedCall/pwcdc_net/upfeat_3/upfeat_3/mul/y", "op": "Const", "attr": {"value": {"tensor": {"dtype": "DT_INT32", "tensorShape": {}}}, "dtype": {"type": "DT_INT32"}}}, {"name": "StatefulPartitionedCall/pwcdc_net/upfeat_3/upfeat_3/strided_slice_2/stack", "op": "Const", "attr": {"dtype": {"type": "DT_INT32"}, "value": {"tensor": {"dtype": "DT_INT32", "tensorShape": {"dim": [{"size": "1"}]}}}}}, {"name": "StatefulPartitionedCall/pwcdc_net/upfeat_3/upfeat_3/strided_slice_2/stack_1", "op": "Const", "attr": {"dtype": {"type": "DT_INT32"}, "value": {"tensor": {"dtype": "DT_INT32", "tensorShape": {"dim": [{"size": "1"}]}}}}}, {"name": "StatefulPartitionedCall/pwcdc_net/upfeat_3/upfeat_3/strided_slice_2/stack_2", "op": "Const", "attr": {"value": {"tensor": {"dtype": "DT_INT32", "tensorShape": {"dim": [{"size": "1"}]}}}, "dtype": {"type": "DT_INT32"}}}, {"name": "StatefulPartitionedCall/pwcdc_net/upfeat_3/upfeat_3/mul_1/y", "op": "Const", "attr": {"dtype": {"type": "DT_INT32"}, "value": {"tensor": {"dtype": "DT_INT32", "tensorShape": {}}}}}, {"name": "StatefulPartitionedCall/pwcdc_net/upfeat_3/upfeat_3/stack/3", "op": "Const", "attr": {"value": {"tensor": {"dtype": "DT_INT32", "tensorShape": {}}}, "dtype": {"type": "DT_INT32"}}}, {"name": "StatefulPartitionedCall/pwcdc_net/upfeat_3/upfeat_3/conv2d_transpose/ReadVariableOp", "op": "Const", "attr": {"value": {"tensor": {"dtype": "DT_FLOAT", "tensorShape": {"dim": [{"size": "4"}, {"size": "4"}, {"size": "2"}, {"size": "597"}]}}}, "dtype": {"type": "DT_FLOAT"}}}, {"name": "StatefulPartitionedCall/pwcdc_net/conv3_4/conv2d_37/Conv2D/ReadVariableOp", "op": "Const", "attr": {"value": {"tensor": {"dtype": "DT_FLOAT", "tensorShape": {"dim": [{"size": "3"}, {"size": "3"}, {"size": "565"}, {"size": "32"}]}}}, "dtype": {"type": "DT_FLOAT"}}}, {"name": "StatefulPartitionedCall/pwcdc_net/conv3_4/conv2d_37/BiasAdd/ReadVariableOp", "op": "Const", "attr": {"value": {"tensor": {"dtype": "DT_FLOAT", "tensorShape": {"dim": [{"size": "32"}]}}}, "dtype": {"type": "DT_FLOAT"}}}, {"name": "StatefulPartitionedCall/pwcdc_net/conv3_3/conv2d_36/Conv2D/ReadVariableOp", "op": "Const", "attr": {"value": {"tensor": {"dtype": "DT_FLOAT", "tensorShape": {"dim": [{"size": "3"}, {"size": "3"}, {"size": "501"}, {"size": "64"}]}}}, "dtype": {"type": "DT_FLOAT"}}}, {"name": "StatefulPartitionedCall/pwcdc_net/conv3_3/conv2d_36/BiasAdd/ReadVariableOp", "op": "Const", "attr": {"dtype": {"type": "DT_FLOAT"}, "value": {"tensor": {"dtype": "DT_FLOAT", "tensorShape": {"dim": [{"size": "64"}]}}}}}, {"name": "StatefulPartitionedCall/pwcdc_net/conv3_2/conv2d_35/Conv2D/ReadVariableOp", "op": "Const", "attr": {"dtype": {"type": "DT_FLOAT"}, "value": {"tensor": {"dtype": "DT_FLOAT", "tensorShape": {"dim": [{"size": "3"}, {"size": "3"}, {"size": "405"}, {"size": "96"}]}}}}}, {"name": "StatefulPartitionedCall/pwcdc_net/conv3_2/conv2d_35/BiasAdd/ReadVariableOp", "op": "Const", "attr": {"dtype": {"type": "DT_FLOAT"}, "value": {"tensor": {"dtype": "DT_FLOAT", "tensorShape": {"dim": [{"size": "96"}]}}}}}, {"name": "StatefulPartitionedCall/pwcdc_net/conv3_1/conv2d_34/Conv2D/ReadVariableOp", "op": "Const", "attr": {"dtype": {"type": "DT_FLOAT"}, "value": {"tensor": {"dtype": "DT_FLOAT", "tensorShape": {"dim": [{"size": "3"}, {"size": "3"}, {"size": "277"}, {"size": "128"}]}}}}}, {"name": "StatefulPartitionedCall/pwcdc_net/conv3_1/conv2d_34/BiasAdd/ReadVariableOp", "op": "Const", "attr": {"value": {"tensor": {"dtype": "DT_FLOAT", "tensorShape": {"dim": [{"size": "128"}]}}}, "dtype": {"type": "DT_FLOAT"}}}, {"name": "StatefulPartitionedCall/pwcdc_net/conv3_0/conv2d_33/Conv2D/ReadVariableOp", "op": "Const", "attr": {"value": {"tensor": {"dtype": "DT_FLOAT", "tensorShape": {"dim": [{"size": "3"}, {"size": "3"}, {"size": "149"}, {"size": "128"}]}}}, "dtype": {"type": "DT_FLOAT"}}}, {"name": "StatefulPartitionedCall/pwcdc_net/conv3_0/conv2d_33/BiasAdd/ReadVariableOp", "op": "Const", "attr": {"dtype": {"type": "DT_FLOAT"}, "value": {"tensor": {"dtype": "DT_FLOAT", "tensorShape": {"dim": [{"size": "128"}]}}}}}, {"name": "StatefulPartitionedCall/pwcdc_net/Slice_243/begin", "op": "Const", "attr": {"dtype": {"type": "DT_INT32"}, "value": {"tensor": {"dtype": "DT_INT32", "tensorShape": {"dim": [{"size": "4"}]}}}}}, {"name": "StatefulPartitionedCall/pwcdc_net/Slice_243/size/0", "op": "Const", "attr": {"value": {"tensor": {"dtype": "DT_INT32", "tensorShape": {}}}, "dtype": {"type": "DT_INT32"}}}, {"name": "StatefulPartitionedCall/pwcdc_net/Slice_243/size/3", "op": "Const", "attr": {"value": {"tensor": {"dtype": "DT_INT32", "tensorShape": {}}}, "dtype": {"type": "DT_INT32"}}}, {"name": "StatefulPartitionedCall/pwcdc_net/Mean_243/reduction_indices", "op": "Const", "attr": {"value": {"tensor": {"dtype": "DT_INT32", "tensorShape": {}}}, "dtype": {"type": "DT_INT32"}}}, {"name": "StatefulPartitionedCall/pwcdc_net/Slice_244/begin", "op": "Const", "attr": {"value": {"tensor": {"dtype": "DT_INT32", "tensorShape": {"dim": [{"size": "4"}]}}}, "dtype": {"type": "DT_INT32"}}}, {"name": "StatefulPartitionedCall/pwcdc_net/Slice_244/size/0", "op": "Const", "attr": {"dtype": {"type": "DT_INT32"}, "value": {"tensor": {"dtype": "DT_INT32", "tensorShape": {}}}}}, {"name": "StatefulPartitionedCall/pwcdc_net/Slice_244/size/3", "op": "Const", "attr": {"dtype": {"type": "DT_INT32"}, "value": {"tensor": {"dtype": "DT_INT32", "tensorShape": {}}}}}, {"name": "StatefulPartitionedCall/pwcdc_net/Mean_244/reduction_indices", "op": "Const", "attr": {"value": {"tensor": {"dtype": "DT_INT32", "tensorShape": {}}}, "dtype": {"type": "DT_INT32"}}}, {"name": "StatefulPartitionedCall/pwcdc_net/Slice_245/begin", "op": "Const", "attr": {"value": {"tensor": {"dtype": "DT_INT32", "tensorShape": {"dim": [{"size": "4"}]}}}, "dtype": {"type": "DT_INT32"}}}, {"name": "StatefulPartitionedCall/pwcdc_net/Slice_245/size/0", "op": "Const", "attr": {"dtype": {"type": "DT_INT32"}, "value": {"tensor": {"dtype": "DT_INT32", "tensorShape": {}}}}}, {"name": "StatefulPartitionedCall/pwcdc_net/Slice_245/size/3", "op": "Const", "attr": {"value": {"tensor": {"dtype": "DT_INT32", "tensorShape": {}}}, "dtype": {"type": "DT_INT32"}}}, {"name": "StatefulPartitionedCall/pwcdc_net/Mean_245/reduction_indices", "op": "Const", "attr": {"dtype": {"type": "DT_INT32"}, "value": {"tensor": {"dtype": "DT_INT32", "tensorShape": {}}}}}, {"name": "StatefulPartitionedCall/pwcdc_net/Slice_246/begin", "op": "Const", "attr": {"value": {"tensor": {"dtype": "DT_INT32", "tensorShape": {"dim": [{"size": "4"}]}}}, "dtype": {"type": "DT_INT32"}}}, {"name": "StatefulPartitionedCall/pwcdc_net/Slice_246/size/0", "op": "Const", "attr": {"value": {"tensor": {"dtype": "DT_INT32", "tensorShape": {}}}, "dtype": {"type": "DT_INT32"}}}, {"name": "StatefulPartitionedCall/pwcdc_net/Slice_246/size/3", "op": "Const", "attr": {"dtype": {"type": "DT_INT32"}, "value": {"tensor": {"dtype": "DT_INT32", "tensorShape": {}}}}}, {"name": "StatefulPartitionedCall/pwcdc_net/Mean_246/reduction_indices", "op": "Const", "attr": {"dtype": {"type": "DT_INT32"}, "value": {"tensor": {"dtype": "DT_INT32", "tensorShape": {}}}}}, {"name": "StatefulPartitionedCall/pwcdc_net/Slice_247/begin", "op": "Const", "attr": {"dtype": {"type": "DT_INT32"}, "value": {"tensor": {"dtype": "DT_INT32", "tensorShape": {"dim": [{"size": "4"}]}}}}}, {"name": "StatefulPartitionedCall/pwcdc_net/Slice_247/size/0", "op": "Const", "attr": {"value": {"tensor": {"dtype": "DT_INT32", "tensorShape": {}}}, "dtype": {"type": "DT_INT32"}}}, {"name": "StatefulPartitionedCall/pwcdc_net/Slice_247/size/3", "op": "Const", "attr": {"value": {"tensor": {"dtype": "DT_INT32", "tensorShape": {}}}, "dtype": {"type": "DT_INT32"}}}, {"name": "StatefulPartitionedCall/pwcdc_net/Mean_247/reduction_indices", "op": "Const", "attr": {"dtype": {"type": "DT_INT32"}, "value": {"tensor": {"dtype": "DT_INT32", "tensorShape": {}}}}}, {"name": "StatefulPartitionedCall/pwcdc_net/Slice_248/begin", "op": "Const", "attr": {"value": {"tensor": {"dtype": "DT_INT32", "tensorShape": {"dim": [{"size": "4"}]}}}, "dtype": {"type": "DT_INT32"}}}, {"name": "StatefulPartitionedCall/pwcdc_net/Slice_248/size/0", "op": "Const", "attr": {"value": {"tensor": {"dtype": "DT_INT32", "tensorShape": {}}}, "dtype": {"type": "DT_INT32"}}}, {"name": "StatefulPartitionedCall/pwcdc_net/Slice_248/size/3", "op": "Const", "attr": {"value": {"tensor": {"dtype": "DT_INT32", "tensorShape": {}}}, "dtype": {"type": "DT_INT32"}}}, {"name": "StatefulPartitionedCall/pwcdc_net/Mean_248/reduction_indices", "op": "Const", "attr": {"dtype": {"type": "DT_INT32"}, "value": {"tensor": {"dtype": "DT_INT32", "tensorShape": {}}}}}, {"name": "StatefulPartitionedCall/pwcdc_net/Slice_249/begin", "op": "Const", "attr": {"dtype": {"type": "DT_INT32"}, "value": {"tensor": {"dtype": "DT_INT32", "tensorShape": {"dim": [{"size": "4"}]}}}}}, {"name": "StatefulPartitionedCall/pwcdc_net/Slice_249/size/0", "op": "Const", "attr": {"dtype": {"type": "DT_INT32"}, "value": {"tensor": {"dtype": "DT_INT32", "tensorShape": {}}}}}, {"name": "StatefulPartitionedCall/pwcdc_net/Slice_249/size/3", "op": "Const", "attr": {"value": {"tensor": {"dtype": "DT_INT32", "tensorShape": {}}}, "dtype": {"type": "DT_INT32"}}}, {"name": "StatefulPartitionedCall/pwcdc_net/Mean_249/reduction_indices", "op": "Const", "attr": {"value": {"tensor": {"dtype": "DT_INT32", "tensorShape": {}}}, "dtype": {"type": "DT_INT32"}}}, {"name": "StatefulPartitionedCall/pwcdc_net/Slice_250/begin", "op": "Const", "attr": {"dtype": {"type": "DT_INT32"}, "value": {"tensor": {"dtype": "DT_INT32", "tensorShape": {"dim": [{"size": "4"}]}}}}}, {"name": "StatefulPartitionedCall/pwcdc_net/Slice_250/size/0", "op": "Const", "attr": {"dtype": {"type": "DT_INT32"}, "value": {"tensor": {"dtype": "DT_INT32", "tensorShape": {}}}}}, {"name": "StatefulPartitionedCall/pwcdc_net/Slice_250/size/3", "op": "Const", "attr": {"value": {"tensor": {"dtype": "DT_INT32", "tensorShape": {}}}, "dtype": {"type": "DT_INT32"}}}, {"name": "StatefulPartitionedCall/pwcdc_net/Mean_250/reduction_indices", "op": "Const", "attr": {"value": {"tensor": {"dtype": "DT_INT32", "tensorShape": {}}}, "dtype": {"type": "DT_INT32"}}}, {"name": "StatefulPartitionedCall/pwcdc_net/Slice_251/begin", "op": "Const", "attr": {"dtype": {"type": "DT_INT32"}, "value": {"tensor": {"dtype": "DT_INT32", "tensorShape": {"dim": [{"size": "4"}]}}}}}, {"name": "StatefulPartitionedCall/pwcdc_net/Slice_251/size/0", "op": "Const", "attr": {"dtype": {"type": "DT_INT32"}, "value": {"tensor": {"dtype": "DT_INT32", "tensorShape": {}}}}}, {"name": "StatefulPartitionedCall/pwcdc_net/Slice_251/size/3", "op": "Const", "attr": {"dtype": {"type": "DT_INT32"}, "value": {"tensor": {"dtype": "DT_INT32", "tensorShape": {}}}}}, {"name": "StatefulPartitionedCall/pwcdc_net/Mean_251/reduction_indices", "op": "Const", "attr": {"value": {"tensor": {"dtype": "DT_INT32", "tensorShape": {}}}, "dtype": {"type": "DT_INT32"}}}, {"name": "StatefulPartitionedCall/pwcdc_net/Slice_252/begin", "op": "Const", "attr": {"value": {"tensor": {"dtype": "DT_INT32", "tensorShape": {"dim": [{"size": "4"}]}}}, "dtype": {"type": "DT_INT32"}}}, {"name": "StatefulPartitionedCall/pwcdc_net/Slice_252/size/0", "op": "Const", "attr": {"value": {"tensor": {"dtype": "DT_INT32", "tensorShape": {}}}, "dtype": {"type": "DT_INT32"}}}, {"name": "StatefulPartitionedCall/pwcdc_net/Slice_252/size/3", "op": "Const", "attr": {"value": {"tensor": {"dtype": "DT_INT32", "tensorShape": {}}}, "dtype": {"type": "DT_INT32"}}}, {"name": "StatefulPartitionedCall/pwcdc_net/Mean_252/reduction_indices", "op": "Const", "attr": {"value": {"tensor": {"dtype": "DT_INT32", "tensorShape": {}}}, "dtype": {"type": "DT_INT32"}}}, {"name": "StatefulPartitionedCall/pwcdc_net/Slice_253/begin", "op": "Const", "attr": {"value": {"tensor": {"dtype": "DT_INT32", "tensorShape": {"dim": [{"size": "4"}]}}}, "dtype": {"type": "DT_INT32"}}}, {"name": "StatefulPartitionedCall/pwcdc_net/Slice_253/size/0", "op": "Const", "attr": {"value": {"tensor": {"dtype": "DT_INT32", "tensorShape": {}}}, "dtype": {"type": "DT_INT32"}}}, {"name": "StatefulPartitionedCall/pwcdc_net/Slice_253/size/3", "op": "Const", "attr": {"value": {"tensor": {"dtype": "DT_INT32", "tensorShape": {}}}, "dtype": {"type": "DT_INT32"}}}, {"name": "StatefulPartitionedCall/pwcdc_net/Mean_253/reduction_indices", "op": "Const", "attr": {"value": {"tensor": {"dtype": "DT_INT32", "tensorShape": {}}}, "dtype": {"type": "DT_INT32"}}}, {"name": "StatefulPartitionedCall/pwcdc_net/Slice_254/begin", "op": "Const", "attr": {"value": {"tensor": {"dtype": "DT_INT32", "tensorShape": {"dim": [{"size": "4"}]}}}, "dtype": {"type": "DT_INT32"}}}, {"name": "StatefulPartitionedCall/pwcdc_net/Slice_254/size/0", "op": "Const", "attr": {"value": {"tensor": {"dtype": "DT_INT32", "tensorShape": {}}}, "dtype": {"type": "DT_INT32"}}}, {"name": "StatefulPartitionedCall/pwcdc_net/Slice_254/size/3", "op": "Const", "attr": {"dtype": {"type": "DT_INT32"}, "value": {"tensor": {"dtype": "DT_INT32", "tensorShape": {}}}}}, {"name": "StatefulPartitionedCall/pwcdc_net/Mean_254/reduction_indices", "op": "Const", "attr": {"value": {"tensor": {"dtype": "DT_INT32", "tensorShape": {}}}, "dtype": {"type": "DT_INT32"}}}, {"name": "StatefulPartitionedCall/pwcdc_net/Slice_255/begin", "op": "Const", "attr": {"value": {"tensor": {"dtype": "DT_INT32", "tensorShape": {"dim": [{"size": "4"}]}}}, "dtype": {"type": "DT_INT32"}}}, {"name": "StatefulPartitionedCall/pwcdc_net/Slice_255/size/0", "op": "Const", "attr": {"dtype": {"type": "DT_INT32"}, "value": {"tensor": {"dtype": "DT_INT32", "tensorShape": {}}}}}, {"name": "StatefulPartitionedCall/pwcdc_net/Slice_255/size/3", "op": "Const", "attr": {"value": {"tensor": {"dtype": "DT_INT32", "tensorShape": {}}}, "dtype": {"type": "DT_INT32"}}}, {"name": "StatefulPartitionedCall/pwcdc_net/Mean_255/reduction_indices", "op": "Const", "attr": {"value": {"tensor": {"dtype": "DT_INT32", "tensorShape": {}}}, "dtype": {"type": "DT_INT32"}}}, {"name": "StatefulPartitionedCall/pwcdc_net/Slice_256/begin", "op": "Const", "attr": {"dtype": {"type": "DT_INT32"}, "value": {"tensor": {"dtype": "DT_INT32", "tensorShape": {"dim": [{"size": "4"}]}}}}}, {"name": "StatefulPartitionedCall/pwcdc_net/Slice_256/size/0", "op": "Const", "attr": {"dtype": {"type": "DT_INT32"}, "value": {"tensor": {"dtype": "DT_INT32", "tensorShape": {}}}}}, {"name": "StatefulPartitionedCall/pwcdc_net/Slice_256/size/3", "op": "Const", "attr": {"dtype": {"type": "DT_INT32"}, "value": {"tensor": {"dtype": "DT_INT32", "tensorShape": {}}}}}, {"name": "StatefulPartitionedCall/pwcdc_net/Mean_256/reduction_indices", "op": "Const", "attr": {"value": {"tensor": {"dtype": "DT_INT32", "tensorShape": {}}}, "dtype": {"type": "DT_INT32"}}}, {"name": "StatefulPartitionedCall/pwcdc_net/Slice_257/begin", "op": "Const", "attr": {"dtype": {"type": "DT_INT32"}, "value": {"tensor": {"dtype": "DT_INT32", "tensorShape": {"dim": [{"size": "4"}]}}}}}, {"name": "StatefulPartitionedCall/pwcdc_net/Slice_257/size/0", "op": "Const", "attr": {"value": {"tensor": {"dtype": "DT_INT32", "tensorShape": {}}}, "dtype": {"type": "DT_INT32"}}}, {"name": "StatefulPartitionedCall/pwcdc_net/Slice_257/size/3", "op": "Const", "attr": {"value": {"tensor": {"dtype": "DT_INT32", "tensorShape": {}}}, "dtype": {"type": "DT_INT32"}}}, {"name": "StatefulPartitionedCall/pwcdc_net/Mean_257/reduction_indices", "op": "Const", "attr": {"dtype": {"type": "DT_INT32"}, "value": {"tensor": {"dtype": "DT_INT32", "tensorShape": {}}}}}, {"name": "StatefulPartitionedCall/pwcdc_net/Slice_258/begin", "op": "Const", "attr": {"dtype": {"type": "DT_INT32"}, "value": {"tensor": {"dtype": "DT_INT32", "tensorShape": {"dim": [{"size": "4"}]}}}}}, {"name": "StatefulPartitionedCall/pwcdc_net/Slice_258/size/0", "op": "Const", "attr": {"value": {"tensor": {"dtype": "DT_INT32", "tensorShape": {}}}, "dtype": {"type": "DT_INT32"}}}, {"name": "StatefulPartitionedCall/pwcdc_net/Slice_258/size/3", "op": "Const", "attr": {"value": {"tensor": {"dtype": "DT_INT32", "tensorShape": {}}}, "dtype": {"type": "DT_INT32"}}}, {"name": "StatefulPartitionedCall/pwcdc_net/Mean_258/reduction_indices", "op": "Const", "attr": {"dtype": {"type": "DT_INT32"}, "value": {"tensor": {"dtype": "DT_INT32", "tensorShape": {}}}}}, {"name": "StatefulPartitionedCall/pwcdc_net/Slice_259/begin", "op": "Const", "attr": {"value": {"tensor": {"dtype": "DT_INT32", "tensorShape": {"dim": [{"size": "4"}]}}}, "dtype": {"type": "DT_INT32"}}}, {"name": "StatefulPartitionedCall/pwcdc_net/Slice_259/size/0", "op": "Const", "attr": {"dtype": {"type": "DT_INT32"}, "value": {"tensor": {"dtype": "DT_INT32", "tensorShape": {}}}}}, {"name": "StatefulPartitionedCall/pwcdc_net/Slice_259/size/3", "op": "Const", "attr": {"dtype": {"type": "DT_INT32"}, "value": {"tensor": {"dtype": "DT_INT32", "tensorShape": {}}}}}, {"name": "StatefulPartitionedCall/pwcdc_net/Mean_259/reduction_indices", "op": "Const", "attr": {"value": {"tensor": {"dtype": "DT_INT32", "tensorShape": {}}}, "dtype": {"type": "DT_INT32"}}}, {"name": "StatefulPartitionedCall/pwcdc_net/Slice_260/begin", "op": "Const", "attr": {"dtype": {"type": "DT_INT32"}, "value": {"tensor": {"dtype": "DT_INT32", "tensorShape": {"dim": [{"size": "4"}]}}}}}, {"name": "StatefulPartitionedCall/pwcdc_net/Slice_260/size/0", "op": "Const", "attr": {"value": {"tensor": {"dtype": "DT_INT32", "tensorShape": {}}}, "dtype": {"type": "DT_INT32"}}}, {"name": "StatefulPartitionedCall/pwcdc_net/Slice_260/size/3", "op": "Const", "attr": {"value": {"tensor": {"dtype": "DT_INT32", "tensorShape": {}}}, "dtype": {"type": "DT_INT32"}}}, {"name": "StatefulPartitionedCall/pwcdc_net/Mean_260/reduction_indices", "op": "Const", "attr": {"dtype": {"type": "DT_INT32"}, "value": {"tensor": {"dtype": "DT_INT32", "tensorShape": {}}}}}, {"name": "StatefulPartitionedCall/pwcdc_net/Slice_261/begin", "op": "Const", "attr": {"dtype": {"type": "DT_INT32"}, "value": {"tensor": {"dtype": "DT_INT32", "tensorShape": {"dim": [{"size": "4"}]}}}}}, {"name": "StatefulPartitionedCall/pwcdc_net/Slice_261/size/0", "op": "Const", "attr": {"value": {"tensor": {"dtype": "DT_INT32", "tensorShape": {}}}, "dtype": {"type": "DT_INT32"}}}, {"name": "StatefulPartitionedCall/pwcdc_net/Slice_261/size/3", "op": "Const", "attr": {"value": {"tensor": {"dtype": "DT_INT32", "tensorShape": {}}}, "dtype": {"type": "DT_INT32"}}}, {"name": "StatefulPartitionedCall/pwcdc_net/Mean_261/reduction_indices", "op": "Const", "attr": {"value": {"tensor": {"dtype": "DT_INT32", "tensorShape": {}}}, "dtype": {"type": "DT_INT32"}}}, {"name": "StatefulPartitionedCall/pwcdc_net/Slice_262/begin", "op": "Const", "attr": {"value": {"tensor": {"dtype": "DT_INT32", "tensorShape": {"dim": [{"size": "4"}]}}}, "dtype": {"type": "DT_INT32"}}}, {"name": "StatefulPartitionedCall/pwcdc_net/Slice_262/size/0", "op": "Const", "attr": {"dtype": {"type": "DT_INT32"}, "value": {"tensor": {"dtype": "DT_INT32", "tensorShape": {}}}}}, {"name": "StatefulPartitionedCall/pwcdc_net/Slice_262/size/3", "op": "Const", "attr": {"dtype": {"type": "DT_INT32"}, "value": {"tensor": {"dtype": "DT_INT32", "tensorShape": {}}}}}, {"name": "StatefulPartitionedCall/pwcdc_net/Mean_262/reduction_indices", "op": "Const", "attr": {"value": {"tensor": {"dtype": "DT_INT32", "tensorShape": {}}}, "dtype": {"type": "DT_INT32"}}}, {"name": "StatefulPartitionedCall/pwcdc_net/Slice_263/begin", "op": "Const", "attr": {"value": {"tensor": {"dtype": "DT_INT32", "tensorShape": {"dim": [{"size": "4"}]}}}, "dtype": {"type": "DT_INT32"}}}, {"name": "StatefulPartitionedCall/pwcdc_net/Slice_263/size/0", "op": "Const", "attr": {"dtype": {"type": "DT_INT32"}, "value": {"tensor": {"dtype": "DT_INT32", "tensorShape": {}}}}}, {"name": "StatefulPartitionedCall/pwcdc_net/Slice_263/size/3", "op": "Const", "attr": {"value": {"tensor": {"dtype": "DT_INT32", "tensorShape": {}}}, "dtype": {"type": "DT_INT32"}}}, {"name": "StatefulPartitionedCall/pwcdc_net/Mean_263/reduction_indices", "op": "Const", "attr": {"dtype": {"type": "DT_INT32"}, "value": {"tensor": {"dtype": "DT_INT32", "tensorShape": {}}}}}, {"name": "StatefulPartitionedCall/pwcdc_net/Slice_264/begin", "op": "Const", "attr": {"dtype": {"type": "DT_INT32"}, "value": {"tensor": {"dtype": "DT_INT32", "tensorShape": {"dim": [{"size": "4"}]}}}}}, {"name": "StatefulPartitionedCall/pwcdc_net/Slice_264/size/0", "op": "Const", "attr": {"value": {"tensor": {"dtype": "DT_INT32", "tensorShape": {}}}, "dtype": {"type": "DT_INT32"}}}, {"name": "StatefulPartitionedCall/pwcdc_net/Slice_264/size/3", "op": "Const", "attr": {"dtype": {"type": "DT_INT32"}, "value": {"tensor": {"dtype": "DT_INT32", "tensorShape": {}}}}}, {"name": "StatefulPartitionedCall/pwcdc_net/Mean_264/reduction_indices", "op": "Const", "attr": {"value": {"tensor": {"dtype": "DT_INT32", "tensorShape": {}}}, "dtype": {"type": "DT_INT32"}}}, {"name": "StatefulPartitionedCall/pwcdc_net/Slice_265/begin", "op": "Const", "attr": {"value": {"tensor": {"dtype": "DT_INT32", "tensorShape": {"dim": [{"size": "4"}]}}}, "dtype": {"type": "DT_INT32"}}}, {"name": "StatefulPartitionedCall/pwcdc_net/Slice_265/size/0", "op": "Const", "attr": {"value": {"tensor": {"dtype": "DT_INT32", "tensorShape": {}}}, "dtype": {"type": "DT_INT32"}}}, {"name": "StatefulPartitionedCall/pwcdc_net/Slice_265/size/3", "op": "Const", "attr": {"value": {"tensor": {"dtype": "DT_INT32", "tensorShape": {}}}, "dtype": {"type": "DT_INT32"}}}, {"name": "StatefulPartitionedCall/pwcdc_net/Mean_265/reduction_indices", "op": "Const", "attr": {"value": {"tensor": {"dtype": "DT_INT32", "tensorShape": {}}}, "dtype": {"type": "DT_INT32"}}}, {"name": "StatefulPartitionedCall/pwcdc_net/Slice_266/begin", "op": "Const", "attr": {"dtype": {"type": "DT_INT32"}, "value": {"tensor": {"dtype": "DT_INT32", "tensorShape": {"dim": [{"size": "4"}]}}}}}, {"name": "StatefulPartitionedCall/pwcdc_net/Slice_266/size/0", "op": "Const", "attr": {"dtype": {"type": "DT_INT32"}, "value": {"tensor": {"dtype": "DT_INT32", "tensorShape": {}}}}}, {"name": "StatefulPartitionedCall/pwcdc_net/Slice_266/size/3", "op": "Const", "attr": {"value": {"tensor": {"dtype": "DT_INT32", "tensorShape": {}}}, "dtype": {"type": "DT_INT32"}}}, {"name": "StatefulPartitionedCall/pwcdc_net/Mean_266/reduction_indices", "op": "Const", "attr": {"dtype": {"type": "DT_INT32"}, "value": {"tensor": {"dtype": "DT_INT32", "tensorShape": {}}}}}, {"name": "StatefulPartitionedCall/pwcdc_net/Slice_267/begin", "op": "Const", "attr": {"dtype": {"type": "DT_INT32"}, "value": {"tensor": {"dtype": "DT_INT32", "tensorShape": {"dim": [{"size": "4"}]}}}}}, {"name": "StatefulPartitionedCall/pwcdc_net/Slice_267/size/0", "op": "Const", "attr": {"dtype": {"type": "DT_INT32"}, "value": {"tensor": {"dtype": "DT_INT32", "tensorShape": {}}}}}, {"name": "StatefulPartitionedCall/pwcdc_net/Slice_267/size/3", "op": "Const", "attr": {"value": {"tensor": {"dtype": "DT_INT32", "tensorShape": {}}}, "dtype": {"type": "DT_INT32"}}}, {"name": "StatefulPartitionedCall/pwcdc_net/Mean_267/reduction_indices", "op": "Const", "attr": {"value": {"tensor": {"dtype": "DT_INT32", "tensorShape": {}}}, "dtype": {"type": "DT_INT32"}}}, {"name": "StatefulPartitionedCall/pwcdc_net/Slice_268/begin", "op": "Const", "attr": {"value": {"tensor": {"dtype": "DT_INT32", "tensorShape": {"dim": [{"size": "4"}]}}}, "dtype": {"type": "DT_INT32"}}}, {"name": "StatefulPartitionedCall/pwcdc_net/Slice_268/size/0", "op": "Const", "attr": {"value": {"tensor": {"dtype": "DT_INT32", "tensorShape": {}}}, "dtype": {"type": "DT_INT32"}}}, {"name": "StatefulPartitionedCall/pwcdc_net/Slice_268/size/3", "op": "Const", "attr": {"dtype": {"type": "DT_INT32"}, "value": {"tensor": {"dtype": "DT_INT32", "tensorShape": {}}}}}, {"name": "StatefulPartitionedCall/pwcdc_net/Mean_268/reduction_indices", "op": "Const", "attr": {"value": {"tensor": {"dtype": "DT_INT32", "tensorShape": {}}}, "dtype": {"type": "DT_INT32"}}}, {"name": "StatefulPartitionedCall/pwcdc_net/Slice_269/begin", "op": "Const", "attr": {"dtype": {"type": "DT_INT32"}, "value": {"tensor": {"dtype": "DT_INT32", "tensorShape": {"dim": [{"size": "4"}]}}}}}, {"name": "StatefulPartitionedCall/pwcdc_net/Slice_269/size/0", "op": "Const", "attr": {"dtype": {"type": "DT_INT32"}, "value": {"tensor": {"dtype": "DT_INT32", "tensorShape": {}}}}}, {"name": "StatefulPartitionedCall/pwcdc_net/Slice_269/size/3", "op": "Const", "attr": {"value": {"tensor": {"dtype": "DT_INT32", "tensorShape": {}}}, "dtype": {"type": "DT_INT32"}}}, {"name": "StatefulPartitionedCall/pwcdc_net/Mean_269/reduction_indices", "op": "Const", "attr": {"value": {"tensor": {"dtype": "DT_INT32", "tensorShape": {}}}, "dtype": {"type": "DT_INT32"}}}, {"name": "StatefulPartitionedCall/pwcdc_net/Slice_270/begin", "op": "Const", "attr": {"dtype": {"type": "DT_INT32"}, "value": {"tensor": {"dtype": "DT_INT32", "tensorShape": {"dim": [{"size": "4"}]}}}}}, {"name": "StatefulPartitionedCall/pwcdc_net/Slice_270/size/0", "op": "Const", "attr": {"dtype": {"type": "DT_INT32"}, "value": {"tensor": {"dtype": "DT_INT32", "tensorShape": {}}}}}, {"name": "StatefulPartitionedCall/pwcdc_net/Slice_270/size/3", "op": "Const", "attr": {"dtype": {"type": "DT_INT32"}, "value": {"tensor": {"dtype": "DT_INT32", "tensorShape": {}}}}}, {"name": "StatefulPartitionedCall/pwcdc_net/Mean_270/reduction_indices", "op": "Const", "attr": {"dtype": {"type": "DT_INT32"}, "value": {"tensor": {"dtype": "DT_INT32", "tensorShape": {}}}}}, {"name": "StatefulPartitionedCall/pwcdc_net/Slice_271/begin", "op": "Const", "attr": {"value": {"tensor": {"dtype": "DT_INT32", "tensorShape": {"dim": [{"size": "4"}]}}}, "dtype": {"type": "DT_INT32"}}}, {"name": "StatefulPartitionedCall/pwcdc_net/Slice_271/size/0", "op": "Const", "attr": {"dtype": {"type": "DT_INT32"}, "value": {"tensor": {"dtype": "DT_INT32", "tensorShape": {}}}}}, {"name": "StatefulPartitionedCall/pwcdc_net/Slice_271/size/3", "op": "Const", "attr": {"value": {"tensor": {"dtype": "DT_INT32", "tensorShape": {}}}, "dtype": {"type": "DT_INT32"}}}, {"name": "StatefulPartitionedCall/pwcdc_net/Mean_271/reduction_indices", "op": "Const", "attr": {"dtype": {"type": "DT_INT32"}, "value": {"tensor": {"dtype": "DT_INT32", "tensorShape": {}}}}}, {"name": "StatefulPartitionedCall/pwcdc_net/Slice_272/begin", "op": "Const", "attr": {"dtype": {"type": "DT_INT32"}, "value": {"tensor": {"dtype": "DT_INT32", "tensorShape": {"dim": [{"size": "4"}]}}}}}, {"name": "StatefulPartitionedCall/pwcdc_net/Slice_272/size/0", "op": "Const", "attr": {"value": {"tensor": {"dtype": "DT_INT32", "tensorShape": {}}}, "dtype": {"type": "DT_INT32"}}}, {"name": "StatefulPartitionedCall/pwcdc_net/Slice_272/size/3", "op": "Const", "attr": {"value": {"tensor": {"dtype": "DT_INT32", "tensorShape": {}}}, "dtype": {"type": "DT_INT32"}}}, {"name": "StatefulPartitionedCall/pwcdc_net/Mean_272/reduction_indices", "op": "Const", "attr": {"value": {"tensor": {"dtype": "DT_INT32", "tensorShape": {}}}, "dtype": {"type": "DT_INT32"}}}, {"name": "StatefulPartitionedCall/pwcdc_net/Slice_273/begin", "op": "Const", "attr": {"dtype": {"type": "DT_INT32"}, "value": {"tensor": {"dtype": "DT_INT32", "tensorShape": {"dim": [{"size": "4"}]}}}}}, {"name": "StatefulPartitionedCall/pwcdc_net/Slice_273/size/0", "op": "Const", "attr": {"dtype": {"type": "DT_INT32"}, "value": {"tensor": {"dtype": "DT_INT32", "tensorShape": {}}}}}, {"name": "StatefulPartitionedCall/pwcdc_net/Slice_273/size/3", "op": "Const", "attr": {"value": {"tensor": {"dtype": "DT_INT32", "tensorShape": {}}}, "dtype": {"type": "DT_INT32"}}}, {"name": "StatefulPartitionedCall/pwcdc_net/Mean_273/reduction_indices", "op": "Const", "attr": {"value": {"tensor": {"dtype": "DT_INT32", "tensorShape": {}}}, "dtype": {"type": "DT_INT32"}}}, {"name": "StatefulPartitionedCall/pwcdc_net/Slice_274/begin", "op": "Const", "attr": {"value": {"tensor": {"dtype": "DT_INT32", "tensorShape": {"dim": [{"size": "4"}]}}}, "dtype": {"type": "DT_INT32"}}}, {"name": "StatefulPartitionedCall/pwcdc_net/Slice_274/size/0", "op": "Const", "attr": {"value": {"tensor": {"dtype": "DT_INT32", "tensorShape": {}}}, "dtype": {"type": "DT_INT32"}}}, {"name": "StatefulPartitionedCall/pwcdc_net/Slice_274/size/3", "op": "Const", "attr": {"value": {"tensor": {"dtype": "DT_INT32", "tensorShape": {}}}, "dtype": {"type": "DT_INT32"}}}, {"name": "StatefulPartitionedCall/pwcdc_net/Mean_274/reduction_indices", "op": "Const", "attr": {"dtype": {"type": "DT_INT32"}, "value": {"tensor": {"dtype": "DT_INT32", "tensorShape": {}}}}}, {"name": "StatefulPartitionedCall/pwcdc_net/Slice_275/begin", "op": "Const", "attr": {"value": {"tensor": {"dtype": "DT_INT32", "tensorShape": {"dim": [{"size": "4"}]}}}, "dtype": {"type": "DT_INT32"}}}, {"name": "StatefulPartitionedCall/pwcdc_net/Slice_275/size/0", "op": "Const", "attr": {"dtype": {"type": "DT_INT32"}, "value": {"tensor": {"dtype": "DT_INT32", "tensorShape": {}}}}}, {"name": "StatefulPartitionedCall/pwcdc_net/Slice_275/size/3", "op": "Const", "attr": {"value": {"tensor": {"dtype": "DT_INT32", "tensorShape": {}}}, "dtype": {"type": "DT_INT32"}}}, {"name": "StatefulPartitionedCall/pwcdc_net/Mean_275/reduction_indices", "op": "Const", "attr": {"dtype": {"type": "DT_INT32"}, "value": {"tensor": {"dtype": "DT_INT32", "tensorShape": {}}}}}, {"name": "StatefulPartitionedCall/pwcdc_net/Slice_276/begin", "op": "Const", "attr": {"value": {"tensor": {"dtype": "DT_INT32", "tensorShape": {"dim": [{"size": "4"}]}}}, "dtype": {"type": "DT_INT32"}}}, {"name": "StatefulPartitionedCall/pwcdc_net/Slice_276/size/0", "op": "Const", "attr": {"dtype": {"type": "DT_INT32"}, "value": {"tensor": {"dtype": "DT_INT32", "tensorShape": {}}}}}, {"name": "StatefulPartitionedCall/pwcdc_net/Slice_276/size/3", "op": "Const", "attr": {"dtype": {"type": "DT_INT32"}, "value": {"tensor": {"dtype": "DT_INT32", "tensorShape": {}}}}}, {"name": "StatefulPartitionedCall/pwcdc_net/Mean_276/reduction_indices", "op": "Const", "attr": {"dtype": {"type": "DT_INT32"}, "value": {"tensor": {"dtype": "DT_INT32", "tensorShape": {}}}}}, {"name": "StatefulPartitionedCall/pwcdc_net/Slice_277/begin", "op": "Const", "attr": {"dtype": {"type": "DT_INT32"}, "value": {"tensor": {"dtype": "DT_INT32", "tensorShape": {"dim": [{"size": "4"}]}}}}}, {"name": "StatefulPartitionedCall/pwcdc_net/Slice_277/size/0", "op": "Const", "attr": {"value": {"tensor": {"dtype": "DT_INT32", "tensorShape": {}}}, "dtype": {"type": "DT_INT32"}}}, {"name": "StatefulPartitionedCall/pwcdc_net/Slice_277/size/3", "op": "Const", "attr": {"value": {"tensor": {"dtype": "DT_INT32", "tensorShape": {}}}, "dtype": {"type": "DT_INT32"}}}, {"name": "StatefulPartitionedCall/pwcdc_net/Mean_277/reduction_indices", "op": "Const", "attr": {"value": {"tensor": {"dtype": "DT_INT32", "tensorShape": {}}}, "dtype": {"type": "DT_INT32"}}}, {"name": "StatefulPartitionedCall/pwcdc_net/Slice_278/begin", "op": "Const", "attr": {"dtype": {"type": "DT_INT32"}, "value": {"tensor": {"dtype": "DT_INT32", "tensorShape": {"dim": [{"size": "4"}]}}}}}, {"name": "StatefulPartitionedCall/pwcdc_net/Slice_278/size/0", "op": "Const", "attr": {"dtype": {"type": "DT_INT32"}, "value": {"tensor": {"dtype": "DT_INT32", "tensorShape": {}}}}}, {"name": "StatefulPartitionedCall/pwcdc_net/Slice_278/size/3", "op": "Const", "attr": {"dtype": {"type": "DT_INT32"}, "value": {"tensor": {"dtype": "DT_INT32", "tensorShape": {}}}}}, {"name": "StatefulPartitionedCall/pwcdc_net/Mean_278/reduction_indices", "op": "Const", "attr": {"value": {"tensor": {"dtype": "DT_INT32", "tensorShape": {}}}, "dtype": {"type": "DT_INT32"}}}, {"name": "StatefulPartitionedCall/pwcdc_net/Slice_279/begin", "op": "Const", "attr": {"dtype": {"type": "DT_INT32"}, "value": {"tensor": {"dtype": "DT_INT32", "tensorShape": {"dim": [{"size": "4"}]}}}}}, {"name": "StatefulPartitionedCall/pwcdc_net/Slice_279/size/0", "op": "Const", "attr": {"value": {"tensor": {"dtype": "DT_INT32", "tensorShape": {}}}, "dtype": {"type": "DT_INT32"}}}, {"name": "StatefulPartitionedCall/pwcdc_net/Slice_279/size/3", "op": "Const", "attr": {"dtype": {"type": "DT_INT32"}, "value": {"tensor": {"dtype": "DT_INT32", "tensorShape": {}}}}}, {"name": "StatefulPartitionedCall/pwcdc_net/Mean_279/reduction_indices", "op": "Const", "attr": {"value": {"tensor": {"dtype": "DT_INT32", "tensorShape": {}}}, "dtype": {"type": "DT_INT32"}}}, {"name": "StatefulPartitionedCall/pwcdc_net/Slice_280/begin", "op": "Const", "attr": {"dtype": {"type": "DT_INT32"}, "value": {"tensor": {"dtype": "DT_INT32", "tensorShape": {"dim": [{"size": "4"}]}}}}}, {"name": "StatefulPartitionedCall/pwcdc_net/Slice_280/size/0", "op": "Const", "attr": {"value": {"tensor": {"dtype": "DT_INT32", "tensorShape": {}}}, "dtype": {"type": "DT_INT32"}}}, {"name": "StatefulPartitionedCall/pwcdc_net/Slice_280/size/3", "op": "Const", "attr": {"dtype": {"type": "DT_INT32"}, "value": {"tensor": {"dtype": "DT_INT32", "tensorShape": {}}}}}, {"name": "StatefulPartitionedCall/pwcdc_net/Mean_280/reduction_indices", "op": "Const", "attr": {"dtype": {"type": "DT_INT32"}, "value": {"tensor": {"dtype": "DT_INT32", "tensorShape": {}}}}}, {"name": "StatefulPartitionedCall/pwcdc_net/Slice_281/begin", "op": "Const", "attr": {"value": {"tensor": {"dtype": "DT_INT32", "tensorShape": {"dim": [{"size": "4"}]}}}, "dtype": {"type": "DT_INT32"}}}, {"name": "StatefulPartitionedCall/pwcdc_net/Slice_281/size/0", "op": "Const", "attr": {"value": {"tensor": {"dtype": "DT_INT32", "tensorShape": {}}}, "dtype": {"type": "DT_INT32"}}}, {"name": "StatefulPartitionedCall/pwcdc_net/Slice_281/size/3", "op": "Const", "attr": {"value": {"tensor": {"dtype": "DT_INT32", "tensorShape": {}}}, "dtype": {"type": "DT_INT32"}}}, {"name": "StatefulPartitionedCall/pwcdc_net/Mean_281/reduction_indices", "op": "Const", "attr": {"value": {"tensor": {"dtype": "DT_INT32", "tensorShape": {}}}, "dtype": {"type": "DT_INT32"}}}, {"name": "StatefulPartitionedCall/pwcdc_net/Slice_282/begin", "op": "Const", "attr": {"dtype": {"type": "DT_INT32"}, "value": {"tensor": {"dtype": "DT_INT32", "tensorShape": {"dim": [{"size": "4"}]}}}}}, {"name": "StatefulPartitionedCall/pwcdc_net/Slice_282/size/0", "op": "Const", "attr": {"value": {"tensor": {"dtype": "DT_INT32", "tensorShape": {}}}, "dtype": {"type": "DT_INT32"}}}, {"name": "StatefulPartitionedCall/pwcdc_net/Slice_282/size/3", "op": "Const", "attr": {"value": {"tensor": {"dtype": "DT_INT32", "tensorShape": {}}}, "dtype": {"type": "DT_INT32"}}}, {"name": "StatefulPartitionedCall/pwcdc_net/Mean_282/reduction_indices", "op": "Const", "attr": {"dtype": {"type": "DT_INT32"}, "value": {"tensor": {"dtype": "DT_INT32", "tensorShape": {}}}}}, {"name": "StatefulPartitionedCall/pwcdc_net/Slice_283/begin", "op": "Const", "attr": {"value": {"tensor": {"dtype": "DT_INT32", "tensorShape": {"dim": [{"size": "4"}]}}}, "dtype": {"type": "DT_INT32"}}}, {"name": "StatefulPartitionedCall/pwcdc_net/Slice_283/size/0", "op": "Const", "attr": {"value": {"tensor": {"dtype": "DT_INT32", "tensorShape": {}}}, "dtype": {"type": "DT_INT32"}}}, {"name": "StatefulPartitionedCall/pwcdc_net/Slice_283/size/3", "op": "Const", "attr": {"value": {"tensor": {"dtype": "DT_INT32", "tensorShape": {}}}, "dtype": {"type": "DT_INT32"}}}, {"name": "StatefulPartitionedCall/pwcdc_net/Mean_283/reduction_indices", "op": "Const", "attr": {"value": {"tensor": {"dtype": "DT_INT32", "tensorShape": {}}}, "dtype": {"type": "DT_INT32"}}}, {"name": "StatefulPartitionedCall/pwcdc_net/Slice_284/begin", "op": "Const", "attr": {"dtype": {"type": "DT_INT32"}, "value": {"tensor": {"dtype": "DT_INT32", "tensorShape": {"dim": [{"size": "4"}]}}}}}, {"name": "StatefulPartitionedCall/pwcdc_net/Slice_284/size/0", "op": "Const", "attr": {"dtype": {"type": "DT_INT32"}, "value": {"tensor": {"dtype": "DT_INT32", "tensorShape": {}}}}}, {"name": "StatefulPartitionedCall/pwcdc_net/Slice_284/size/3", "op": "Const", "attr": {"value": {"tensor": {"dtype": "DT_INT32", "tensorShape": {}}}, "dtype": {"type": "DT_INT32"}}}, {"name": "StatefulPartitionedCall/pwcdc_net/Mean_284/reduction_indices", "op": "Const", "attr": {"value": {"tensor": {"dtype": "DT_INT32", "tensorShape": {}}}, "dtype": {"type": "DT_INT32"}}}, {"name": "StatefulPartitionedCall/pwcdc_net/Slice_285/begin", "op": "Const", "attr": {"value": {"tensor": {"dtype": "DT_INT32", "tensorShape": {"dim": [{"size": "4"}]}}}, "dtype": {"type": "DT_INT32"}}}, {"name": "StatefulPartitionedCall/pwcdc_net/Slice_285/size/0", "op": "Const", "attr": {"dtype": {"type": "DT_INT32"}, "value": {"tensor": {"dtype": "DT_INT32", "tensorShape": {}}}}}, {"name": "StatefulPartitionedCall/pwcdc_net/Slice_285/size/3", "op": "Const", "attr": {"value": {"tensor": {"dtype": "DT_INT32", "tensorShape": {}}}, "dtype": {"type": "DT_INT32"}}}, {"name": "StatefulPartitionedCall/pwcdc_net/Mean_285/reduction_indices", "op": "Const", "attr": {"dtype": {"type": "DT_INT32"}, "value": {"tensor": {"dtype": "DT_INT32", "tensorShape": {}}}}}, {"name": "StatefulPartitionedCall/pwcdc_net/Slice_286/begin", "op": "Const", "attr": {"value": {"tensor": {"dtype": "DT_INT32", "tensorShape": {"dim": [{"size": "4"}]}}}, "dtype": {"type": "DT_INT32"}}}, {"name": "StatefulPartitionedCall/pwcdc_net/Slice_286/size/0", "op": "Const", "attr": {"dtype": {"type": "DT_INT32"}, "value": {"tensor": {"dtype": "DT_INT32", "tensorShape": {}}}}}, {"name": "StatefulPartitionedCall/pwcdc_net/Slice_286/size/3", "op": "Const", "attr": {"value": {"tensor": {"dtype": "DT_INT32", "tensorShape": {}}}, "dtype": {"type": "DT_INT32"}}}, {"name": "StatefulPartitionedCall/pwcdc_net/Mean_286/reduction_indices", "op": "Const", "attr": {"value": {"tensor": {"dtype": "DT_INT32", "tensorShape": {}}}, "dtype": {"type": "DT_INT32"}}}, {"name": "StatefulPartitionedCall/pwcdc_net/Slice_287/begin", "op": "Const", "attr": {"dtype": {"type": "DT_INT32"}, "value": {"tensor": {"dtype": "DT_INT32", "tensorShape": {"dim": [{"size": "4"}]}}}}}, {"name": "StatefulPartitionedCall/pwcdc_net/Slice_287/size/0", "op": "Const", "attr": {"dtype": {"type": "DT_INT32"}, "value": {"tensor": {"dtype": "DT_INT32", "tensorShape": {}}}}}, {"name": "StatefulPartitionedCall/pwcdc_net/Slice_287/size/3", "op": "Const", "attr": {"dtype": {"type": "DT_INT32"}, "value": {"tensor": {"dtype": "DT_INT32", "tensorShape": {}}}}}, {"name": "StatefulPartitionedCall/pwcdc_net/Mean_287/reduction_indices", "op": "Const", "attr": {"dtype": {"type": "DT_INT32"}, "value": {"tensor": {"dtype": "DT_INT32", "tensorShape": {}}}}}, {"name": "StatefulPartitionedCall/pwcdc_net/Slice_288/begin", "op": "Const", "attr": {"dtype": {"type": "DT_INT32"}, "value": {"tensor": {"dtype": "DT_INT32", "tensorShape": {"dim": [{"size": "4"}]}}}}}, {"name": "StatefulPartitionedCall/pwcdc_net/Slice_288/size/0", "op": "Const", "attr": {"dtype": {"type": "DT_INT32"}, "value": {"tensor": {"dtype": "DT_INT32", "tensorShape": {}}}}}, {"name": "StatefulPartitionedCall/pwcdc_net/Slice_288/size/3", "op": "Const", "attr": {"dtype": {"type": "DT_INT32"}, "value": {"tensor": {"dtype": "DT_INT32", "tensorShape": {}}}}}, {"name": "StatefulPartitionedCall/pwcdc_net/Mean_288/reduction_indices", "op": "Const", "attr": {"dtype": {"type": "DT_INT32"}, "value": {"tensor": {"dtype": "DT_INT32", "tensorShape": {}}}}}, {"name": "StatefulPartitionedCall/pwcdc_net/Slice_289/begin", "op": "Const", "attr": {"value": {"tensor": {"dtype": "DT_INT32", "tensorShape": {"dim": [{"size": "4"}]}}}, "dtype": {"type": "DT_INT32"}}}, {"name": "StatefulPartitionedCall/pwcdc_net/Slice_289/size/0", "op": "Const", "attr": {"dtype": {"type": "DT_INT32"}, "value": {"tensor": {"dtype": "DT_INT32", "tensorShape": {}}}}}, {"name": "StatefulPartitionedCall/pwcdc_net/Slice_289/size/3", "op": "Const", "attr": {"value": {"tensor": {"dtype": "DT_INT32", "tensorShape": {}}}, "dtype": {"type": "DT_INT32"}}}, {"name": "StatefulPartitionedCall/pwcdc_net/Mean_289/reduction_indices", "op": "Const", "attr": {"value": {"tensor": {"dtype": "DT_INT32", "tensorShape": {}}}, "dtype": {"type": "DT_INT32"}}}, {"name": "StatefulPartitionedCall/pwcdc_net/Slice_290/begin", "op": "Const", "attr": {"dtype": {"type": "DT_INT32"}, "value": {"tensor": {"dtype": "DT_INT32", "tensorShape": {"dim": [{"size": "4"}]}}}}}, {"name": "StatefulPartitionedCall/pwcdc_net/Slice_290/size/0", "op": "Const", "attr": {"value": {"tensor": {"dtype": "DT_INT32", "tensorShape": {}}}, "dtype": {"type": "DT_INT32"}}}, {"name": "StatefulPartitionedCall/pwcdc_net/Slice_290/size/3", "op": "Const", "attr": {"value": {"tensor": {"dtype": "DT_INT32", "tensorShape": {}}}, "dtype": {"type": "DT_INT32"}}}, {"name": "StatefulPartitionedCall/pwcdc_net/Mean_290/reduction_indices", "op": "Const", "attr": {"dtype": {"type": "DT_INT32"}, "value": {"tensor": {"dtype": "DT_INT32", "tensorShape": {}}}}}, {"name": "StatefulPartitionedCall/pwcdc_net/Slice_291/begin", "op": "Const", "attr": {"value": {"tensor": {"dtype": "DT_INT32", "tensorShape": {"dim": [{"size": "4"}]}}}, "dtype": {"type": "DT_INT32"}}}, {"name": "StatefulPartitionedCall/pwcdc_net/Slice_291/size/0", "op": "Const", "attr": {"dtype": {"type": "DT_INT32"}, "value": {"tensor": {"dtype": "DT_INT32", "tensorShape": {}}}}}, {"name": "StatefulPartitionedCall/pwcdc_net/Slice_291/size/3", "op": "Const", "attr": {"value": {"tensor": {"dtype": "DT_INT32", "tensorShape": {}}}, "dtype": {"type": "DT_INT32"}}}, {"name": "StatefulPartitionedCall/pwcdc_net/Mean_291/reduction_indices", "op": "Const", "attr": {"dtype": {"type": "DT_INT32"}, "value": {"tensor": {"dtype": "DT_INT32", "tensorShape": {}}}}}, {"name": "StatefulPartitionedCall/pwcdc_net/Slice_292/begin", "op": "Const", "attr": {"value": {"tensor": {"dtype": "DT_INT32", "tensorShape": {"dim": [{"size": "4"}]}}}, "dtype": {"type": "DT_INT32"}}}, {"name": "StatefulPartitionedCall/pwcdc_net/Slice_292/size/0", "op": "Const", "attr": {"value": {"tensor": {"dtype": "DT_INT32", "tensorShape": {}}}, "dtype": {"type": "DT_INT32"}}}, {"name": "StatefulPartitionedCall/pwcdc_net/Slice_292/size/3", "op": "Const", "attr": {"dtype": {"type": "DT_INT32"}, "value": {"tensor": {"dtype": "DT_INT32", "tensorShape": {}}}}}, {"name": "StatefulPartitionedCall/pwcdc_net/Mean_292/reduction_indices", "op": "Const", "attr": {"dtype": {"type": "DT_INT32"}, "value": {"tensor": {"dtype": "DT_INT32", "tensorShape": {}}}}}, {"name": "StatefulPartitionedCall/pwcdc_net/Slice_293/begin", "op": "Const", "attr": {"dtype": {"type": "DT_INT32"}, "value": {"tensor": {"dtype": "DT_INT32", "tensorShape": {"dim": [{"size": "4"}]}}}}}, {"name": "StatefulPartitionedCall/pwcdc_net/Slice_293/size/0", "op": "Const", "attr": {"dtype": {"type": "DT_INT32"}, "value": {"tensor": {"dtype": "DT_INT32", "tensorShape": {}}}}}, {"name": "StatefulPartitionedCall/pwcdc_net/Slice_293/size/3", "op": "Const", "attr": {"value": {"tensor": {"dtype": "DT_INT32", "tensorShape": {}}}, "dtype": {"type": "DT_INT32"}}}, {"name": "StatefulPartitionedCall/pwcdc_net/Mean_293/reduction_indices", "op": "Const", "attr": {"dtype": {"type": "DT_INT32"}, "value": {"tensor": {"dtype": "DT_INT32", "tensorShape": {}}}}}, {"name": "StatefulPartitionedCall/pwcdc_net/Slice_294/begin", "op": "Const", "attr": {"dtype": {"type": "DT_INT32"}, "value": {"tensor": {"dtype": "DT_INT32", "tensorShape": {"dim": [{"size": "4"}]}}}}}, {"name": "StatefulPartitionedCall/pwcdc_net/Slice_294/size/0", "op": "Const", "attr": {"dtype": {"type": "DT_INT32"}, "value": {"tensor": {"dtype": "DT_INT32", "tensorShape": {}}}}}, {"name": "StatefulPartitionedCall/pwcdc_net/Slice_294/size/3", "op": "Const", "attr": {"value": {"tensor": {"dtype": "DT_INT32", "tensorShape": {}}}, "dtype": {"type": "DT_INT32"}}}, {"name": "StatefulPartitionedCall/pwcdc_net/Mean_294/reduction_indices", "op": "Const", "attr": {"value": {"tensor": {"dtype": "DT_INT32", "tensorShape": {}}}, "dtype": {"type": "DT_INT32"}}}, {"name": "StatefulPartitionedCall/pwcdc_net/Slice_295/begin", "op": "Const", "attr": {"dtype": {"type": "DT_INT32"}, "value": {"tensor": {"dtype": "DT_INT32", "tensorShape": {"dim": [{"size": "4"}]}}}}}, {"name": "StatefulPartitionedCall/pwcdc_net/Slice_295/size/0", "op": "Const", "attr": {"value": {"tensor": {"dtype": "DT_INT32", "tensorShape": {}}}, "dtype": {"type": "DT_INT32"}}}, {"name": "StatefulPartitionedCall/pwcdc_net/Slice_295/size/3", "op": "Const", "attr": {"value": {"tensor": {"dtype": "DT_INT32", "tensorShape": {}}}, "dtype": {"type": "DT_INT32"}}}, {"name": "StatefulPartitionedCall/pwcdc_net/Mean_295/reduction_indices", "op": "Const", "attr": {"dtype": {"type": "DT_INT32"}, "value": {"tensor": {"dtype": "DT_INT32", "tensorShape": {}}}}}, {"name": "StatefulPartitionedCall/pwcdc_net/Slice_296/begin", "op": "Const", "attr": {"value": {"tensor": {"dtype": "DT_INT32", "tensorShape": {"dim": [{"size": "4"}]}}}, "dtype": {"type": "DT_INT32"}}}, {"name": "StatefulPartitionedCall/pwcdc_net/Slice_296/size/0", "op": "Const", "attr": {"value": {"tensor": {"dtype": "DT_INT32", "tensorShape": {}}}, "dtype": {"type": "DT_INT32"}}}, {"name": "StatefulPartitionedCall/pwcdc_net/Slice_296/size/3", "op": "Const", "attr": {"value": {"tensor": {"dtype": "DT_INT32", "tensorShape": {}}}, "dtype": {"type": "DT_INT32"}}}, {"name": "StatefulPartitionedCall/pwcdc_net/Mean_296/reduction_indices", "op": "Const", "attr": {"value": {"tensor": {"dtype": "DT_INT32", "tensorShape": {}}}, "dtype": {"type": "DT_INT32"}}}, {"name": "StatefulPartitionedCall/pwcdc_net/Slice_297/begin", "op": "Const", "attr": {"value": {"tensor": {"dtype": "DT_INT32", "tensorShape": {"dim": [{"size": "4"}]}}}, "dtype": {"type": "DT_INT32"}}}, {"name": "StatefulPartitionedCall/pwcdc_net/Slice_297/size/0", "op": "Const", "attr": {"dtype": {"type": "DT_INT32"}, "value": {"tensor": {"dtype": "DT_INT32", "tensorShape": {}}}}}, {"name": "StatefulPartitionedCall/pwcdc_net/Slice_297/size/3", "op": "Const", "attr": {"dtype": {"type": "DT_INT32"}, "value": {"tensor": {"dtype": "DT_INT32", "tensorShape": {}}}}}, {"name": "StatefulPartitionedCall/pwcdc_net/Mean_297/reduction_indices", "op": "Const", "attr": {"value": {"tensor": {"dtype": "DT_INT32", "tensorShape": {}}}, "dtype": {"type": "DT_INT32"}}}, {"name": "StatefulPartitionedCall/pwcdc_net/Slice_298/begin", "op": "Const", "attr": {"dtype": {"type": "DT_INT32"}, "value": {"tensor": {"dtype": "DT_INT32", "tensorShape": {"dim": [{"size": "4"}]}}}}}, {"name": "StatefulPartitionedCall/pwcdc_net/Slice_298/size/0", "op": "Const", "attr": {"dtype": {"type": "DT_INT32"}, "value": {"tensor": {"dtype": "DT_INT32", "tensorShape": {}}}}}, {"name": "StatefulPartitionedCall/pwcdc_net/Slice_298/size/3", "op": "Const", "attr": {"value": {"tensor": {"dtype": "DT_INT32", "tensorShape": {}}}, "dtype": {"type": "DT_INT32"}}}, {"name": "StatefulPartitionedCall/pwcdc_net/Mean_298/reduction_indices", "op": "Const", "attr": {"value": {"tensor": {"dtype": "DT_INT32", "tensorShape": {}}}, "dtype": {"type": "DT_INT32"}}}, {"name": "StatefulPartitionedCall/pwcdc_net/Slice_299/begin", "op": "Const", "attr": {"value": {"tensor": {"dtype": "DT_INT32", "tensorShape": {"dim": [{"size": "4"}]}}}, "dtype": {"type": "DT_INT32"}}}, {"name": "StatefulPartitionedCall/pwcdc_net/Slice_299/size/0", "op": "Const", "attr": {"dtype": {"type": "DT_INT32"}, "value": {"tensor": {"dtype": "DT_INT32", "tensorShape": {}}}}}, {"name": "StatefulPartitionedCall/pwcdc_net/Slice_299/size/3", "op": "Const", "attr": {"dtype": {"type": "DT_INT32"}, "value": {"tensor": {"dtype": "DT_INT32", "tensorShape": {}}}}}, {"name": "StatefulPartitionedCall/pwcdc_net/Mean_299/reduction_indices", "op": "Const", "attr": {"value": {"tensor": {"dtype": "DT_INT32", "tensorShape": {}}}, "dtype": {"type": "DT_INT32"}}}, {"name": "StatefulPartitionedCall/pwcdc_net/Slice_300/begin", "op": "Const", "attr": {"value": {"tensor": {"dtype": "DT_INT32", "tensorShape": {"dim": [{"size": "4"}]}}}, "dtype": {"type": "DT_INT32"}}}, {"name": "StatefulPartitionedCall/pwcdc_net/Slice_300/size/0", "op": "Const", "attr": {"value": {"tensor": {"dtype": "DT_INT32", "tensorShape": {}}}, "dtype": {"type": "DT_INT32"}}}, {"name": "StatefulPartitionedCall/pwcdc_net/Slice_300/size/3", "op": "Const", "attr": {"dtype": {"type": "DT_INT32"}, "value": {"tensor": {"dtype": "DT_INT32", "tensorShape": {}}}}}, {"name": "StatefulPartitionedCall/pwcdc_net/Mean_300/reduction_indices", "op": "Const", "attr": {"dtype": {"type": "DT_INT32"}, "value": {"tensor": {"dtype": "DT_INT32", "tensorShape": {}}}}}, {"name": "StatefulPartitionedCall/pwcdc_net/Slice_301/begin", "op": "Const", "attr": {"dtype": {"type": "DT_INT32"}, "value": {"tensor": {"dtype": "DT_INT32", "tensorShape": {"dim": [{"size": "4"}]}}}}}, {"name": "StatefulPartitionedCall/pwcdc_net/Slice_301/size/0", "op": "Const", "attr": {"dtype": {"type": "DT_INT32"}, "value": {"tensor": {"dtype": "DT_INT32", "tensorShape": {}}}}}, {"name": "StatefulPartitionedCall/pwcdc_net/Slice_301/size/3", "op": "Const", "attr": {"value": {"tensor": {"dtype": "DT_INT32", "tensorShape": {}}}, "dtype": {"type": "DT_INT32"}}}, {"name": "StatefulPartitionedCall/pwcdc_net/Mean_301/reduction_indices", "op": "Const", "attr": {"dtype": {"type": "DT_INT32"}, "value": {"tensor": {"dtype": "DT_INT32", "tensorShape": {}}}}}, {"name": "StatefulPartitionedCall/pwcdc_net/Slice_302/begin", "op": "Const", "attr": {"dtype": {"type": "DT_INT32"}, "value": {"tensor": {"dtype": "DT_INT32", "tensorShape": {"dim": [{"size": "4"}]}}}}}, {"name": "StatefulPartitionedCall/pwcdc_net/Slice_302/size/0", "op": "Const", "attr": {"value": {"tensor": {"dtype": "DT_INT32", "tensorShape": {}}}, "dtype": {"type": "DT_INT32"}}}, {"name": "StatefulPartitionedCall/pwcdc_net/Slice_302/size/3", "op": "Const", "attr": {"dtype": {"type": "DT_INT32"}, "value": {"tensor": {"dtype": "DT_INT32", "tensorShape": {}}}}}, {"name": "StatefulPartitionedCall/pwcdc_net/Mean_302/reduction_indices", "op": "Const", "attr": {"value": {"tensor": {"dtype": "DT_INT32", "tensorShape": {}}}, "dtype": {"type": "DT_INT32"}}}, {"name": "StatefulPartitionedCall/pwcdc_net/Slice_303/begin", "op": "Const", "attr": {"value": {"tensor": {"dtype": "DT_INT32", "tensorShape": {"dim": [{"size": "4"}]}}}, "dtype": {"type": "DT_INT32"}}}, {"name": "StatefulPartitionedCall/pwcdc_net/Slice_303/size/0", "op": "Const", "attr": {"dtype": {"type": "DT_INT32"}, "value": {"tensor": {"dtype": "DT_INT32", "tensorShape": {}}}}}, {"name": "StatefulPartitionedCall/pwcdc_net/Slice_303/size/3", "op": "Const", "attr": {"dtype": {"type": "DT_INT32"}, "value": {"tensor": {"dtype": "DT_INT32", "tensorShape": {}}}}}, {"name": "StatefulPartitionedCall/pwcdc_net/Mean_303/reduction_indices", "op": "Const", "attr": {"value": {"tensor": {"dtype": "DT_INT32", "tensorShape": {}}}, "dtype": {"type": "DT_INT32"}}}, {"name": "StatefulPartitionedCall/pwcdc_net/Slice_304/begin", "op": "Const", "attr": {"value": {"tensor": {"dtype": "DT_INT32", "tensorShape": {"dim": [{"size": "4"}]}}}, "dtype": {"type": "DT_INT32"}}}, {"name": "StatefulPartitionedCall/pwcdc_net/Slice_304/size/0", "op": "Const", "attr": {"dtype": {"type": "DT_INT32"}, "value": {"tensor": {"dtype": "DT_INT32", "tensorShape": {}}}}}, {"name": "StatefulPartitionedCall/pwcdc_net/Slice_304/size/3", "op": "Const", "attr": {"dtype": {"type": "DT_INT32"}, "value": {"tensor": {"dtype": "DT_INT32", "tensorShape": {}}}}}, {"name": "StatefulPartitionedCall/pwcdc_net/Mean_304/reduction_indices", "op": "Const", "attr": {"dtype": {"type": "DT_INT32"}, "value": {"tensor": {"dtype": "DT_INT32", "tensorShape": {}}}}}, {"name": "StatefulPartitionedCall/pwcdc_net/Slice_305/begin", "op": "Const", "attr": {"value": {"tensor": {"dtype": "DT_INT32", "tensorShape": {"dim": [{"size": "4"}]}}}, "dtype": {"type": "DT_INT32"}}}, {"name": "StatefulPartitionedCall/pwcdc_net/Slice_305/size/0", "op": "Const", "attr": {"dtype": {"type": "DT_INT32"}, "value": {"tensor": {"dtype": "DT_INT32", "tensorShape": {}}}}}, {"name": "StatefulPartitionedCall/pwcdc_net/Slice_305/size/3", "op": "Const", "attr": {"dtype": {"type": "DT_INT32"}, "value": {"tensor": {"dtype": "DT_INT32", "tensorShape": {}}}}}, {"name": "StatefulPartitionedCall/pwcdc_net/Mean_305/reduction_indices", "op": "Const", "attr": {"dtype": {"type": "DT_INT32"}, "value": {"tensor": {"dtype": "DT_INT32", "tensorShape": {}}}}}, {"name": "StatefulPartitionedCall/pwcdc_net/Slice_306/begin", "op": "Const", "attr": {"dtype": {"type": "DT_INT32"}, "value": {"tensor": {"dtype": "DT_INT32", "tensorShape": {"dim": [{"size": "4"}]}}}}}, {"name": "StatefulPartitionedCall/pwcdc_net/Slice_306/size/0", "op": "Const", "attr": {"dtype": {"type": "DT_INT32"}, "value": {"tensor": {"dtype": "DT_INT32", "tensorShape": {}}}}}, {"name": "StatefulPartitionedCall/pwcdc_net/Slice_306/size/3", "op": "Const", "attr": {"dtype": {"type": "DT_INT32"}, "value": {"tensor": {"dtype": "DT_INT32", "tensorShape": {}}}}}, {"name": "StatefulPartitionedCall/pwcdc_net/Mean_306/reduction_indices", "op": "Const", "attr": {"value": {"tensor": {"dtype": "DT_INT32", "tensorShape": {}}}, "dtype": {"type": "DT_INT32"}}}, {"name": "StatefulPartitionedCall/pwcdc_net/Slice_307/begin", "op": "Const", "attr": {"dtype": {"type": "DT_INT32"}, "value": {"tensor": {"dtype": "DT_INT32", "tensorShape": {"dim": [{"size": "4"}]}}}}}, {"name": "StatefulPartitionedCall/pwcdc_net/Slice_307/size/0", "op": "Const", "attr": {"value": {"tensor": {"dtype": "DT_INT32", "tensorShape": {}}}, "dtype": {"type": "DT_INT32"}}}, {"name": "StatefulPartitionedCall/pwcdc_net/Slice_307/size/3", "op": "Const", "attr": {"dtype": {"type": "DT_INT32"}, "value": {"tensor": {"dtype": "DT_INT32", "tensorShape": {}}}}}, {"name": "StatefulPartitionedCall/pwcdc_net/Mean_307/reduction_indices", "op": "Const", "attr": {"dtype": {"type": "DT_INT32"}, "value": {"tensor": {"dtype": "DT_INT32", "tensorShape": {}}}}}, {"name": "StatefulPartitionedCall/pwcdc_net/Slice_308/begin", "op": "Const", "attr": {"dtype": {"type": "DT_INT32"}, "value": {"tensor": {"dtype": "DT_INT32", "tensorShape": {"dim": [{"size": "4"}]}}}}}, {"name": "StatefulPartitionedCall/pwcdc_net/Sl…
"}, {"name": "StatefulPartitionedCall/pwcdc_net/Slice/size/3", "shape": [], "dtype": "int32"}, {"name": "StatefulPartitionedCall/pwcdc_net/Mean/reduction_indices", "shape": [], "dtype": "int32"}, {"name": "StatefulPartitionedCall/pwcdc_net/Slice_1/begin", "shape": [4], "dtype": "int32"}, {"name": "StatefulPartitionedCall/pwcdc_net/Slice_1/size/0", "shape": [], "dtype": "int32"}, {"name": "StatefulPartitionedCall/pwcdc_net/Slice_1/size/3", "shape": [], "dtype": "int32"}, {"name": "StatefulPartitionedCall/pwcdc_net/Mean_1/reduction_indices", "shape": [], "dtype": "int32"}, {"name": "StatefulPartitionedCall/pwcdc_net/Slice_2/begin", "shape": [4], "dtype": "int32"}, {"name": "StatefulPartitionedCall/pwcdc_net/Slice_2/size/0", "shape": [], "dtype": "int32"}, {"name": "StatefulPartitionedCall/pwcdc_net/Slice_2/size/3", "shape": [], "dtype": "int32"}, {"name": "StatefulPartitionedCall/pwcdc_net/Mean_2/reduction_indices", "shape": [], "dtype": "int32"}, {"name": "StatefulPartitionedCall/pwcdc_net/Slice_3/begin", "shape": [4], "dtype": "int32"}, {"name": "StatefulPartitionedCall/pwcdc_net/Slice_3/size/0", "shape": [], "dtype": "int32"}, {"name": "StatefulPartitionedCall/pwcdc_net/Slice_3/size/3", "shape": [], "dtype": "int32"}, {"name": "StatefulPartitionedCall/pwcdc_net/Mean_3/reduction_indices", "shape": [], "dtype": "int32"}, {"name": "StatefulPartitionedCall/pwcdc_net/Slice_4/begin", "shape": [4], "dtype": "int32"}, {"name": "StatefulPartitionedCall/pwcdc_net/Slice_4/size/0", "shape": [], "dtype": "int32"}, {"name": "StatefulPartitionedCall/pwcdc_net/Slice_4/size/3", "shape": [], "dtype": "int32"}, {"name": "StatefulPartitionedCall/pwcdc_net/Mean_4/reduction_indices", "shape": [], "dtype": "int32"}, {"name": "StatefulPartitionedCall/pwcdc_net/Slice_5/begin", "shape": [4], "dtype": "int32"}, {"name": "StatefulPartitionedCall/pwcdc_net/Slice_5/size/0", "shape": [], "dtype": "int32"}, {"name": "StatefulPartitionedCall/pwcdc_net/Slice_5/size/3", "shape": [], "dtype": "int32"}, {"name": "StatefulPartitionedCall/pwcdc_net/Mean_5/reduction_indices", "shape": [], "dtype": "int32"}, {"name": "StatefulPartitionedCall/pwcdc_net/Slice_6/begin", "shape": [4], "dtype": "int32"}, {"name": "StatefulPartitionedCall/pwcdc_net/Slice_6/size/0", "shape": [], "dtype": "int32"}, {"name": "StatefulPartitionedCall/pwcdc_net/Slice_6/size/3", "shape": [], "dtype": "int32"}, {"name": "StatefulPartitionedCall/pwcdc_net/Mean_6/reduction_indices", "shape": [], "dtype": "int32"}, {"name": "StatefulPartitionedCall/pwcdc_net/Slice_7/begin", "shape": [4], "dtype": "int32"}, {"name": "StatefulPartitionedCall/pwcdc_net/Slice_7/size/0", "shape": [], "dtype": "int32"}, {"name": "StatefulPartitionedCall/pwcdc_net/Slice_7/size/3", "shape": [], "dtype": "int32"}, {"name": "StatefulPartitionedCall/pwcdc_net/Mean_7/reduction_indices", "shape": [], "dtype": "int32"}, {"name": "StatefulPartitionedCall/pwcdc_net/Slice_8/begin", "shape": [4], "dtype": "int32"}, {"name": "StatefulPartitionedCall/pwcdc_net/Slice_8/size/0", "shape": [], "dtype": "int32"}, {"name": "StatefulPartitionedCall/pwcdc_net/Slice_8/size/3", "shape": [], "dtype": "int32"}, {"name": "StatefulPartitionedCall/pwcdc_net/Mean_8/reduction_indices", "shape": [], "dtype": "int32"}, {"name": "StatefulPartitionedCall/pwcdc_net/Slice_9/begin", "shape": [4], "dtype": "int32"}, {"name": "StatefulPartitionedCall/pwcdc_net/Slice_9/size/0", "shape": [], "dtype": "int32"}, {"name": "StatefulPartitionedCall/pwcdc_net/Slice_9/size/3", "shape": [], "dtype": "int32"}, {"name": "StatefulPartitionedCall/pwcdc_net/Mean_9/reduction_indices", "shape": [], "dtype": "int32"}, {"name": "StatefulPartitionedCall/pwcdc_net/Slice_10/begin", "shape": [4], "dtype": "int32"}, {"name": "StatefulPartitionedCall/pwcdc_net/Slice_10/size/0", "shape": [], "dtype": "int32"}, {"name": "StatefulPartitionedCall/pwcdc_net/Slice_10/size/3", "shape": [], "dtype": "int32"}, {"name": "StatefulPartitionedCall/pwcdc_net/Mean_10/reduction_indices", "shape": [], "dtype": "int32"}, {"name": "StatefulPartitionedCall/pwcdc_net/Slice_11/begin", "shape": [4], "dtype": "int32"}, {"name": "StatefulPartitionedCall/pwcdc_net/Slice_11/size/0", "shape": [], "dtype": "int32"}, {"name": "StatefulPartitionedCall/pwcdc_net/Slice_11/size/3", "shape": [], "dtype": "int32"}, {"name": "StatefulPartitionedCall/pwcdc_net/Mean_11/reduction_indices", "shape": [], "dtype": "int32"}, {"name": "StatefulPartitionedCall/pwcdc_net/Slice_12/begin", "shape": [4], "dtype": "int32"}, {"name": "StatefulPartitionedCall/pwcdc_net/Slice_12/size/0", "shape": [], "dtype": "int32"}, {"name": "StatefulPartitionedCall/pwcdc_net/Slice_12/size/3", "shape": [], "dtype": "int32"}, {"name": "StatefulPartitionedCall/pwcdc_net/Mean_12/reduction_indices", "shape": [], "dtype": "int32"}, {"name": "StatefulPartitionedCall/pwcdc_net/Slice_13/begin", "shape": [4], "dtype": "int32"}, {"name": "StatefulPartitionedCall/pwcdc_net/Slice_13/size/0", "shape": [], "dtype": "int32"}, {"name": "StatefulPartitionedCall/pwcdc_net/Slice_13/size/3", "shape": [], "dtype": "int32"}, {"name": "StatefulPartitionedCall/pwcdc_net/Mean_13/reduction_indices", "shape": [], "dtype": "int32"}, {"name": "StatefulPartitionedCall/pwcdc_net/Slice_14/begin", "shape": [4], "dtype": "int32"}, {"name": "StatefulPartitionedCall/pwcdc_net/Slice_14/size/0", "shape": [], "dtype": "int32"}, {"name": "StatefulPartitionedCall/pwcdc_net/Slice_14/size/3", "shape": [], "dtype": "int32"}, {"name": "StatefulPartitionedCall/pwcdc_net/Mean_14/reduction_indices", "shape": [], "dtype": "int32"}, {"name": "StatefulPartitionedCall/pwcdc_net/Slice_15/begin", "shape": [4], "dtype": "int32"}, {"name": "StatefulPartitionedCall/pwcdc_net/Slice_15/size/0", "shape": [], "dtype": "int32"}, {"name": "StatefulPartitionedCall/pwcdc_net/Slice_15/size/3", "shape": [], "dtype": "int32"}, {"name": "StatefulPartitionedCall/pwcdc_net/Mean_15/reduction_indices", "shape": [], "dtype": "int32"}, {"name": "StatefulPartitionedCall/pwcdc_net/Slice_16/begin", "shape": [4], "dtype": "int32"}, {"name": "StatefulPartitionedCall/pwcdc_net/Slice_16/size/0", "shape": [], "dtype": "int32"}, {"name": "StatefulPartitionedCall/pwcdc_net/Slice_16/size/3", "shape": [], "dtype": "int32"}, {"name": "StatefulPartitionedCall/pwcdc_net/Mean_16/reduction_indices", "shape": [], "dtype": "int32"}, {"name": "StatefulPartitionedCall/pwcdc_net/Slice_17/begin", "shape": [4], "dtype": "int32"}, {"name": "StatefulPartitionedCall/pwcdc_net/Slice_17/size/0", "shape": [], "dtype": "int32"}, {"name": "StatefulPartitionedCall/pwcdc_net/Slice_17/size/3", "shape": [], "dtype": "int32"}, {"name": "StatefulPartitionedCall/pwcdc_net/Mean_17/reduction_indices", "shape": [], "dtype": "int32"}, {"name": "StatefulPartitionedCall/pwcdc_net/Slice_18/begin", "shape": [4], "dtype": "int32"}, {"name": "StatefulPartitionedCall/pwcdc_net/Slice_18/size/0", "shape": [], "dtype": "int32"}, {"name": "StatefulPartitionedCall/pwcdc_net/Slice_18/size/3", "shape": [], "dtype": "int32"}, {"name": "StatefulPartitionedCall/pwcdc_net/Mean_18/reduction_indices", "shape": [], "dtype": "int32"}, {"name": "StatefulPartitionedCall/pwcdc_net/Slice_19/begin", "shape": [4], "dtype": "int32"}, {"name": "StatefulPartitionedCall/pwcdc_net/Slice_19/size/0", "shape": [], "dtype": "int32"}, {"name": "StatefulPartitionedCall/pwcdc_net/Slice_19/size/3", "shape": [], "dtype": "int32"}, {"name": "StatefulPartitionedCall/pwcdc_net/Mean_19/reduction_indices", "shape": [], "dtype": "int32"}, {"name": "StatefulPartitionedCall/pwcdc_net/Slice_20/begin", "shape": [4], "dtype": "int32"}, {"name": "StatefulPartitionedCall/pwcdc_net/Slice_20/size/0", "shape": [], "dtype": "int32"}, {"name": "StatefulPartitionedCall/pwcdc_net/Slice_20/size/3", "shape": [], "dtype": "int32"}, {"name": "StatefulPartitionedCall/pwcdc_net/Mean_20/reduction_indices", "shape": [], "dtype": "int32"}, {"name": "StatefulPartitionedCall/pwcdc_net/Slice_21/begin", "shape": [4], "dtype": "int32"}, {"name": "StatefulPartitionedCall/pwcdc_net/Slice_21/size/0", "shape": [], "dtype": "int32"}, {"name": "StatefulPartitionedCall/pwcdc_net/Slice_21/size/3", "shape": [], "dtype": "int32"}, {"name": "StatefulPartitionedCall/pwcdc_net/Mean_21/reduction_indices", "shape": [], "dtype": "int32"}, {"name": "StatefulPartitionedCall/pwcdc_net/Slice_22/begin", "shape": [4], "dtype": "int32"}, {"name": "StatefulPartitionedCall/pwcdc_net/Slice_22/size/0", "shape": [], "dtype": "int32"}, {"name": "StatefulPartitionedCall/pwcdc_net/Slice_22/size/3", "shape": [], "dtype": "int32"}, {"name": "StatefulPartitionedCall/pwcdc_net/Mean_22/reduction_indices", "shape": [], "dtype": "int32"}, {"name": "StatefulPartitionedCall/pwcdc_net/Slice_23/begin", "shape": [4], "dtype": "int32"}, {"name": "StatefulPartitionedCall/pwcdc_net/Slice_23/size/0", "shape": [], "dtype": "int32"}, {"name": "StatefulPartitionedCall/pwcdc_net/Slice_23/size/3", "shape": [], "dtype": "int32"}, {"name": "StatefulPartitionedCall/pwcdc_net/Mean_23/reduction_indices", "shape": [], "dtype": "int32"}, {"name": "StatefulPartitionedCall/pwcdc_net/Slice_24/begin", "shape": [4], "dtype": "int32"}, {"name": "StatefulPartitionedCall/pwcdc_net/Slice_24/size/0", "shape": [], "dtype": "int32"}, {"name": "StatefulPartitionedCall/pwcdc_net/Slice_24/size/3", "shape": [], "dtype": "int32"}, {"name": "StatefulPartitionedCall/pwcdc_net/Mean_24/reduction_indices", "shape": [], "dtype": "int32"}, {"name": "StatefulPartitionedCall/pwcdc_net/Slice_25/begin", "shape": [4], "dtype": "int32"}, {"name": "StatefulPartitionedCall/pwcdc_net/Slice_25/size/0", "shape": [], "dtype": "int32"}, {"name": "StatefulPartitionedCall/pwcdc_net/Slice_25/size/3", "shape": [], "dtype": "int32"}, {"name": "StatefulPartitionedCall/pwcdc_net/Mean_25/reduction_indices", "shape": [], "dtype": "int32"}, {"name": "StatefulPartitionedCall/pwcdc_net/Slice_26/begin", "shape": [4], "dtype": "int32"}, {"name": "StatefulPartitionedCall/pwcdc_net/Slice_26/size/0", "shape": [], "dtype": "int32"}, {"name": "StatefulPartitionedCall/pwcdc_net/Slice_26/size/3", "shape": [], "dtype": "int32"}, {"name": "StatefulPartitionedCall/pwcdc_net/Mean_26/reduction_indices", "shape": [], "dtype": "int32"}, {"name": "StatefulPartitionedCall/pwcdc_net/Slice_27/begin", "shape": [4], "dtype": "int32"}, {"name": "StatefulPartitionedCall/pwcdc_net/Slice_27/size/0", "shape": [], "dtype": "int32"}, {"name": "StatefulPartitionedCall/pwcdc_net/Slice_27/size/3", "shape": [], "dtype": "int32"}, {"name": "StatefulPartitionedCall/pwcdc_net/Mean_27/reduction_indices", "shape": [], "dtype": "int32"}, {"name": "StatefulPartitionedCall/pwcdc_net/Slice_28/begin", "shape": [4], "dtype": "int32"}, {"name": "StatefulPartitionedCall/pwcdc_net/Slice_28/size/0", "shape": [], "dtype": "int32"}, {"name": "StatefulPartitionedCall/pwcdc_net/Slice_28/size/3", "shape": [], "dtype": "int32"}, {"name": "StatefulPartitionedCall/pwcdc_net/Mean_28/reduction_indices", "shape": [], "dtype": "int32"}, {"name": "StatefulPartitionedCall/pwcdc_net/Slice_29/begin", "shape": [4], "dtype": "int32"}, {"name": "StatefulPartitionedCall/pwcdc_net/Slice_29/size/0", "shape": [], "dtype": "int32"}, {"name": "StatefulPartitionedCall/pwcdc_net/Slice_29/size/3", "shape": [], "dtype": "int32"}, {"name": "StatefulPartitionedCall/pwcdc_net/Mean_29/reduction_indices", "shape": [], "dtype": "int32"}, {"name": "StatefulPartitionedCall/pwcdc_net/Slice_30/begin", "shape": [4], "dtype": "int32"}, {"name": "StatefulPartitionedCall/pwcdc_net/Slice_30/size/0", "shape": [], "dtype": "int32"}, {"name": "StatefulPartitionedCall/pwcdc_net/Slice_30/size/3", "shape": [], "dtype": "int32"}, {"name": "StatefulPartitionedCall/pwcdc_net/Mean_30/reduction_indices", "shape": [], "dtype": "int32"}, {"name": "StatefulPartitionedCall/pwcdc_net/Slice_31/begin", "shape": [4], "dtype": "int32"}, {"name": "StatefulPartitionedCall/pwcdc_net/Slice_31/size/0", "shape": [], "dtype": "int32"}, {"name": "StatefulPartitionedCall/pwcdc_net/Slice_31/size/3", "shape": [], "dtype": "int32"}, {"name": "StatefulPartitionedCall/pwcdc_net/Mean_31/reduction_indices", "shape": [], "dtype": "int32"}, {"name": "StatefulPartitionedCall/pwcdc_net/Slice_32/begin", "shape": [4], "dtype": "int32"}, {"name": "StatefulPartitionedCall/pwcdc_net/Slice_32/size/0", "shape": [], "dtype": "int32"}, {"name": "StatefulPartitionedCall/pwcdc_net/Slice_32/size/3", "shape": [], "dtype": "int32"}, {"name": "StatefulPartitionedCall/pwcdc_net/Mean_32/reduction_indices", "shape": [], "dtype": "int32"}, {"name": "StatefulPartitionedCall/pwcdc_net/Slice_33/begin", "shape": [4], "dtype": "int32"}, {"name": "StatefulPartitionedCall/pwcdc_net/Slice_33/size/0", "shape": [], "dtype": "int32"}, {"name": "StatefulPartitionedCall/pwcdc_net/Slice_33/size/3", "shape": [], "dtype": "int32"}, {"name": "StatefulPartitionedCall/pwcdc_net/Mean_33/reduction_indices", "shape": [], "dtype": "int32"}, {"name": "StatefulPartitionedCall/pwcdc_net/Slice_34/begin", "shape": [4], "dtype": "int32"}, {"name": "StatefulPartitionedCall/pwcdc_net/Slice_34/size/0", "shape": [], "dtype": "int32"}, {"name": "StatefulPartitionedCall/pwcdc_net/Slice_34/size/3", "shape": [], "dtype": "int32"}, {"name": "StatefulPartitionedCall/pwcdc_net/Mean_34/reduction_indices", "shape": [], "dtype": "int32"}, {"name": "StatefulPartitionedCall/pwcdc_net/Slice_35/begin", "shape": [4], "dtype": "int32"}, {"name": "StatefulPartitionedCall/pwcdc_net/Slice_35/size/0", "shape": [], "dtype": "int32"}, {"name": "StatefulPartitionedCall/pwcdc_net/Slice_35/size/3", "shape": [], "dtype": "int32"}, {"name": "StatefulPartitionedCall/pwcdc_net/Mean_35/reduction_indices", "shape": [], "dtype": "int32"}, {"name": "StatefulPartitionedCall/pwcdc_net/Slice_36/begin", "shape": [4], "dtype": "int32"}, {"name": "StatefulPartitionedCall/pwcdc_net/Slice_36/size/0", "shape": [], "dtype": "int32"}, {"name": "StatefulPartitionedCall/pwcdc_net/Slice_36/size/3", "shape": [], "dtype": "int32"}, {"name": "StatefulPartitionedCall/pwcdc_net/Mean_36/reduction_indices", "shape": [], "dtype": "int32"}, {"name": "StatefulPartitionedCall/pwcdc_net/Slice_37/begin", "shape": [4], "dtype": "int32"}, {"name": "StatefulPartitionedCall/pwcdc_net/Slice_37/size/0", "shape": [], "dtype": "int32"}, {"name": "StatefulPartitionedCall/pwcdc_net/Slice_37/size/3", "shape": [], "dtype": "int32"}, {"name": "StatefulPartitionedCall/pwcdc_net/Mean_37/reduction_indices", "shape": [], "dtype": "int32"}, {"name": "StatefulPartitionedCall/pwcdc_net/Slice_38/begin", "shape": [4], "dtype": "int32"}, {"name": "StatefulPartitionedCall/pwcdc_net/Slice_38/size/0", "shape": [], "dtype": "int32"}, {"name": "StatefulPartitionedCall/pwcdc_net/Slice_38/size/3", "shape": [], "dtype": "int32"}, {"name": "StatefulPartitionedCall/pwcdc_net/Mean_38/reduction_indices", "shape": [], "dtype": "int32"}, {"name": "StatefulPartitionedCall/pwcdc_net/Slice_39/begin", "shape": [4], "dtype": "int32"}, {"name": "StatefulPartitionedCall/pwcdc_net/Slice_39/size/0", "shape": [], "dtype": "int32"}, {"name": "StatefulPartitionedCall/pwcdc_net/Slice_39/size/3", "shape": [], "dtype": "int32"}, {"name": "StatefulPartitionedCall/pwcdc_net/Mean_39/reduction_indices", "shape": [], "dtype": "int32"}, {"name": "StatefulPartitionedCall/pwcdc_net/Slice_40/begin", "shape": [4], "dtype": "int32"}, {"name": "StatefulPartitionedCall/pwcdc_net/Slice_40/size/0", "shape": [], "dtype": "int32"}, {"name": "StatefulPartitionedCall/pwcdc_net/Slice_40/size/3", "shape": [], "dtype": "int32"}, {"name": "StatefulPartitionedCall/pwcdc_net/Mean_40/reduction_indices", "shape": [], "dtype": "int32"}, {"name": "StatefulPartitionedCall/pwcdc_net/Slice_41/begin", "shape": [4], "dtype": "int32"}, {"name": "StatefulPartitionedCall/pwcdc_net/Slice_41/size/0", "shape": [], "dtype": "int32"}, {"name": "StatefulPartitionedCall/pwcdc_net/Slice_41/size/3", "shape": [], "dtype": "int32"}, {"name": "StatefulPartitionedCall/pwcdc_net/Mean_41/reduction_indices", "shape": [], "dtype": "int32"}, {"name": "StatefulPartitionedCall/pwcdc_net/Slice_42/begin", "shape": [4], "dtype": "int32"}, {"name": "StatefulPartitionedCall/pwcdc_net/Slice_42/size/0", "shape": [], "dtype": "int32"}, {"name": "StatefulPartitionedCall/pwcdc_net/Slice_42/size/3", "shape": [], "dtype": "int32"}, {"name": "StatefulPartitionedCall/pwcdc_net/Mean_42/reduction_indices", "shape": [], "dtype": "int32"}, {"name": "StatefulPartitionedCall/pwcdc_net/Slice_43/begin", "shape": [4], "dtype": "int32"}, {"name": "StatefulPartitionedCall/pwcdc_net/Slice_43/size/0", "shape": [], "dtype": "int32"}, {"name": "StatefulPartitionedCall/pwcdc_net/Slice_43/size/3", "shape": [], "dtype": "int32"}, {"name": "StatefulPartitionedCall/pwcdc_net/Mean_43/reduction_indices", "shape": [], "dtype": "int32"}, {"name": "StatefulPartitionedCall/pwcdc_net/Slice_44/begin", "shape": [4], "dtype": "int32"}, {"name": "StatefulPartitionedCall/pwcdc_net/Slice_44/size/0", "shape": [], "dtype": "int32"}, {"name": "StatefulPartitionedCall/pwcdc_net/Slice_44/size/3", "shape": [], "dtype": "int32"}, {"name": "StatefulPartitionedCall/pwcdc_net/Mean_44/reduction_indices", "shape": [], "dtype": "int32"}, {"name": "StatefulPartitionedCall/pwcdc_net/Slice_45/begin", "shape": [4], "dtype": "int32"}, {"name": "StatefulPartitionedCall/pwcdc_net/Slice_45/size/0", "shape": [], "dtype": "int32"}, {"name": "StatefulPartitionedCall/pwcdc_net/Slice_45/size/3", "shape": [], "dtype": "int32"}, {"name": "StatefulPartitionedCall/pwcdc_net/Mean_45/reduction_indices", "shape": [], "dtype": "int32"}, {"name": "StatefulPartitionedCall/pwcdc_net/Slice_46/begin", "shape": [4], "dtype": "int32"}, {"name": "StatefulPartitionedCall/pwcdc_net/Slice_46/size/0", "shape": [], "dtype": "int32"}, {"name": "StatefulPartitionedCall/pwcdc_net/Slice_46/size/3", "shape": [], "dtype": "int32"}, {"name": "StatefulPartitionedCall/pwcdc_net/Mean_46/reduction_indices", "shape": [], "dtype": "int32"}, {"name": "StatefulPartitionedCall/pwcdc_net/Slice_47/begin", "shape": [4], "dtype": "int32"}, {"name": "StatefulPartitionedCall/pwcdc_net/Slice_47/size/0", "shape": [], "dtype": "int32"}, {"name": "StatefulPartitionedCall/pwcdc_net/Slice_47/size/3", "shape": [], "dtype": "int32"}, {"name": "StatefulPartitionedCall/pwcdc_net/Mean_47/reduction_indices", "shape": [], "dtype": "int32"}, {"name": "StatefulPartitionedCall/pwcdc_net/Slice_48/begin", "shape": [4], "dtype": "int32"}, {"name": "StatefulPartitionedCall/pwcdc_net/Slice_48/size/0", "shape": [], "dtype": "int32"}, {"name": "StatefulPartitionedCall/pwcdc_net/Slice_48/size/3", "shape": [], "dtype": "int32"}, {"name": "StatefulPartitionedCall/pwcdc_net/Mean_48/reduction_indices", "shape": [], "dtype": "int32"}, {"name": "StatefulPartitionedCall/pwcdc_net/Slice_49/begin", "shape": [4], "dtype": "int32"}, {"name": "StatefulPartitionedCall/pwcdc_net/Slice_49/size/0", "shape": [], "dtype": "int32"}, {"name": "StatefulPartitionedCall/pwcdc_net/Slice_49/size/3", "shape": [], "dtype": "int32"}, {"name": "StatefulPartitionedCall/pwcdc_net/Mean_49/reduction_indices", "shape": [], "dtype": "int32"}, {"name": "StatefulPartitionedCall/pwcdc_net/Slice_50/begin", "shape": [4], "dtype": "int32"}, {"name": "StatefulPartitionedCall/pwcdc_net/Slice_50/size/0", "shape": [], "dtype": "int32"}, {"name": "StatefulPartitionedCall/pwcdc_net/Slice_50/size/3", "shape": [], "dtype": "int32"}, {"name": "StatefulPartitionedCall/pwcdc_net/Mean_50/reduction_indices", "shape": [], "dtype": "int32"}, {"name": "StatefulPartitionedCall/pwcdc_net/Slice_51/begin", "shape": [4], "dtype": "int32"}, {"name": "StatefulPartitionedCall/pwcdc_net/Slice_51/size/0", "shape": [], "dtype": "int32"}, {"name": "StatefulPartitionedCall/pwcdc_net/Slice_51/size/3", "shape": [], "dtype": "int32"}, {"name": "StatefulPartitionedCall/pwcdc_net/Mean_51/reduction_indices", "shape": [], "dtype": "int32"}, {"name": "StatefulPartitionedCall/pwcdc_net/Slice_52/begin", "shape": [4], "dtype": "int32"}, {"name": "StatefulPartitionedCall/pwcdc_net/Slice_52/size/0", "shape": [], "dtype": "int32"}, {"name": "StatefulPartitionedCall/pwcdc_net/Slice_52/size/3", "shape": [], "dtype": "int32"}, {"name": "StatefulPartitionedCall/pwcdc_net/Mean_52/reduction_indices", "shape": [], "dtype": "int32"}, {"name": "StatefulPartitionedCall/pwcdc_net/Slice_53/begin", "shape": [4], "dtype": "int32"}, {"name": "StatefulPartitionedCall/pwcdc_net/Slice_53/size/0", "shape": [], "dtype": "int32"}, {"name": "StatefulPartitionedCall/pwcdc_net/Slice_53/size/3", "shape": [], "dtype": "int32"}, {"name": "StatefulPartitionedCall/pwcdc_net/Mean_53/reduction_indices", "shape": [], "dtype": "int32"}, {"name": "StatefulPartitionedCall/pwcdc_net/Slice_54/begin", "shape": [4], "dtype": "int32"}, {"name": "StatefulPartitionedCall/pwcdc_net/Slice_54/size/0", "shape": [], "dtype": "int32"}, {"name": "StatefulPartitionedCall/pwcdc_net/Slice_54/size/3", "shape": [], "dtype": "int32"}, {"name": "StatefulPartitionedCall/pwcdc_net/Mean_54/reduction_indices", "shape": [], "dtype": "int32"}, {"name": "StatefulPartitionedCall/pwcdc_net/Slice_55/begin", "shape": [4], "dtype": "int32"}, {"name": "StatefulPartitionedCall/pwcdc_net/Slice_55/size/0", "shape": [], "dtype": "int32"}, {"name": "StatefulPartitionedCall/pwcdc_net/Slice_55/size/3", "shape": [], "dtype": "int32"}, {"name": "StatefulPartitionedCall/pwcdc_net/Mean_55/reduction_indices", "shape": [], "dtype": "int32"}, {"name": "StatefulPartitionedCall/pwcdc_net/Slice_56/begin", "shape": [4], "dtype": "int32"}, {"name": "StatefulPartitionedCall/pwcdc_net/Slice_56/size/0", "shape": [], "dtype": "int32"}, {"name": "StatefulPartitionedCall/pwcdc_net/Slice_56/size/3", "shape": [], "dtype": "int32"}, {"name": "StatefulPartitionedCall/pwcdc_net/Mean_56/reduction_indices", "shape": [], "dtype": "int32"}, {"name": "StatefulPartitionedCall/pwcdc_net/Slice_57/begin", "shape": [4], "dtype": "int32"}, {"name": "StatefulPartitionedCall/pwcdc_net/Slice_57/size/0", "shape": [], "dtype": "int32"}, {"name": "StatefulPartitionedCall/pwcdc_net/Slice_57/size/3", "shape": [], "dtype": "int32"}, {"name": "StatefulPartitionedCall/pwcdc_net/Mean_57/reduction_indices", "shape": [], "dtype": "int32"}, {"name": "StatefulPartitionedCall/pwcdc_net/Slice_58/begin", "shape": [4], "dtype": "int32"}, {"name": "StatefulPartitionedCall/pwcdc_net/Slice_58/size/0", "shape": [], "dtype": "int32"}, {"name": "StatefulPartitionedCall/pwcdc_net/Slice_58/size/3", "shape": [], "dtype": "int32"}, {"name": "StatefulPartitionedCall/pwcdc_net/Mean_58/reduction_indices", "shape": [], "dtype": "int32"}, {"name": "StatefulPartitionedCall/pwcdc_net/Slice_59/begin", "shape": [4], "dtype": "int32"}, {"name": "StatefulPartitionedCall/pwcdc_net/Slice_59/size/0", "shape": [], "dtype": "int32"}, {"name": "StatefulPartitionedCall/pwcdc_net/Slice_59/size/3", "shape": [], "dtype": "int32"}, {"name": "StatefulPartitionedCall/pwcdc_net/Mean_59/reduction_indices", "shape": [], "dtype": "int32"}, {"name": "StatefulPartitionedCall/pwcdc_net/Slice_60/begin", "shape": [4], "dtype": "int32"}, {"name": "StatefulPartitionedCall/pwcdc_net/Slice_60/size/0", "shape": [], "dtype": "int32"}, {"name": "StatefulPartitionedCall/pwcdc_net/Slice_60/size/3", "shape": [], "dtype": "int32"}, {"name": "StatefulPartitionedCall/pwcdc_net/Mean_60/reduction_indices", "shape": [], "dtype": "int32"}, {"name": "StatefulPartitionedCall/pwcdc_net/Slice_61/begin", "shape": [4], "dtype": "int32"}, {"name": "StatefulPartitionedCall/pwcdc_net/Slice_61/size/0", "shape": [], "dtype": "int32"}, {"name": "StatefulPartitionedCall/pwcdc_net/Slice_61/size/3", "shape": [], "dtype": "int32"}, {"name": "StatefulPartitionedCall/pwcdc_net/Mean_61/reduction_indices", "shape": [], "dtype": "int32"}, {"name": "StatefulPartitionedCall/pwcdc_net/Slice_62/begin", "shape": [4], "dtype": "int32"}, {"name": "StatefulPartitionedCall/pwcdc_net/Slice_62/size/0", "shape": [], "dtype": "int32"}, {"name": "StatefulPartitionedCall/pwcdc_net/Slice_62/size/3", "shape": [], "dtype": "int32"}, {"name": "StatefulPartitionedCall/pwcdc_net/Mean_62/reduction_indices", "shape": [], "dtype": "int32"}, {"name": "StatefulPartitionedCall/pwcdc_net/Slice_63/begin", "shape": [4], "dtype": "int32"}, {"name": "StatefulPartitionedCall/pwcdc_net/Slice_63/size/0", "shape": [], "dtype": "int32"}, {"name": "StatefulPartitionedCall/pwcdc_net/Slice_63/size/3", "shape": [], "dtype": "int32"}, {"name": "StatefulPartitionedCall/pwcdc_net/Mean_63/reduction_indices", "shape": [], "dtype": "int32"}, {"name": "StatefulPartitionedCall/pwcdc_net/Slice_64/begin", "shape": [4], "dtype": "int32"}, {"name": "StatefulPartitionedCall/pwcdc_net/Slice_64/size/0", "shape": [], "dtype": "int32"}, {"name": "StatefulPartitionedCall/pwcdc_net/Slice_64/size/3", "shape": [], "dtype": "int32"}, {"name": "StatefulPartitionedCall/pwcdc_net/Mean_64/reduction_indices", "shape": [], "dtype": "int32"}, {"name": "StatefulPartitionedCall/pwcdc_net/Slice_65/begin", "shape": [4], "dtype": "int32"}, {"name": "StatefulPartitionedCall/pwcdc_net/Slice_65/size/0", "shape": [], "dtype": "int32"}, {"name": "StatefulPartitionedCall/pwcdc_net/Slice_65/size/3", "shape": [], "dtype": "int32"}, {"name": "StatefulPartitionedCall/pwcdc_net/Mean_65/reduction_indices", "shape": [], "dtype": "int32"}, {"name": "StatefulPartitionedCall/pwcdc_net/Slice_66/begin", "shape": [4], "dtype": "int32"}, {"name": "StatefulPartitionedCall/pwcdc_net/Slice_66/size/0", "shape": [], "dtype": "int32"}, {"name": "StatefulPartitionedCall/pwcdc_net/Slice_66/size/3", "shape": [], "dtype": "int32"}, {"name": "StatefulPartitionedCall/pwcdc_net/Mean_66/reduction_indices", "shape": [], "dtype": "int32"}, {"name": "StatefulPartitionedCall/pwcdc_net/Slice_67/begin", "shape": [4], "dtype": "int32"}, {"name": "StatefulPartitionedCall/pwcdc_net/Slice_67/size/0", "shape": [], "dtype": "int32"}, {"name": "StatefulPartitionedCall/pwcdc_net/Slice_67/size/3", "shape": [], "dtype": "int32"}, {"name": "StatefulPartitionedCall/pwcdc_net/Mean_67/reduction_indices", "shape": [], "dtype": "int32"}, {"name": "StatefulPartitionedCall/pwcdc_net/Slice_68/begin", "shape": [4], "dtype": "int32"}, {"name": "StatefulPartitionedCall/pwcdc_net/Slice_68/size/0", "shape": [], "dtype": "int32"}, {"name": "StatefulPartitionedCall/pwcdc_net/Slice_68/size/3", "shape": [], "dtype": "int32"}, {"name": "StatefulPartitionedCall/pwcdc_net/Mean_68/reduction_indices", "shape": [], "dtype": "int32"}, {"name": "StatefulPartitionedCall/pwcdc_net/Slice_69/begin", "shape": [4], "dtype": "int32"}, {"name": "StatefulPartitionedCall/pwcdc_net/Slice_69/size/0", "shape": [], "dtype": "int32"}, {"name": "StatefulPartitionedCall/pwcdc_net/Slice_69/size/3", "shape": [], "dtype": "int32"}, {"name": "StatefulPartitionedCall/pwcdc_net/Mean_69/reduction_indices", "shape": [], "dtype": "int32"}, {"name": "StatefulPartitionedCall/pwcdc_net/Slice_70/begin", "shape": [4], "dtype": "int32"}, {"name": "StatefulPartitionedCall/pwcdc_net/Slice_70/size/0", "shape": [], "dtype": "int32"}, {"name": "StatefulPartitionedCall/pwcdc_net/Slice_70/size/3", "shape": [], "dtype": "int32"}, {"name": "StatefulPartitionedCall/pwcdc_net/Mean_70/reduction_indices", "shape": [], "dtype": "int32"}, {"name": "StatefulPartitionedCall/pwcdc_net/Slice_71/begin", "shape": [4], "dtype": "int32"}, {"name": "StatefulPartitionedCall/pwcdc_net/Slice_71/size/0", "shape": [], "dtype": "int32"}, {"name": "StatefulPartitionedCall/pwcdc_net/Slice_71/size/3", "shape": [], "dtype": "int32"}, {"name": "StatefulPartitionedCall/pwcdc_net/Mean_71/reduction_indices", "shape": [], "dtype": "int32"}, {"name": "StatefulPartitionedCall/pwcdc_net/Slice_72/begin", "shape": [4], "dtype": "int32"}, {"name": "StatefulPartitionedCall/pwcdc_net/Slice_72/size/0", "shape": [], "dtype": "int32"}, {"name": "StatefulPartitionedCall/pwcdc_net/Slice_72/size/3", "shape": [], "dtype": "int32"}, {"name": "StatefulPartitionedCall/pwcdc_net/Mean_72/reduction_indices", "shape": [], "dtype": "int32"}, {"name": "StatefulPartitionedCall/pwcdc_net/Slice_73/begin", "shape": [4], "dtype": "int32"}, {"name": "StatefulPartitionedCall/pwcdc_net/Slice_73/size/0", "shape": [], "dtype": "int32"}, {"name": "StatefulPartitionedCall/pwcdc_net/Slice_73/size/3", "shape": [], "dtype": "int32"}, {"name": "StatefulPartitionedCall/pwcdc_net/Mean_73/reduction_indices", "shape": [], "dtype": "int32"}, {"name": "StatefulPartitionedCall/pwcdc_net/Slice_74/begin", "shape": [4], "dtype": "int32"}, {"name": "StatefulPartitionedCall/pwcdc_net/Slice_74/size/0", "shape": [], "dtype": "int32"}, {"name": "StatefulPartitionedCall/pwcdc_net/Slice_74/size/3", "shape": [], "dtype": "int32"}, {"name": "StatefulPartitionedCall/pwcdc_net/Mean_74/reduction_indices", "shape": [], "dtype": "int32"}, {"name": "StatefulPartitionedCall/pwcdc_net/Slice_75/begin", "shape": [4], "dtype": "int32"}, {"name": "StatefulPartitionedCall/pwcdc_net/Slice_75/size/0", "shape": [], "dtype": "int32"}, {"name": "StatefulPartitionedCall/pwcdc_net/Slice_75/size/3", "shape": [], "dtype": "int32"}, {"name": "StatefulPartitionedCall/pwcdc_net/Mean_75/reduction_indices", "shape": [], "dtype": "int32"}, {"name": "StatefulPartitionedCall/pwcdc_net/Slice_76/begin", "shape": [4], "dtype": "int32"}, {"name": "StatefulPartitionedCall/pwcdc_net/Slice_76/size/0", "shape": [], "dtype": "int32"}, {"name": "StatefulPartitionedCall/pwcdc_net/Slice_76/size/3", "shape": [], "dtype": "int32"}, {"name": "StatefulPartitionedCall/pwcdc_net/Mean_76/reduction_indices", "shape": [], "dtype": "int32"}, {"name": "StatefulPartitionedCall/pwcdc_net/Slice_77/begin", "shape": [4], "dtype": "int32"}, {"name": "StatefulPartitionedCall/pwcdc_net/Slice_77/size/0", "shape": [], "dtype": "int32"}, {"name": "StatefulPartitionedCall/pwcdc_net/Slice_77/size/3", "shape": [], "dtype": "int32"}, {"name": "StatefulPartitionedCall/pwcdc_net/Mean_77/reduction_indices", "shape": [], "dtype": "int32"}, {"name": "StatefulPartitionedCall/pwcdc_net/Slice_78/begin", "shape": [4], "dtype": "int32"}, {"name": "StatefulPartitionedCall/pwcdc_net/Slice_78/size/0", "shape": [], "dtype": "int32"}, {"name": "StatefulPartitionedCall/pwcdc_net/Slice_78/size/3", "shape": [], "dtype": "int32"}, {"name": "StatefulPartitionedCall/pwcdc_net/Mean_78/reduction_indices", "shape": [], "dtype": "int32"}, {"name": "StatefulPartitionedCall/pwcdc_net/Slice_79/begin", "shape": [4], "dtype": "int32"}, {"name": "StatefulPartitionedCall/pwcdc_net/Slice_79/size/0", "shape": [], "dtype": "int32"}, {"name": "StatefulPartitionedCall/pwcdc_net/Slice_79/size/3", "shape": [], "dtype": "int32"}, {"name": "StatefulPartitionedCall/pwcdc_net/Mean_79/reduction_indices", "shape": [], "dtype": "int32"}, {"name": "StatefulPartitionedCall/pwcdc_net/strided_slice_1/stack", "shape": [4], "dtype": "int32"}, {"name": "StatefulPartitionedCall/pwcdc_net/strided_slice_1/stack_1", "shape": [4], "dtype": "int32"}, {"name": "StatefulPartitionedCall/pwcdc_net/strided_slice_1/stack_2", "shape": [4], "dtype": "int32"}, {"name": "StatefulPartitionedCall/pwcdc_net/conv1a/conv2d/Conv2D_1/ReadVariableOp", "shape": [3, 3, 3, 16], "dtype": "float32"}, {"name": "StatefulPartitionedCall/pwcdc_net/conv1a/conv2d/BiasAdd_1/ReadVariableOp", "shape": [16], "dtype": "float32"}, {"name": "StatefulPartitionedCall/pwcdc_net/conv1aa/conv2d_1/Conv2D_1/ReadVariableOp", "shape": [3, 3, 16, 16], "dtype": "float32"}, {"name": "StatefulPartitionedCall/pwcdc_net/conv1aa/conv2d_1/BiasAdd_1/ReadVariableOp", "shape": [16], "dtype": "float32"}, {"name": "StatefulPartitionedCall/pwcdc_net/conv1b/conv2d_2/Conv2D_1/ReadVariableOp", "shape": [3, 3, 16, 16], "dtype": "float32"}, {"name": "StatefulPartitionedCall/pwcdc_net/conv1b/conv2d_2/BiasAdd_1/ReadVariableOp", "shape": [16], "dtype": "float32"}, {"name": "StatefulPartitionedCall/pwcdc_net/conv2a/conv2d_3/Conv2D_1/ReadVariableOp", "shape": [3, 3, 16, 32], "dtype": "float32"}, {"name": "StatefulPartitionedCall/pwcdc_net/conv2a/conv2d_3/BiasAdd_1/ReadVariableOp", "shape": [32], "dtype": "float32"}, {"name": "StatefulPartitionedCall/pwcdc_net/conv2aa/conv2d_4/Conv2D_1/ReadVariableOp", "shape": [3, 3, 32, 32], "dtype": "float32"}, {"name": "StatefulPartitionedCall/pwcdc_net/conv2aa/conv2d_4/BiasAdd_1/ReadVariableOp", "shape": [32], "dtype": "float32"}, {"name": "StatefulPartitionedCall/pwcdc_net/conv2b/conv2d_5/Conv2D_1/ReadVariableOp", "shape": [3, 3, 32, 32], "dtype": "float32"}, {"name": "StatefulPartitionedCall/pwcdc_net/conv2b/conv2d_5/BiasAdd_1/ReadVariableOp", "shape": [32], "dtype": "float32"}, {"name": "StatefulPartitionedCall/pwcdc_net/conv3a/conv2d_6/Conv2D_1/ReadVariableOp", "shape": [3, 3, 32, 64], "dtype": "float32"}, {"name": "StatefulPartitionedCall/pwcdc_net/conv3a/conv2d_6/BiasAdd_1/ReadVariableOp", "shape": [64], "dtype": "float32"}, {"name": "StatefulPartitionedCall/pwcdc_net/conv3aa/conv2d_7/Conv2D_1/ReadVariableOp", "shape": [3, 3, 64, 64], "dtype": "float32"}, {"name": "StatefulPartitionedCall/pwcdc_net/conv3aa/conv2d_7/BiasAdd_1/ReadVariableOp", "shape": [64], "dtype": "float32"}, {"name": "StatefulPartitionedCall/pwcdc_net/conv3b/conv2d_8/Conv2D_1/ReadVariableOp", "shape": [3, 3, 64, 64], "dtype": "float32"}, {"name": "StatefulPartitionedCall/pwcdc_net/conv3b/conv2d_8/BiasAdd_1/ReadVariableOp", "shape": [64], "dtype": "float32"}, {"name": "StatefulPartitionedCall/pwcdc_net/conv4a/conv2d_9/Conv2D_1/ReadVariableOp", "shape": [3, 3, 64, 96], "dtype": "float32"}, {"name": "StatefulPartitionedCall/pwcdc_net/conv4a/conv2d_9/BiasAdd_1/ReadVariableOp", "shape": [96], "dtype": "float32"}, {"name": "StatefulPartitionedCall/pwcdc_net/conv4aa/conv2d_10/Conv2D_1/ReadVariableOp", "shape": [3, 3, 96, 96], "dtype": "float32"}, {"name": "StatefulPartitionedCall/pwcdc_net/conv4aa/conv2d_10/BiasAdd_1/ReadVariableOp", "shape": [96], "dtype": "float32"}, {"name": "StatefulPartitionedCall/pwcdc_net/conv4b/conv2d_11/Conv2D_1/ReadVariableOp", "shape": [3, 3, 96, 96], "dtype": "float32"}, {"name": "StatefulPartitionedCall/pwcdc_net/conv4b/conv2d_11/BiasAdd_1/ReadVariableOp", "shape": [96], "dtype": "float32"}, {"name": "StatefulPartitionedCall/pwcdc_net/conv5a/conv2d_12/Conv2D_1/ReadVariableOp", "shape": [3, 3, 96, 128], "dtype": "float32"}, {"name": "StatefulPartitionedCall/pwcdc_net/conv5a/conv2d_12/BiasAdd_1/ReadVariableOp", "shape": [128], "dtype": "float32"}, {"name": "StatefulPartitionedCall/pwcdc_net/conv5aa/conv2d_13/Conv2D_1/ReadVariableOp", "shape": [3, 3, 128, 128], "dtype": "float32"}, {"name": "StatefulPartitionedCall/pwcdc_net/conv5aa/conv2d_13/BiasAdd_1/ReadVariableOp", "shape": [128], "dtype": "float32"}, {"name": "StatefulPartitionedCall/pwcdc_net/conv5b/conv2d_14/Conv2D_1/ReadVariableOp", "shape": [3, 3, 128, 128], "dtype": "float32"}, {"name": "StatefulPartitionedCall/pwcdc_net/conv5b/conv2d_14/BiasAdd_1/ReadVariableOp", "shape": [128], "dtype": "float32"}, {"name": "StatefulPartitionedCall/pwcdc_net/conv6aa/conv2d_15/Conv2D_1/ReadVariableOp", "shape": [3, 3, 128, 196], "dtype": "float32"}, {"name": "StatefulPartitionedCall/pwcdc_net/conv6aa/conv2d_15/BiasAdd_1/ReadVariableOp", "shape": [196], "dtype": "float32"}, {"name": "StatefulPartitionedCall/pwcdc_net/conv6a/conv2d_16/Conv2D_1/ReadVariableOp", "shape": [3, 3, 196, 196], "dtype": "float32"}, {"name": "StatefulPartitionedCall/pwcdc_net/conv6a/conv2d_16/BiasAdd_1/ReadVariableOp", "shape": [196], "dtype": "float32"}, {"name": "StatefulPartitionedCall/pwcdc_net/conv6b/conv2d_17/Conv2D_1/ReadVariableOp", "shape": [3, 3, 196, 196], "dtype": "float32"}, {"name": "StatefulPartitionedCall/pwcdc_net/conv6b/conv2d_17/BiasAdd_1/ReadVariableOp", "shape": [196], "dtype": "float32"}, {"name": "StatefulPartitionedCall/pwcdc_net/Pad/paddings", "shape": [4, 2], "dtype": "int32"}, {"name": "StatefulPartitionedCall/pwcdc_net/Slice_80/begin", "shape": [4], "dtype": "int32"}, {"name": "StatefulPartitionedCall/pwcdc_net/Slice_80/size/0", "shape": [], "dtype": "int32"}, {"name": "StatefulPartitionedCall/pwcdc_net/strided_slice/stack", "shape": [4], "dtype": "int32"}, {"name": "StatefulPartitionedCall/pwcdc_net/strided_slice/stack_1", "shape": [4], "dtype": "int32"}, {"name": "StatefulPartitionedCall/pwcdc_net/strided_slice/stack_2", "shape": [4], "dtype": "int32"}, {"name": "StatefulPartitionedCall/pwcdc_net/conv1a/conv2d/Conv2D/ReadVariableOp", "shape": [3, 3, 3, 16], "dtype": "float32"}, {"name": "StatefulPartitionedCall/pwcdc_net/conv1a/conv2d/BiasAdd/ReadVariableOp", "shape": [16], "dtype": "float32"}, {"name": "StatefulPartitionedCall/pwcdc_net/conv1aa/conv2d_1/Conv2D/ReadVariableOp", "shape": [3, 3, 16, 16], "dtype": "float32"}, {"name": "StatefulPartitionedCall/pwcdc_net/conv1aa/conv2d_1/BiasAdd/ReadVariableOp", "shape": [16], "dtype": "float32"}, {"name": "StatefulPartitionedCall/pwcdc_net/conv1b/conv2d_2/Conv2D/ReadVariableOp", "shape": [3, 3, 16, 16], "dtype": "float32"}, {"name": "StatefulPartitionedCall/pwcdc_net/conv1b/conv2d_2/BiasAdd/ReadVariableOp", "shape": [16], "dtype": "float32"}, {"name": "StatefulPartitionedCall/pwcdc_net/conv2a/conv2d_3/Conv2D/ReadVariableOp", "shape": [3, 3, 16, 32], "dtype": "float32"}, {"name": "StatefulPartitionedCall/pwcdc_net/conv2a/conv2d_3/BiasAdd/ReadVariableOp", "shape": [32], "dtype": "float32"}, {"name": "StatefulPartitionedCall/pwcdc_net/conv2aa/conv2d_4/Conv2D/ReadVariableOp", "shape": [3, 3, 32, 32], "dtype": "float32"}, {"name": "StatefulPartitionedCall/pwcdc_net/conv2aa/conv2d_4/BiasAdd/ReadVariableOp", "shape": [32], "dtype": "float32"}, {"name": "StatefulPartitionedCall/pwcdc_net/conv2b/conv2d_5/Conv2D/ReadVariableOp", "shape": [3, 3, 32, 32], "dtype": "float32"}, {"name": "StatefulPartitionedCall/pwcdc_net/conv2b/conv2d_5/BiasAdd/ReadVariableOp", "shape": [32], "dtype": "float32"}, {"name": "StatefulPartitionedCall/pwcdc_net/conv3a/conv2d_6/Conv2D/ReadVariableOp", "shape": [3, 3, 32, 64], "dtype": "float32"}, {"name": "StatefulPartitionedCall/pwcdc_net/conv3a/conv2d_6/BiasAdd/ReadVariableOp", "shape": [64], "dtype": "float32"}, {"name": "StatefulPartitionedCall/pwcdc_net/conv3aa/conv2d_7/Conv2D/ReadVariableOp", "shape": [3, 3, 64, 64], "dtype": "float32"}, {"name": "StatefulPartitionedCall/pwcdc_net/conv3aa/conv2d_7/BiasAdd/ReadVariableOp", "shape": [64], "dtype": "float32"}, {"name": "StatefulPartitionedCall/pwcdc_net/conv3b/conv2d_8/Conv2D/ReadVariableOp", "shape": [3, 3, 64, 64], "dtype": "float32"}, {"name": "StatefulPartitionedCall/pwcdc_net/conv3b/conv2d_8/BiasAdd/ReadVariableOp", "shape": [64], "dtype": "float32"}, {"name": "StatefulPartitionedCall/pwcdc_net/conv4a/conv2d_9/Conv2D/ReadVariableOp", "shape": [3, 3, 64, 96], "dtype": "float32"}, {"name": "StatefulPartitionedCall/pwcdc_net/conv4a/conv2d_9/BiasAdd/ReadVariableOp", "shape": [96], "dtype": "float32"}, {"name": "StatefulPartitionedCall/pwcdc_net/conv4aa/conv2d_10/Conv2D/ReadVariableOp", "shape": [3, 3, 96, 96], "dtype": "float32"}, {"name": "StatefulPartitionedCall/pwcdc_net/conv4aa/conv2d_10/BiasAdd/ReadVariableOp", "shape": [96], "dtype": "float32"}, {"name": "StatefulPartitionedCall/pwcdc_net/conv4b/conv2d_11/Conv2D/ReadVariableOp", "shape": [3, 3, 96, 96], "dtype": "float32"}, {"name": "StatefulPartitionedCall/pwcdc_net/conv4b/conv2d_11/BiasAdd/ReadVariableOp", "shape": [96], "dtype": "float32"}, {"name": "StatefulPartitionedCall/pwcdc_net/conv5a/conv2d_12/Conv2D/ReadVariableOp", "shape": [3, 3, 96, 128], "dtype": "float32"}, {"name": "StatefulPartitionedCall/pwcdc_net/conv5a/conv2d_12/BiasAdd/ReadVariableOp", "shape": [128], "dtype": "float32"}, {"name": "StatefulPartitionedCall/pwcdc_net/conv5aa/conv2d_13/Conv2D/ReadVariableOp", "shape": [3, 3, 128, 128], "dtype": "float32"}, {"name": "StatefulPartitionedCall/pwcdc_net/conv5aa/conv2d_13/BiasAdd/ReadVariableOp", "shape": [128], "dtype": "float32"}, {"name": "StatefulPartitionedCall/pwcdc_net/conv5b/conv2d_14/Conv2D/ReadVariableOp", "shape": [3, 3, 128, 128], "dtype": "float32"}, {"name": "StatefulPartitionedCall/pwcdc_net/conv5b/conv2d_14/BiasAdd/ReadVariableOp", "shape": [128], "dtype": "float32"}, {"name": "StatefulPartitionedCall/pwcdc_net/conv6aa/conv2d_15/Conv2D/ReadVariableOp", "shape": [3, 3, 128, 196], "dtype": "float32"}, {"name": "StatefulPartitionedCall/pwcdc_net/conv6aa/conv2d_15/BiasAdd/ReadVariableOp", "shape": [196], "dtype": "float32"}, {"name": "StatefulPartitionedCall/pwcdc_net/conv6a/conv2d_16/Conv2D/ReadVariableOp", "shape": [3, 3, 196, 196], "dtype": "float32"}, {"name": "StatefulPartitionedCall/pwcdc_net/conv6a/conv2d_16/BiasAdd/ReadVariableOp", "shape": [196], "dtype": "float32"}, {"name": "StatefulPartitionedCall/pwcdc_net/conv6b/conv2d_17/Conv2D/ReadVariableOp", "shape": [3, 3, 196, 196], "dtype": "float32"}, {"name": "StatefulPartitionedCall/pwcdc_net/conv6b/conv2d_17/BiasAdd/ReadVariableOp", "shape": [196], "dtype": "float32"}, {"name": "StatefulPartitionedCall/pwcdc_net/Slice_80/size/3", "shape": [], "dtype": "int32"}, {"name": "StatefulPartitionedCall/pwcdc_net/Mean_80/reduction_indices", "shape": [], "dtype": "int32"}, {"name": "StatefulPartitionedCall/pwcdc_net/concat/axis", "shape": [], "dtype": "int32"}, {"name": "StatefulPartitionedCall/pwcdc_net/concat_1/axis", "shape": [], "dtype": "int32"}, {"name": "StatefulPartitionedCall/pwcdc_net/concat_2/axis", "shape": [], "dtype": "int32"}, {"name": "StatefulPartitionedCall/pwcdc_net/concat_3/axis", "shape": [], "dtype": "int32"}, {"name": "StatefulPartitionedCall/pwcdc_net/concat_4/axis", "shape": [], "dtype": "int32"}, {"name": "StatefulPartitionedCall/pwcdc_net/concat_5/axis", "shape": [], "dtype": "int32"}, {"name": "StatefulPartitionedCall/pwcdc_net/upfeat_6/upfeat_6/BiasAdd/ReadVariableOp", "shape": [2], "dtype": "float32"}, {"name": "StatefulPartitionedCall/pwcdc_net/concat_7/axis", "shape": [], "dtype": "int32"}, {"name": "StatefulPartitionedCall/pwcdc_net/concat_8/axis", "shape": [], "dtype": "int32"}, {"name": "StatefulPartitionedCall/pwcdc_net/concat_9/axis", "shape": [], "dtype": "int32"}, {"name": "StatefulPartitionedCall/pwcdc_net/concat_10/axis", "shape": [], "dtype": "int32"}, {"name": "StatefulPartitionedCall/pwcdc_net/concat_11/axis", "shape": [], "dtype": "int32"}, {"name": "StatefulPartitionedCall/pwcdc_net/concat_12/axis", "shape": [], "dtype": "int32"}, {"name": "StatefulPartitionedCall/pwcdc_net/upfeat_5/upfeat_5/BiasAdd/ReadVariableOp", "shape": [2], "dtype": "float32"}, {"name": "StatefulPartitionedCall/pwcdc_net/concat_14/axis", "shape": [], "dtype": "int32"}, {"name": "StatefulPartitionedCall/pwcdc_net/concat_15/axis", "shape": [], "dtype": "int32"}, {"name": "StatefulPartitionedCall/pwcdc_net/concat_16/axis", "shape": [], "dtype": "int32"}, {"name": "StatefulPartitionedCall/pwcdc_net/concat_17/axis", "shape": [], "dtype": "int32"}, {"name": "StatefulPartitionedCall/pwcdc_net/concat_18/axis", "shape": [], "dtype": "int32"}, {"name": "StatefulPartitionedCall/pwcdc_net/concat_19/axis", "shape": [], "dtype": "int32"}, {"name": "StatefulPartitionedCall/pwcdc_net/upfeat_4/upfeat_4/BiasAdd/ReadVariableOp", "shape": [2], "dtype": "float32"}, {"name": "StatefulPartitionedCall/pwcdc_net/concat_21/axis", "shape": [], "dtype": "int32"}, {"name": "StatefulPartitionedCall/pwcdc_net/concat_22/axis", "shape": [], "dtype": "int32"}, {"name": "StatefulPartitionedCall/pwcdc_net/concat_23/axis", "shape": [], "dtype": "int32"}, {"name": "StatefulPartitionedCall/pwcdc_net/concat_24/axis", "shape": [], "dtype": "int32"}, {"name": "StatefulPartitionedCall/pwcdc_net/concat_25/axis", "shape": [], "dtype": "int32"}, {"name": "StatefulPartitionedCall/pwcdc_net/concat_26/axis", "shape": [], "dtype": "int32"}, {"name": "StatefulPartitionedCall/pwcdc_net/upfeat_3/upfeat_3/BiasAdd/ReadVariableOp", "shape": [2], "dtype": "float32"}, {"name": "StatefulPartitionedCall/pwcdc_net/concat_28/axis", "shape": [], "dtype": "int32"}, {"name": "StatefulPartitionedCall/pwcdc_net/concat_29/axis", "shape": [], "dtype": "int32"}, {"name": "StatefulPartitionedCall/pwcdc_net/concat_30/axis", "shape": [], "dtype": "int32"}, {"name": "StatefulPartitionedCall/pwcdc_net/concat_31/axis", "shape": [], "dtype": "int32"}, {"name": "StatefulPartitionedCall/pwcdc_net/concat_32/axis", "shape": [], "dtype": "int32"}, {"name": "StatefulPartitionedCall/pwcdc_net/concat_33/axis", "shape": [], "dtype": "int32"}, {"name": "StatefulPartitionedCall/pwcdc_net/dc_conv1/conv2d_43/Conv2D/ReadVariableOp", "shape": [3, 3, 565, 128], "dtype": "float32"}, {"name": "StatefulPartitionedCall/pwcdc_net/dc_conv1/conv2d_43/BiasAdd/ReadVariableOp", "shape": [128], "dtype": "float32"}, {"name": "StatefulPartitionedCall/pwcdc_net/dc_conv2/conv2d_44/Conv2D/strided_slice_1/stack", "shape": [1], "dtype": "int32"}, {"name": "StatefulPartitionedCall/pwcdc_net/dc_conv2/conv2d_44/Conv2D/strided_slice_1/stack_1", "shape": [1], "dtype": "int32"}, {"name": "StatefulPartitionedCall/pwcdc_net/dc_conv2/conv2d_44/Conv2D/strided_slice_1/stack_2", "shape": [1], "dtype": "int32"}, {"name": "StatefulPartitionedCall/pwcdc_net/dc_conv2/conv2d_44/Conv2D/required_space_to_batch_paddings/add", "shape": [2], "dtype": "int32"}, {"name": "StatefulPartitionedCall/pwcdc_net/dc_conv2/conv2d_44/Conv2D/dilation_rate", "shape": [2], "dtype": "int32"}, {"name": "StatefulPartitionedCall/pwcdc_net/dc_conv2/conv2d_44/Conv2D/required_space_to_batch_paddings/strided_slice_7/stack", "shape": [1], "dtype": "int32"}, {"name": "StatefulPartitionedCall/pwcdc_net/dc_conv2/conv2d_44/Conv2D/required_space_to_batch_paddings/strided_slice_7/stack_1", "shape": [1], "dtype": "int32"}, {"name": "StatefulPartitionedCall/pwcdc_net/dc_conv2/conv2d_44/Conv2D/required_space_to_batch_paddings/strided_slice_7/stack_2", "shape": [1], "dtype": "int32"}, {"name": "StatefulPartitionedCall/pwcdc_net/dc_conv2/conv2d_44/BiasAdd/ReadVariableOp", "shape": [128], "dtype": "float32"}, {"name": "StatefulPartitionedCall/pwcdc_net/dc_conv3/conv2d_45/Conv2D/strided_slice_1/stack", "shape": [1], "dtype": "int32"}, {"name": "StatefulPartitionedCall/pwcdc_net/dc_conv3/conv2d_45/Conv2D/strided_slice_1/stack_1", "shape": [1], "dtype": "int32"}, {"name": "StatefulPartitionedCall/pwcdc_net/dc_conv3/conv2d_45/Conv2D/strided_slice_1/stack_2", "shape": [1], "dtype": "int32"}, {"name": "StatefulPartitionedCall/pwcdc_net/dc_conv3/conv2d_45/Conv2D/required_space_to_batch_paddings/add", "shape": [2], "dtype": "int32"}, {"name": "StatefulPartitionedCall/pwcdc_net/dc_conv3/conv2d_45/Conv2D/dilation_rate", "shape": [2], "dtype": "int32"}, {"name": "StatefulPartitionedCall/pwcdc_net/dc_conv3/conv2d_45/Conv2D/required_space_to_batch_paddings/strided_slice_7/stack", "shape": [1], "dtype": "int32"}, {"name": "StatefulPartitionedCall/pwcdc_net/dc_conv3/conv2d_45/Conv2D/required_space_to_batch_paddings/strided_slice_7/stack_1", "shape": [1], "dtype": "int32"}, {"name": "StatefulPartitionedCall/pwcdc_net/dc_conv3/conv2d_45/Conv2D/required_space_to_batch_paddings/strided_slice_7/stack_2", "shape": [1], "dtype": "int32"}, {"name": "StatefulPartitionedCall/pwcdc_net/dc_conv3/conv2d_45/BiasAdd/ReadVariableOp", "shape": [128], "dtype": "float32"}, {"name": "StatefulPartitionedCall/pwcdc_net/dc_conv4/conv2d_46/Conv2D/strided_slice_1/stack", "shape": [1], "dtype": "int32"}, {"name": "StatefulPartitionedCall/pwcdc_net/dc_conv4/conv2d_46/Conv2D/strided_slice_1/stack_1", "shape": [1], "dtype": "int32"}, {"name": "StatefulPartitionedCall/pwcdc_net/dc_conv4/conv2d_46/Conv2D/strided_slice_1/stack_2", "shape": [1], "dtype": "int32"}, {"name": "StatefulPartitionedCall/pwcdc_net/dc_conv4/conv2d_46/Conv2D/required_space_to_batch_paddings/add", "shape": [2], "dtype": "int32"}, {"name": "StatefulPartitionedCall/pwcdc_net/dc_conv4/conv2d_46/Conv2D/dilation_rate", "shape": [2], "dtype": "int32"}, {"name": "StatefulPartitionedCall/pwcdc_net/dc_conv4/conv2d_46/Conv2D/required_space_to_batch_paddings/strided_slice_7/stack", "shape": [1], "dtype": "int32"}, {"name": "StatefulPartitionedCall/pwcdc_net/dc_conv4/conv2d_46/Conv2D/required_space_to_batch_paddings/strided_slice_7/stack_1", "shape": [1], "dtype": "int32"}, {"name": "StatefulPartitionedCall/pwcdc_net/dc_conv4/conv2d_46/Conv2D/required_space_to_batch_paddings/strided_slice_7/stack_2", "shape": [1], "dtype": "int32"}, {"name": "StatefulPartitionedCall/pwcdc_net/dc_conv4/conv2d_46/BiasAdd/ReadVariableOp", "shape": [96], "dtype": "float32"}, {"name": "StatefulPartitionedCall/pwcdc_net/dc_conv5/conv2d_47/Conv2D/strided_slice_1/stack", "shape": [1], "dtype": "int32"}, {"name": "StatefulPartitionedCall/pwcdc_net/dc_conv5/conv2d_47/Conv2D/strided_slice_1/stack_1", "shape": [1], "dtype": "int32"}, {"name": "StatefulPartitionedCall/pwcdc_net/dc_conv5/conv2d_47/Conv2D/strided_slice_1/stack_2", "shape": [1], "dtype": "int32"}, {"name": "StatefulPartitionedCall/pwcdc_net/dc_conv5/conv2d_47/Conv2D/required_space_to_batch_paddings/add", "shape": [2], "dtype": "int32"}, {"name": "StatefulPartitionedCall/pwcdc_net/dc_conv5/conv2d_47/Conv2D/dilation_rate", "shape": [2], "dtype": "int32"}, {"name": "StatefulPartitionedCall/pwcdc_net/dc_conv5/conv2d_47/Conv2D/required_space_to_batch_paddings/strided_slice_7/stack", "shape": [1], "dtype": "int32"}, {"name": "StatefulPartitionedCall/pwcdc_net/dc_conv5/conv2d_47/Conv2D/required_space_to_batch_paddings/strided_slice_7/stack_1", "shape": [1], "dtype": "int32"}, {"name": "StatefulPartitionedCall/pwcdc_net/dc_conv5/conv2d_47/Conv2D/required_space_to_batch_paddings/strided_slice_7/stack_2", "shape": [1], "dtype": "int32"}, {"name": "StatefulPartitionedCall/pwcdc_net/dc_conv5/conv2d_47/BiasAdd/ReadVariableOp", "shape": [64], "dtype": "float32"}, {"name": "StatefulPartitionedCall/pwcdc_net/dc_conv6/conv2d_48/Conv2D/ReadVariableOp", "shape": [3, 3, 64, 32], "dtype": "float32"}, {"name": "StatefulPartitionedCall/pwcdc_net/dc_conv6/conv2d_48/BiasAdd/ReadVariableOp", "shape": [32], "dtype": "float32"}, {"name": "StatefulPartitionedCall/pwcdc_net/predict_flow_5/dc_conv7/Conv2D/ReadVariableOp", "shape": [3, 3, 32, 2], "dtype": "float32"}, {"name": "StatefulPartitionedCall/pwcdc_net/predict_flow_5/dc_conv7/BiasAdd/ReadVariableOp", "shape": [2], "dtype": "float32"}]}]}